MNIST_black_box.ckpt (torch, 352876 bytes, 18 tensors)

conv1.0.weight f4 [16, 1, 5, 5]
000000 ac c9 74 bd 91 18 c5 be 9a 13 ae be ff cd 17 3e
       -0.05976264 -0.38495305 -0.3399933 0.14824675
000010 6b 98 55 bd b6 f8 9b bd 14 2a 61 3e 6e 81 6d 3d
       -0.05214731 -0.07615797 0.21988708 0.057984762
000020 b5 d4 0f 3e 6d 6e 90 3d fe 5c a1 3e 88 39 bd 3e
       0.14045985 0.07052312 0.3151626 0.36957955
000030 8c 3e a6 3d 36 a4 23 3e fc 29 34 be 38 40 e0 3d
       0.081173986 0.1598061 -0.17594141 0.10949749
000040 56 64 6f 3e be 36 c7 3d 45 c7 45 3e aa dc 3a 3e
       0.23378119 0.09727238 0.19314297 0.18248239
000050 81 f8 50 be 9f d7 59 3d a0 99 41 be 11 ea 1d bd
       -0.20407297 0.053184148 -0.1890626 -0.0385533
000060 4b 00 c3 3e e8 51 9d 3c 66 98 99 3e 05 ad b5 3d
       0.3808616 0.019204095 0.29999083 0.088708915
000070 85 b1 f2 bd f6 9d b8 3c ce 06 8c 3e da 95 ee 3d
       -0.118502654 0.02253626 0.27348942 0.11649676
000080 34 be 89 3e cf 5a 19 3e 4c 01 2e be 0a cf bb 3d
       0.26902926 0.14976047 -0.16992682 0.09170349
000090 0b 2d 11 3e a2 6c 60 bd d6 2a 4d 3e 89 6d 23 3e
       0.14177339 -0.0547911 0.20035872 0.15959753
0000a0 07 39 fd 3d 64 60 08 be b5 79 d2 3c 92 f2 40 3e
       0.12364393 -0.1331802 0.0256928 0.18842533
0000b0 f5 b5 b0 3d 3b fb 33 3d 7c c3 1f 3e 97 b0 61 be
       0.086284555 0.043940764 0.15601915 -0.2204002
0000c0 e5 6e 38 3e 6d b6 83 3e 25 32 22 3e d6 38 5a bd
       0.18011053 0.25725117 0.15839441 -0.05327686
0000d0 09 84 81 3e bd fb 16 3d b2 ea 15 3e 81 84 04 3d
       0.25296047 0.03686117 0.1464031 0.032352928
0000e0 3e 15 7a 3d ff 3f 47 3e 6c 10 9b 3e 93 ed 62 bd
       0.061055414 0.19458006 0.30285966 -0.05540235
0000f0 46 c0 ad 3e c1 78 bc 3e 51 47 87 3e d4 3e 83 3e
       0.33935755 0.36810878 0.26421598 0.25633872
000100 13 f8 23 3e 0d 6f 7f 3e b1 df 28 3e b5 a5 1b 3d
       0.16012602 0.24944706 0.16491581 0.037999827
000110 f3 b3 cf bd 0f f1 f7 3d 2d cc 7d 3e 20 61 4a 3e
       -0.101417445 0.12106525 0.24784918 0.19763613
000120 33 f6 ca bd f9 ba 1c be a2 6d 02 be 37 ee ba be
       -0.0991024 -0.153057 -0.12737134 -0.36509869
000130 cb 4e d9 be d6 e4 71 be 7d a7 13 3e b1 aa 50 3e
       -0.42442927 -0.2362245 0.1441936 0.20377614
000140 5a 32 94 be 72 95 fd 3a 9a fa 9b 3e c8 16 61 3e
       -0.28944665 0.0019346906 0.3046463 0.21981347
000150 e9 4d 55 3e 2f 2f d8 3c 5f e6 ec 3d 71 e1 a4 3c
       0.20830502 0.026389686 0.11567377 0.02012703
000160 2e dd 95 3a 8b fc 4b 3d 26 fe 20 3e b4 e7 26 3e
       0.0011433715 0.04980139 0.1572195 0.16299325
000170 0f 75 2f 3e ad b2 71 3e f7 e1 a2 bc c7 43 ab 3e
       0.17134498 0.23603316 -0.019883139 0.33450148
000180 12 c1 4d 3d f8 30 86 3e 37 17 3f 3e 8f ad c3 bd
       0.050232954 0.26209235 0.186612 -0.09554588
000190 f6 7d 33 3e bd f3 9f 3e eb 64 55 3e eb e6 07 3d
       0.17528519 0.31240645 0.20839278 0.033179205
0001a0 a3 8d 9c 3d d9 b1 79 3e 3a 8d 8f bd 5b e6 86 3e
       0.076442026 0.2438425 -0.07009359 0.26347622
0001b0 a7 0b 55 3e 47 41 3a bd 72 ae 79 be 5e 4c ba 3d
       0.20805226 -0.04547241 -0.24382952 0.09096597
0001c0 7c 01 9e 3e ea 0a 74 3e a5 9f 0c 3e 7d 09 50 be
       0.30860507 0.23832288 0.13732775 -0.2031612
0001d0 36 04 68 3a a9 bb eb bd c6 3a a1 3e 5b ba 98 3e
       0.0008850725 -0.11510403 0.31490153 0.29829678
0001e0 4b 12 1f bd 33 f6 86 be af b1 89 be 8e 10 47 bc
       -0.038835805 -0.2635971 -0.26893374 -0.012149943
0001f0 d7 b8 0b 3d 76 be 6c 3e 62 2a 9d 3e 6c 04 53 3e
       0.034111824 0.2311953 0.30696398 0.20607156
000200 ba 86 db bd cc 68 3f 3e b4 e8 4b 3e af 61 a1 3e
       -0.107190564 0.1869232 0.19912988 0.3151984
000210 d9 97 d7 3d bb be 43 3e 48 f5 0a 3d 54 50 3f 3e
       0.105270095 0.19115727 0.033925325 0.18682986
000220 22 01 77 bd 2b 58 87 3e 05 cf 0a 3e a8 02 17 3e
       -0.060303815 0.26434454 0.13555534 0.14747107
000230 b6 48 1a 3e 6c 14 60 bd 0f c4 25 3e 17 f9 af bc
       0.150668 -0.054706976 0.16188072 -0.02148108
000240 38 01 08 3c 95 ff 6a 3d 6c a7 a3 be 1c be 01 bf
       0.008301072 0.05737265 -0.3196367 -0.5068071
000250 8a b5 00 bf 49 6b 36 be 27 7b 3c be 06 c0 e7 be
       -0.50277007 -0.17814364 -0.18406354 -0.4526369
000260 2c 45 e7 be 78 dc 9c be 3b 98 b0 be 86 c4 38 3e
       -0.4516996 -0.30636954 -0.34491143 0.18043718
000270 a6 ec 18 be 3b e4 15 bf e5 82 af be 84 6b de be
       -0.14934024 -0.5855138 -0.34279552 -0.43441403
000280 01 23 71 3e 9d e1 37 3e 80 38 0c 3e 5d e3 c8 bb
       0.23548509 0.17957158 0.13693428 -0.0061306194
000290 4b 37 1d 3c fd 22 a9 3e 85 7b c5 3e e3 e8 d1 3e
       0.009595702 0.33034506 0.385708 0.4099799
0002a0 bf e1 a3 3e ee ea 52 3e 2a 5b bb 3e c6 40 bd 3d
       0.32008168 0.20597431 0.3659299 0.0924087
0002b0 7e 09 61 3e bf ad d8 3e e5 ec b6 3e bb bf 9a 3d
       0.21976277 0.42320058 0.3572761 0.07556101
0002c0 c6 22 9b 3e 1a c9 67 3e a7 45 70 bd 36 a4 bf be
       0.30299968 0.22635308 -0.058660176 -0.3742997
0002d0 b1 41 d8 bd dd 1c ef 3d cf 2c 44 3e 1d 54 ff bd
       -0.10559405 0.11675427 0.19157718 -0.12467215
0002e0 07 bb b7 be 02 fc 8c bc 99 0c 81 3e 8f 4c a3 3e
       -0.35884878 -0.01721001 0.25204924 0.31894347
0002f0 b9 8c ae bd 41 35 16 be bb 1a 9f 3a e8 f3 2c 3e
       -0.085229345 -0.14668752 0.0012138704 0.16889918
000300 0f 15 a6 3e 5f 4c 89 3e 27 e5 54 bd 54 f2 d6 bc
       0.3243794 0.2681608 -0.05197635 -0.026238598
000310 e7 53 b8 3d 40 e8 e8 3d e6 9c ad bc de 4c 27 3e
       0.09000378 0.11372423 -0.021192979 0.16337916
000320 07 24 fe 3e 51 b2 ad 3e ff 88 ca 3e 93 f2 d3 3e
       0.49636862 0.33925107 0.39557645 0.41396007
000330 e5 00 bb 3e 81 ec fb 3c 69 61 e6 3e 47 84 da 3e
       0.3652412 0.030752422 0.44996193 0.42679045
000340 73 ce a2 3e af 44 b8 3e f0 fc e9 be dc 1d 91 be
       0.31798133 0.359899 -0.45700788 -0.28343093
000350 54 3f dd bd 3c dc 52 39 10 bd 3a be 8d e5 49 be
       -0.108030945 0.00020109204 -0.18236184 -0.19716473
000360 8a 8d 0d bf 47 8c 29 bf 26 e0 57 bf 61 a3 be be
       -0.55294096 -0.6622967 -0.843264 -0.37234023
000370 79 31 9f bd 9e e8 1b be b3 33 ac bd 4c 34 b7 3d
       -0.07773108 -0.15225455 -0.08408298 0.08945522
000380 01 c9 36 3e f1 bf e5 3e ac 30 11 3f b6 9f 66 3e
       0.17850114 0.44873002 0.5671489 0.22521862
000390 6f 00 99 be 55 38 a5 be 16 51 fa 3e b6 92 f0 3e
       -0.29883143 -0.3226954 0.4888999 0.46986932
0003a0 d8 8d 11 3d 95 4e f0 be fb 47 d7 be 7f 52 0c 3f
       0.035535663 -0.46934953 -0.42047104 0.5481338
0003b0 cc 67 ae 3e 1a e1 d4 3d 8d 9d 15 bf 09 8b fb be
       0.34063566 0.10394497 -0.5844353 -0.49129513
0003c0 16 66 01 3e 77 d6 bb 3e 26 a6 a6 3e 49 60 d2 be
       0.12636599 0.3668706 0.32548636 -0.41089085
0003d0 c9 b1 af be 84 c6 a9 bd e8 08 c2 3e 81 ba d8 3d
       -0.34315327 -0.08289817 0.3789742 0.10582448
0003e0 32 72 13 3d ac 4c a3 bd b7 5c 07 3d ed e1 96 3e
       0.035997577 -0.079736084 0.033047404 0.29469243
0003f0 80 e1 a5 3c 4b 6c f1 3d 17 d8 0b 3e 9b b7 8c 3d
       0.020249128 0.11788233 0.1365665 0.068709575

conv1.0.bias f4 [16]
000000 b6 c8 0f ba a9 12 a1 3d 4f 8d 42 3d 8f 79 21 3e
       -0.00054849254 0.07864887 0.047498044 0.15769027
000010 d0 c9 28 ba da 3b 73 3d 33 23 8b 3d b8 93 6e 39
       -0.0006438764 0.05938325 0.06793823 0.00022752478
000020 29 d2 cb 3d 52 ab 27 3d 38 2d 86 3a 2e 58 8e bd
       0.09952194 0.04093487 0.0010236865 -0.06950413
000030 33 cf 32 3e dd 06 32 3e 63 89 f8 3d a4 11 10 39
       0.17461853 0.1738543 0.121355794 0.00013739482

conv2.0.weight f4 [32, 16, 5, 5]
000000 41 7f f5 3c 8d 5c d8 3c dd 13 66 3d 4f b7 95 3d
       0.029967906 0.02641132 0.056171287 0.07310354
000010 d0 a6 7c 3d 88 b6 5d 3c a5 dc 5d 3c 78 97 6c 3d
       0.061682522 0.013532288 0.013541375 0.05776164
000020 9e dd 70 3c cf a5 89 bd 8c c1 20 3e e8 f7 0d 3e
       0.014701275 -0.067210786 0.15698832 0.138641
000030 01 cb 73 3d 7a 6c 93 3d d5 75 d2 3c 78 50 16 bd
       0.05951977 0.07198425 0.025690952 -0.036697835
000040 37 17 5b 3d 0c e3 53 3d f3 f9 b4 3d c6 79 37 3d
       0.053488936 0.0517302 0.088367365 0.044793867
000050 07 b7 af bd b5 db 08 3d 7a 3d dd 3c cc 84 5c bd
       -0.085798316 0.033412654 0.027006853 -0.053837582
000060 ab d6 14 be 05 f6 ae bc 49 d9 83 bb fd 17 6f 3c
       -0.14535014 -0.021357546 -0.004023705 0.014593122
000070 e9 d8 3a 3d 26 7f f1 3c fa 80 18 3d bf 58 b6 3c
       0.045617018 0.029479574 0.037232377 0.022259114
000080 b8 6a 35 3d 69 58 21 3d 48 4f fd bc c6 3f b7 3d
       0.044291228 0.039390955 -0.030921593 0.08947711
000090 43 0d b5 3c b8 23 27 3d 4c 5f 22 3c c1 ad c0 3c
       0.02210105 0.04080555 0.009910416 0.023520352
0000a0 6e 4a 17 3d 9f e9 38 3d 58 04 c0 3d e2 28 8a 3d
       0.036936216 0.045144673 0.093758285 0.06746079
0000b0 94 c0 36 3d a5 3a d2 bd c0 3d b4 bd 7a 85 45 3d
       0.04461725 -0.10265092 -0.088008404 0.048222996
0000c0 6f b1 3c 3d 80 62 84 bd 56 0d b9 3d ba 29 58 bd
       0.04606765 -0.064641 0.09035747 -0.05277417
0000d0 fe 99 0f bd d7 e2 e3 3d 04 b4 04 3c 3c 69 39 3d
       -0.035058968 0.11127251 0.00809956 0.045266375
0000e0 9a 0a e5 3c cc 38 de 3c 8a 71 35 bd 1a 41 b0 3b
       0.027959157 0.027126692 -0.044297732 0.0053788545
0000f0 ef e0 97 3d 11 8c 80 bd 1e 42 38 bd 80 5c 1c 3d
       0.074159496 -0.062767155 -0.04498493 0.038174152
000100 91 c2 d3 bc c4 7a 9b bc 0c 46 cf bd 6c 55 9f 3d
       -0.025849612 -0.018979438 -0.10120782 0.07779965
000110 bb a2 47 3d cd f7 2a bc 59 c4 d8 bd 9c 63 8d 3d
       0.048739176 -0.010435057 -0.10584325 0.069037646
000120 7d 29 81 3d e0 76 54 3c 6f 6e 30 3c b8 5c 95 3d
       0.063067414 0.012967795 0.010768517 0.07293075
000130 a1 be 02 3c 40 4d f8 3c b1 fc a2 3d 3c 29 73 3d
       0.00798002 0.030310273 0.07958353 0.059365496
000140 f0 65 a0 3d ed a2 0b 3e ad a2 80 3d a0 c9 2b 3d
       0.07831943 0.1363637 0.06281028 0.04194033
000150 94 89 1c 3d 48 d7 9a 3b 6a 69 13 3d 22 df 73 3d
       0.038217142 0.0047253706 0.035989203 0.059538968
000160 dc 6b 5d 3d 70 3d 00 bd 16 84 c7 bd 48 cf 9a bc
       0.05405794 -0.03130859 -0.0974199 -0.018897668
000170 32 b2 33 3d 14 70 1c 3b 5b 00 5c bd e7 e1 03 bd
       0.043871112 0.0023870515 -0.053711277 -0.03219786
000180 a6 81 1d 3d d2 d0 3e 3b 03 dd 24 bd 32 23 ff bd
       0.03845372 0.0029116166 -0.040249836 -0.12457885
000190 e8 62 8f bd eb 0c 06 bd 1c a5 16 bd 19 25 44 bd
       -0.07001287 -0.032727163 -0.036778554 -0.04788694
0001a0 51 a7 99 bd cf 4e 90 3b 8c cd 9f 3b 57 8f 35 bc
       -0.07502616 0.004403926 0.004876798 -0.011081538
0001b0 e3 56 5f bc 2d 0b f3 bd 7c 7e 95 3d e5 18 fb 3c
       -0.013631555 -0.11867366 0.072995156 0.03065152
0001c0 56 41 ba 3b c5 fa 22 bc 3c bf 7b 3c 94 1e 0c 3e
       0.005684058 -0.009947483 0.015365418 0.1368354
0001d0 a4 9f e3 3d 9d 38 79 3d e2 1d dd 3b 48 95 54 3d
       0.111144334 0.060845006 0.006747947 0.05190018
0001e0 ce ec 8c bc eb b9 33 3b 36 1c 90 bb 70 ef 60 3d
       -0.017202761 0.0027424048 -0.0043978943 0.054915845
0001f0 0f 23 de 3c 9a fc 34 3c 3b 37 0a 3c c8 ce a4 bc
       0.027116327 0.011046553 0.0084360195 -0.020118132
000200 cc 18 81 bc ac 18 a1 3d ee 16 df bd 28 66 0e be
       -0.015758894 0.07866034 -0.10893045 -0.13906157
000210 72 c0 d9 bd e2 3a 3f 3d ae f4 8b 3c 1e d9 dd 3d
       -0.10632409 0.046687014 0.017084446 0.108324274
000220 c4 25 e0 bc cc 6e 01 bb 1a af 60 3d 57 78 66 3d
       -0.027361758 -0.0019749878 0.05485449 0.05626711
000230 4d 89 a0 3d b0 dd ea bc 31 c2 88 3d 14 aa 99 3c
       0.07838688 -0.028670162 0.06677664 0.018757857
000240 04 4b 3a 3d 28 ab 9e bd 41 d6 c9 bb 33 b4 db 3d
       0.045481697 -0.07747489 -0.0061595743 0.1072773
000250 48 fb 80 3d 40 05 94 3d ad 65 c8 bd c5 ec 38 be
       0.06297928 0.07227564 -0.09785018 -0.1805907
000260 85 f9 ef bd a2 bc 59 bd f6 6f f5 bd fe 05 7e 3c
       -0.11717514 -0.05315841 -0.119842455 0.015504358
000270 82 ee 15 be ca 71 74 be 7f 52 27 be 41 21 1b be
       -0.14641765 -0.23871532 -0.16340064 -0.15149404
000280 32 b9 82 bb ca 73 95 bd bc aa 24 be 4a 99 bf bd
       -0.003989362 -0.07297476 -0.16080755 -0.093554094
000290 ce 54 91 3d be ba 4d bd d4 f1 ce bd 4c 2b 1e b8
       0.07096253 -0.05022692 -0.10104719 -3.771046e-05
0002a0 97 3e 8d 3b 9e 0f c3 ba 73 85 d4 bd b6 39 34 be
       0.00431044 -0.0014881974 -0.10377016 -0.1760014
0002b0 79 c5 28 be c9 4d 35 be 5d 39 78 bd fb f8 34 bd
       -0.1648158 -0.17705454 -0.06060158 -0.04418276
0002c0 64 ee 04 be 1d 91 d4 3c 5f 3a 28 3c d9 69 84 3b
       -0.12981564 0.025948102 0.010267823 0.0040409383
0002d0 f5 0c 94 3d b8 26 15 bd 18 37 c8 3d b9 bf c9 bb
       0.07229034 -0.03641388 0.09776133 -0.0061568883
0002e0 8a d9 c4 3c 11 63 c3 3d a5 16 89 3d ff c0 55 3d
       0.024029512 0.0954038 0.06693772 0.05218601
0002f0 cb 7a 00 3d 8d 4e b5 3d 65 d4 39 bd 43 fe 8f 3d
       0.031367105 0.08852873 -0.04536857 0.070309184
000300 cb 0f e7 3d a3 18 bb 3d 16 a0 d6 3c ab bc c0 bd
       0.11282309 0.091355585 0.026199382 -0.094109856
000310 e3 9a 87 bd b0 d7 b6 3c 6f 3f ab 3d 64 be 42 bd
       -0.06621339 0.022319645 0.083617084 -0.047544852
000320 7f 19 9b 3e f7 c4 e7 3d 20 11 d1 bd 02 01 ab bd
       0.3029289 0.11316865 -0.102083445 -0.083498016
000330 cf cf 04 3e ac 3d 21 be 96 12 79 be e4 2f b4 be
       0.12969898 -0.15746182 -0.24323496 -0.35192788
000340 9a 28 65 be 7a d7 7d bd cd f5 06 be 87 fb 61 be
       -0.2237877 -0.061973073 -0.13179703 -0.22068606
000350 6b 01 90 be fb 51 b4 be cd 5e 9e be 75 a1 a2 3e
       -0.28126082 -0.35218796 -0.30931702 0.31763807
000360 fe 56 f0 bc 3f 62 46 be a7 cf fb bd 51 bf 03 3d
       -0.029338356 -0.19373415 -0.12295466 0.032164875
000370 36 26 4e 3d 61 f2 47 be 14 5b 32 be c4 1e a0 bd
       0.05032941 -0.19526054 -0.17417556 -0.07818368
000380 85 d7 92 3c 98 99 56 3d 97 4c 61 bd 69 5d bb 3d
       0.017925033 0.052392572 -0.055004682 0.09148676
000390 76 f6 e8 3d 62 3a 61 3c 41 58 49 3d 41 7c 9d bd
       0.11375134 0.01374683 0.04915643 -0.07689715
0003a0 b3 83 38 3e 3c dd 9b 3e 74 81 b8 3d 3c 6c af 3c
       0.1801899 0.30442226 0.09009066 0.021413915
0003b0 23 c2 ef 3c 4e 36 41 3e 4c 02 37 3e 6a a3 82 3a
       0.029267376 0.18868372 0.1787197 0.0009966914
0003c0 e1 76 93 bd 01 37 0e be 37 a1 fd 3d c6 b8 29 3d
       -0.07200409 -0.1388817 0.12384265 0.04143598
0003d0 f8 9a 07 3d a8 89 60 be 83 17 f9 bd 87 98 dc 3d
       0.033106774 -0.21927512 -0.12162688 0.1077128
0003e0 7b dc ba 3d 86 4a 27 3d c4 39 93 3d ea 46 cc ba
       0.091240846 0.040842555 0.07188752 -0.0015585099
0003f0 5f 0f 6f bd 3c fd 1d 3d f8 c8 14 3e 37 c0 45 bd
       -0.05836427 0.03857158 0.14529788 -0.048279013

conv2.0.bias f4 [32]
000000 41 6f 85 bc 7e 24 60 bd 27 0f 86 3d 72 60 ba bd
       -0.016288402 -0.0547223 0.06545859 -0.09100427
000010 f6 25 c9 bd a9 48 84 bd 1f bd b6 3d 79 40 02 3d
       -0.098216936 -0.06459171 0.08922791 0.031799767
000020 85 12 8e 3c be 41 87 3d 6b f9 6a bd 0a 14 41 3d
       0.017342815 0.06604336 -0.05736677 0.04713825
000030 0b 63 3a bc 6d 73 a4 bd a7 17 c9 ba a9 1c 74 3d
       -0.011376153 -0.08029828 -0.0015342132 0.059597645
000040 8a 81 c9 3c ef ea 02 bd 6f 05 0f 3c de 90 b5 bc
       0.024597902 -0.03196233 0.008729323 -0.022163805
000050 6f 5e 26 3c 73 c5 0a bd 9e 4f 3c bd d3 03 c3 3c
       0.010154351 -0.03387971 -0.045974366 0.023805534
000060 75 60 bf 3c 94 0e 54 3c 7b 6f bf bc e7 e2 01 bd
       0.023361424 0.012942929 -0.023368588 -0.03171053
000070 bb 7d 21 3d 8b b1 7b 3d 43 7f 59 3d a2 d3 47 3d
       0.039426547 0.061448615 0.05309988 0.048785813

out.weight f4 [10, 1568]
000000 ff cb 48 bd e4 2d 16 bd 55 f3 3a ba c9 ce a6 bc
       -0.04902267 -0.03666486 -0.0007131596 -0.020362275
000010 98 77 d2 bb f7 54 7e bc c6 a7 5f bd cb f7 25 bd
       -0.006422948 -0.015523187 -0.05460336 -0.040519517
000020 7b f2 1d bd 4a d6 a0 bb c9 74 af 3c 7a 18 23 3c
       -0.038561326 -0.0049083577 0.021417992 0.009954566
000030 23 a7 a2 3a d0 60 9d 3b 8e 23 c4 bb ac 10 89 3c
       0.001240943 0.0048028007 -0.0059856838 0.016731583
000040 53 49 b0 3c fe 23 97 3a db 20 2a 3d 4b 1d fb 3c
       0.021519339 0.0011531112 0.04153524 0.030653616
000050 21 7e 5b 3c e4 60 79 bb d5 38 d1 bc 89 98 96 3b
       0.013396771 -0.0038052136 -0.025539795 0.0045958203
000060 ce a7 7c bd 2a 99 a8 bc c7 2f 3a bd 75 d5 5a 3d
       -0.06168347 -0.020580847 -0.04545572 0.053426225
000070 57 f4 83 3d 4b e1 73 3c ad 19 e1 3b 89 94 76 bd
       0.064430885 0.014885257 0.006869516 -0.060200248
000080 d6 db f2 bb df fd 5e bc e2 ad e5 3c 58 86 14 3d
       -0.0074114604 -0.013610332 0.028037015 0.036260933
000090 f5 ec ac 3c bf 86 85 bc 50 66 cb bc 7e 94 1c bc
       0.021109084 -0.016299604 -0.02482906 -0.009556888
0000a0 2c 80 23 bd 69 e3 0d 3c a5 d3 2d bc 86 08 86 3c
       -0.039917156 0.008660176 -0.010609542 0.016361486
0000b0 62 92 51 bd de 60 fa bd 94 5f c4 bd d8 7d bb bd
       -0.051164992 -0.12225507 -0.095885426 -0.09154862
0000c0 68 ed 3e bd 5b ce 94 bc 97 3e 49 bd f2 52 00 bd
       -0.046613127 -0.018164804 -0.049131956 -0.031329103
0000d0 3a 64 32 bc 81 6a 78 bc c1 c9 97 ba ea ad dc 3b
       -0.010888154 -0.015162111 -0.0011580513 0.0067345994
0000e0 e3 9d 1c bb 7e 61 a2 bc 68 ab 1f 3c 29 7e 1e 3d
       -0.0023897819 -0.019821879 0.009745456 0.038694534
0000f0 fd 1f 8d 3c 55 27 ac bb b8 0b 3c 3d 4d 7a a8 bb
       0.017227167 -0.005253712 0.045909613 -0.0051415325
000100 c9 e0 ad bc 65 20 83 bc 9f d6 68 bc 1f 4c 32 ba
       -0.02122535 -0.016006658 -0.014211326 -0.0006801504
000110 47 58 9c 3c 84 26 e5 3c 6e f1 33 3d 6f 71 2b 3b
       0.019085063 0.027972467 0.043931417 0.002616014
000120 bb 8f b9 bd e7 5a 10 bd 71 42 14 bd 14 8c 7f 3b
       -0.090606175 -0.03524294 -0.036196176 0.0038993405
000130 80 72 2c bc 00 0c 3b bc 37 1d 3b 3d 29 3e 6b 3d
       -0.010525346 -0.011416435 0.04568216 0.057432327
000140 7d 94 64 3b c4 26 63 bd cd 8c 3d bd b2 23 9d 3b
       0.0034878545 -0.05545689 -0.046276856 0.004795515
000150 00 cb 2c 3c eb 22 79 3c be 47 4f 3d a8 31 c9 bc
       0.010546446 0.015206079 0.050605528 -0.02455981
000160 aa 5a 4d bb af e9 b4 bc 8f fe 20 bd 81 dc 4e bc
       -0.0031334558 -0.022084085 -0.039305266 -0.012625814
000170 a5 28 82 3b 11 7c b7 3c ef 8e dd 3c fe 09 23 bd
       0.0039721304 0.022398027 0.027045695 -0.03980445
000180 b4 62 a9 bd 20 4a e7 bc 0a c2 01 bc 74 df 97 bc
       -0.08270779 -0.028233588 -0.007919798 -0.018539168
000190 cc d9 1a bc 99 71 5f bc 78 46 8a 3c 74 67 37 3c
       -0.009451341 -0.013637924 0.016879305 0.011194099
0001a0 01 b0 c7 3b b0 04 3b 3b 05 0f 26 3b 47 a6 95 3d
       0.0060939793 0.002853673 0.0025338542 0.073071055
0001b0 19 8c 19 3d 28 bc 38 3d cc 5e 07 3d 4f cc df 3c
       0.037487123 0.045101315 0.03304939 0.027319102
0001c0 4b 4d 8d 3d 2c 35 83 3d 06 b8 51 3d 39 55 07 bd
       0.06899508 0.06406626 0.05120089 -0.03304026
0001d0 67 20 02 bd 3a 95 1f bc a0 63 14 3d 0a 03 e7 bd
       -0.031769183 -0.009740168 0.036227822 -0.112798765
0001e0 d5 89 24 3c 44 3d c2 bc 23 2d 8c bd fc 36 82 bd
       0.010042627 -0.023710854 -0.06844547 -0.06358144
0001f0 12 28 66 bd 90 07 02 3d 1c dd f1 bd 6b 1d 8d 3d
       -0.056190558 0.031745493 -0.118097514 0.06890377
000200 1c ed 19 3c 8d be 16 3c 21 31 8b bd d9 7f 3d bd
       0.00939491 0.009200704 -0.0679648 -0.046264503
000210 68 1d 91 3d 69 35 ec bb ba c6 34 bd 54 c0 73 3d
       0.07085687 -0.0072085154 -0.044134833 0.05950959
000220 88 b4 43 3d dc cc 4e 3c fa dd 7c bd 1f 93 05 3d
       0.04777959 0.0126220845 -0.06173513 0.03261101
000230 76 3b 66 bc 9a 4f aa bd b3 d2 49 be 43 d9 83 be
       -0.0140522625 -0.08315964 -0.19709282 -0.25751695
000240 ca e5 b3 bc 33 23 07 be ad a0 08 3d ea c5 c0 3b
       -0.021960158 -0.13197021 0.033356357 0.005882968
000250 45 fa ff bc f7 51 69 bd 88 70 cb bc 3c 0e fd bc
       -0.031247267 -0.056962933 -0.024833933 -0.030890577
000260 8d 7d d4 bc 26 1c 76 bc 90 f9 a7 bc d3 13 50 bc
       -0.025938774 -0.01502136 -0.020504743 -0.012700039
000270 6f b6 e4 3c 93 ee 37 bc 69 25 4c 3d 77 ba b5 bc
       0.027919022 -0.011226314 0.049840365 -0.02218364
000280 5d 39 69 bd 02 49 32 3d 5b 0f 0b 3d ce 4d 69 3c
       -0.05693947 0.043526657 0.03395019 0.0142397415
000290 c2 eb 8e 3c 9b 0c f4 3b bd 3e a0 3c 88 d5 58 bd
       0.017446402 0.0074477918 0.019561166 -0.052938014
0002a0 cf 83 2b 3c 81 87 57 3d ec 1b 97 3b 44 03 c8 bd
       0.010468437 0.05261946 0.004611483 -0.09766248
0002b0 01 bf 52 bd 2b ce e1 3a 69 88 2a bd c5 37 d7 3c
       -0.051451687 0.001722758 -0.041633997 0.02627171
0002c0 ed 08 04 3c 45 35 04 bd 25 6e 4e bc c0 f4 20 3c
       0.008058769 -0.032277364 -0.012599503 0.009823978
0002d0 3f 8f 02 bd d9 be a4 bc 91 12 9e 3c ec e8 a0 3c
       -0.03187489 -0.020110535 0.019295963 0.019642316
0002e0 83 96 03 3d 76 ed f0 3c a5 00 b3 3c 30 45 31 bc
       0.03212596 0.029410105 0.021850893 -0.010819718
0002f0 22 02 b8 3b 30 64 7c bd b9 eb e7 bd fd e3 e3 bd
       0.0056154886 -0.061618984 -0.113242574 -0.1112747
000300 bc 5c d5 bd b6 16 f4 bd 3d 9a 69 be 18 a8 15 be
       -0.10418078 -0.11918394 -0.22812743 -0.14614904
000310 b9 7c 20 bd c5 ff f8 bd 03 d6 d9 bd b6 5e 22 bd
       -0.039181445 -0.12158159 -0.106365226 -0.039641105
000320 29 e1 8c bd f1 e1 d1 bc 88 08 b9 3c 97 79 9f bd
       -0.068788834 -0.025620433 0.022587076 -0.07786863
000330 6d 22 70 bd 3e b8 4d 3d c9 1a 9f bb cd 23 72 3c
       -0.05862658 0.050224535 -0.004855488 0.014779043
000340 81 8b 71 bd 60 36 19 3c 7b 5e bf bd 69 8f 04 3b
       -0.058970932 0.009351343 -0.093441926 0.002022708
000350 c2 13 05 3d 7d 49 b6 3c 50 69 eb 3c b9 1e 2c 3d
       0.032489546 0.022251839 0.02873674 0.042021487
000360 d7 f9 86 3c 42 5b 82 3b a8 8c 29 3c 90 cc 1e 3d
       0.016476555 0.003978164 0.0103484765 0.038769305
000370 bf c1 2c 3c b4 86 4e bd dc 75 9f 3c bf ad db 3c
       0.01054424 -0.05042143 0.01946538 0.026816247
000380 ad 3e d1 3d 0f 2e a3 3c 5f ca 5d bd 6e ad ab bd
       0.102170326 0.019919423 -0.054148074 -0.083826885
000390 c2 17 c5 bc 3e e1 81 3c fa 0e 72 bc 75 d6 13 3d
       -0.02405918 0.015854474 -0.0147740785 0.036093194
0003a0 d5 66 8c 3c 7b 14 a5 bd 75 b7 b5 bd 80 d2 1e bc
       0.017138878 -0.08060547 -0.08872882 -0.009693742
0003b0 46 13 9e bb 5b 2e 14 bd 4c 80 a0 3c 79 70 83 bc
       -0.004824075 -0.03617702 0.019592427 -0.016044842
0003c0 c7 56 45 bd ff c2 39 bd eb 85 90 be 1e 12 29 be
       -0.04817846 -0.04535198 -0.2822717 -0.16510817
0003d0 f8 50 ff bb fc 2e 0c bc b9 06 6c bc 3e 4f 03 bd
       -0.0077916346 -0.008556124 -0.0144059 -0.032057993
0003e0 24 c3 3c bd 3d 2d 35 bd 09 53 06 3d 55 10 81 3d
       -0.046084538 -0.044232596 0.032794032 0.06301943
0003f0 b0 6b 5d 3d 14 81 29 bd 60 d5 45 3c 12 c9 1a 3c
       0.054057777 -0.041382864 0.012074798 0.009447353

out.bias f4 [10]
000000 f5 39 aa 3c 25 23 91 3b 84 19 d1 3c cc c7 28 bd
       0.02077959 0.0044292384 0.025524862 -0.041206166
000010 c2 e7 09 bc 5a 4c 3d 3d 90 24 8a 3a 49 cc 91 bc
       -0.008417072 0.046215393 0.0010539461 -0.017797606
000020 ae 53 a7 ba b0 dc 0b 3d
       -0.0012766027 0.03414601

exp_avg f4 [16, 1, 5, 5]
000000 6a ae e8 b8 31 9c 24 b8 b0 c9 72 b8 6f 8e 36 b9
       -0.00011095109 -3.924611e-05 -5.7885132e-05 -0.00017409933
000010 78 01 4c b9 e8 bd f9 b8 86 b3 01 b9 8a c5 48 b9
       -0.00019455503 -0.00011908618 -0.00012369276 -0.00019147075
000020 b4 6a 79 b9 64 28 16 b9 16 82 74 b9 c8 1f 84 b9
       -0.0002378624 -0.00014320161 -0.00023318114 -0.0002520068
000030 94 01 77 b9 ff 55 68 b9 e0 eb 2e b9 fc 5b 6f b9
       -0.00023556344 -0.0002215728 -0.00016681803 -0.00022827083
000040 f6 b2 5f b9 34 27 5e b9 70 d4 87 b9 ba 3e a1 b9
       -0.00021333605 -0.00021186174 -0.00025907485 -0.00030755048
000050 da 8d 42 b9 52 d1 57 b9 c6 2a 5f b9 9a 52 9d b9
       -0.00018554126 -0.00020581976 -0.00021282872 -0.00030006916
000060 29 e4 c0 b9 cb e2 c6 37 64 fd fd b7 00 70 1a b8
       -0.00036791086 2.3709048e-05 -3.0277944e-05 -3.682077e-05
000070 0b 7b ae b7 60 cd 4c b7 f2 7f 89 37 00 41 42 b7
       -2.0799713e-05 -1.2207165e-05 1.6391252e-05 -1.1578435e-05
000080 c0 17 f0 b6 04 ca bb b7 94 73 38 b7 40 b7 1d 35
       -7.1553222e-06 -2.2386208e-05 -1.0994165e-05 5.875372e-07
000090 28 f8 77 36 70 57 fd b5 64 4a 00 b8 cb 69 bd b7
       3.6950314e-06 -1.8875417e-06 -3.058686e-05 -2.257982e-05
0000a0 66 55 f6 b7 00 88 99 33 78 64 38 b6 12 99 06 b7
       -2.9365252e-05 7.149356e-08 -2.7476617e-06 -8.022662e-06
0000b0 57 c6 44 b8 7a 3b 0a b8 84 82 2b b7 f0 9d 62 37
       -4.691476e-05 -3.2957156e-05 -1.0222782e-05 1.3507422e-05
0000c0 a0 48 05 b8 c2 71 a0 b8 16 03 a0 38 06 22 a0 38
       -3.177731e-05 -7.6505836e-05 7.629969e-05 7.635732e-05
0000d0 78 2f 3e 38 ed 4f 33 37 dc 15 9d b7 08 5c 08 39
       4.534374e-05 1.0687841e-05 -1.8726038e-05 0.00013004255
0000e0 8c 66 ab 38 de 5c 77 38 57 1b 1b 38 6e df 2d 38
       8.173016e-05 5.897588e-05 3.6980342e-05 4.14545e-05
0000f0 3f 33 c1 38 7f ea a6 38 4a 0c 5c 38 b3 f5 82 38
       9.2125025e-05 7.959175e-05 5.2463532e-05 6.244648e-05
000100 18 5b 59 38 fa cf 3a 38 02 e7 36 38 9c 04 2d 38
       5.182167e-05 4.453955e-05 4.3607324e-05 4.1250707e-05
000110 93 bc d9 37 85 04 e1 36 94 72 6d 37 8e d3 9b 37
       2.5956228e-05 6.7060487e-06 1.4152978e-05 1.8575953e-05
000120 fa ae da 37 44 0f 94 36 08 b1 d8 b5 d4 f7 24 b8
       2.6069105e-05 4.412521e-06 -1.6144777e-06 -3.9331455e-05
000130 58 87 bd b7 10 8e a0 b5 e0 a3 2c 36 f0 17 1f b8
       -2.259358e-05 -1.1962275e-06 2.5725385e-06 -3.7930848e-05
000140 e3 b6 fc b7 70 9e bf b7 e6 04 18 b8 b6 20 51 b8
       -3.0125904e-05 -2.2842753e-05 -3.6244186e-05 -4.9859947e-05
000150 58 c7 99 b6 90 81 b7 b7 1e 10 d4 b7 f2 0c 03 b8
       -4.582962e-06 -2.1875632e-05 -2.5279875e-05 -3.124489e-05
000160 30 8e 67 b7 ff c1 5c 38 3c bf 26 b8 f9 6f d9 b7
       -1.3801779e-05 5.263276e-05 -3.9755585e-05 -2.5920557e-05
000170 5c ee d7 37 66 c0 e4 37 0b 8a 48 38 d8 4e 78 b8
       2.5740992e-05 2.726931e-05 4.781228e-05 -5.9201237e-05
000180 15 dd c3 b7 67 b7 3c 38 8e 81 32 38 e1 f0 35 38
       -2.334876e-05 4.49935e-05 4.2559164e-05 4.33781e-05
000190 00 10 f3 b2 68 eb 52 b7 31 44 34 b8 18 05 34 b8
       -2.82962e-08 -1.2571785e-05 -4.2978852e-05 -4.2920088e-05
0001a0 90 5b 4c b8 76 a8 48 38 d8 35 b7 37 95 d9 57 b8
       -4.8722664e-05 4.7840607e-05 2.1840373e-05 -5.1462634e-05
0001b0 d8 d6 27 b8 8e 49 42 b8 25 27 b2 37 10 9f 73 36
       -4.001599e-05 -4.6321707e-05 2.1237482e-05 3.6302408e-06
0001c0 4c 6c 95 b8 c6 1f f3 b8 ed 4f f0 b8 08 c3 d5 b7
       -7.1250455e-05 -0.00011593061 -0.00011458979 -2.5482397e-05
0001d0 79 91 cd b7 d1 3b 0d b8 0a 30 bc b8 4e 56 1f b9
       -2.4505645e-05 -3.3672728e-05 -8.9734865e-05 -0.00015195573
0001e0 ee 43 a9 b8 dd 49 82 b7 c4 be 31 37 fc 50 60 b8
       -8.071201e-05 -1.5531603e-05 1.0594438e-05 -5.3481184e-05
0001f0 44 a5 fe b8 6e a2 a0 38 c0 38 21 38 76 f6 60 37
       -0.00012142447 7.6596494e-05 3.8438244e-05 1.3408824e-05
000200 0e eb d7 b7 28 61 15 b8 10 43 89 38 5f 2f 82 37
       -2.5739453e-05 -3.5614852e-05 6.5451604e-05 1.5519267e-05
000210 b0 31 e8 37 48 cb 74 36 18 61 83 b6 26 62 8f 37
       2.7679693e-05 3.6477159e-06 -3.9154074e-06 1.7092632e-05
000220 e0 db a9 b5 ff 24 ef 37 57 a5 2c 37 b4 3b b7 b7
       -1.2655473e-06 2.8508248e-05 1.0290495e-05 -2.1843101e-05
000230 a6 54 71 b7 8d 0a ad b7 6c 34 e6 37 28 f9 57 37
       -1.4384428e-05 -2.062812e-05 2.7442547e-05 1.287301e-05
000240 38 4a 15 b8 96 b3 a4 b7 1e dc e3 36 b3 c4 6b 38
       -3.559349e-05 -1.963395e-05 6.790752e-06 5.6211557e-05
000250 54 3e eb 37 44 fa bb b7 19 28 84 b8 f3 a9 bf b8
       2.8043207e-05 -2.2408676e-05 -6.301719e-05 -9.139245e-05
000260 44 5d 58 b8 d5 47 bb b8 0f c5 f9 b8 f4 3f 03 b9
       -5.1585273e-05 -8.9302346e-05 -0.0001190995 -0.00012516958
000270 e3 24 ba b8 af e7 66 b8 2a 9b 68 b8 06 8f 38 b9
       -8.876042e-05 -5.5052045e-05 -5.5457618e-05 -0.00017600888
000280 4e c4 29 b9 2f 84 1e b9 df 22 3a b9 2c a1 91 b9
       -0.00016190225 -0.00015117296 -0.00017751333 -0.00027776638
000290 98 f3 ab b9 5a 78 fa b8 0e 6a 6f b9 2d 52 ae b9
       -0.00032797153 -0.00011943346 -0.00022832325 -0.00033249092
0002a0 8a ee e9 b9 0a 0d fe b9 7a 2e 35 b9 a4 eb 64 b9
       -0.0004461895 -0.0004845637 -0.00017278819 -0.00021831557
0002b0 1b a1 bd b9 cf 41 04 ba 96 0a 0d ba 27 40 06 38
       -0.00036168922 -0.00050452066 -0.00053803006 3.2007836e-05
0002c0 e3 2b 7c 38 78 9f d5 37 46 96 28 38 20 ab 75 38
       6.0122355e-05 2.5465837e-05 4.0194274e-05 5.8571924e-05
0002d0 98 63 91 38 36 73 78 38 f0 1c 86 b6 80 73 89 b5
       6.9326896e-05 5.9235106e-05 -3.99688e-06 -1.024091e-06
0002e0 96 d7 32 38 e4 02 86 38 d6 6e 22 38 48 c9 d2 b7
       4.2639287e-05 6.390156e-05 3.8727034e-05 -2.512768e-05
0002f0 c0 a5 36 b7 9b 67 92 38 10 c3 82 38 38 30 65 38
       -1.0886637e-05 6.9811205e-05 6.235216e-05 5.4642762e-05
000300 4c c3 86 b7 c0 15 4b b8 b0 b0 f8 b6 e6 c2 70 38
       -1.6064987e-05 -4.8419228e-05 -7.411545e-06 5.7401972e-05
000310 09 d7 8e 38 c0 1e fe b6 18 d8 9a b8 69 c2 c7 b8
       6.811141e-05 -7.5733697e-06 -7.383543e-05 -9.525271e-05
000320 88 ea 7b b6 62 ab 6c b9 7f 48 b9 b9 c9 32 ef b9
       -3.753843e-06 -0.00022570559 -0.00035339964 -0.0004562347
000330 76 5b de b9 66 9d 21 b9 78 2d 9d b9 8e 5c cd b9
       -0.00042411283 -0.00015412792 -0.0002997925 -0.00039169606
000340 73 73 d9 b9 a3 d0 cf b9 78 e9 53 b9 04 d3 85 b9
       -0.00041475482 -0.00039637563 -0.00020209502 -0.00025524956
000350 4c 5e 62 b9 62 9f 58 b9 b8 cb 86 b9 00 f6 06 b9
       -0.00021588168 -0.0002065874 -0.00025710254 -0.00012870878
000360 0a dd ee b8 e1 3a f7 b8 2a fb ca b8 a6 32 84 b9
       -0.00011389896 -0.00011788845 -9.6788935e-05 -0.00025214738
000370 f9 63 23 b9 5f 9f df b8 5e 17 53 b9 f3 c8 a8 b9
       -0.00015582134 -0.00010663154 -0.00020131233 -0.00032193176
000380 22 3d 0e ba 2d be 14 39 ab e0 4a 39 2e 9d 70 39
       -0.00054259796 0.00014185226 0.00019347917 0.00022946738
000390 ea c5 98 39 ce 3f 85 39 c2 13 38 39 47 9e 75 39
       0.00029139157 0.00025415275 0.00017554968 0.00023423984
0003a0 fd a1 a0 39 ee 47 93 39 44 d4 7f 39 a9 e5 3a 39
       0.0003063827 0.00028091617 0.0002439777 0.00017823897
0003b0 da 40 43 39 ff 12 82 39 aa 16 62 39 e8 e3 67 39
       0.00018620808 0.00024809685 0.00021561483 0.00022114778
0003c0 52 03 87 39 f4 a8 60 39 2a bc 6f 39 90 58 8a 39
       0.0002575168 0.00021425245 0.00022862913 0.00026387395
0003d0 b8 52 6a 39 3a 61 9e 39 c4 3a 7e 39 b9 13 67 39
       0.00022346794 0.00030208548 0.0002424522 0.00022037224
0003e0 16 74 72 39 d6 f9 73 39 14 8d fa 37 c8 9d d1 b7
       0.00023122164 0.00023267357 2.9868017e-05 -2.4988214e-05
0003f0 75 fe a8 b8 eb 3b e9 b8 52 61 22 b9 5b 2e b8 38
       -8.0582606e-05 -0.000111214664 -0.00015485779 8.782438e-05

exp_avg_sq f4 [16, 1, 5, 5]
000000 89 6e 05 35 36 a2 f4 34 75 90 04 35 69 40 30 35
       4.970721e-07 4.5566566e-07 4.9384045e-07 6.565884e-07
000010 c4 f2 20 35 66 28 68 35 fa 2e 8f 35 55 10 80 35
       5.9957915e-07 8.648552e-07 1.0668002e-06 9.541496e-07
000020 65 96 6e 35 4b 2c 3b 35 65 af d1 35 8c 44 f0 35
       8.888076e-07 6.9727383e-07 1.562276e-06 1.7901343e-06
000030 c0 cb b8 35 9e 94 90 35 1c cb 46 35 1f d9 bd 35
       1.3768367e-06 1.0772089e-06 7.405631e-07 1.4144788e-06
000040 d5 a1 d0 35 54 5e a6 35 d0 23 97 35 33 93 88 35
       1.5544307e-06 1.2395417e-06 1.12608e-06 1.017563e-06
000050 dd 84 62 35 88 66 73 35 02 69 4f 35 ba b7 72 35
       8.43849e-07 9.0673757e-07 7.7266316e-07 9.041938e-07
000060 8a 07 96 35 77 af b7 34 37 38 0e 35 d7 e9 e2 34
       1.1178065e-06 3.4214074e-07 5.2980926e-07 4.226592e-07
000070 f8 51 70 34 da 92 1c 34 64 f5 20 35 2f 92 4c 35
       2.2381562e-07 1.4582056e-07 5.9961735e-07 7.620865e-07
000080 1e 19 28 35 2b 99 c7 34 6e d3 4e 34 5e e7 11 35
       6.262143e-07 3.7178083e-07 1.9262163e-07 5.4353393e-07
000090 71 fc 28 35 a4 5f 03 35 3c a0 e5 34 c4 fb 9c 34
       6.295223e-07 4.894048e-07 4.277116e-07 2.9240448e-07
0000a0 e3 f6 ca 34 60 62 c7 34 48 0e bf 34 d4 cf cc 34
       3.7805066e-07 3.7138216e-07 3.5586913e-07 3.8149176e-07
0000b0 48 4a a4 34 f8 30 8c 34 63 8c 98 34 09 18 80 34
       3.0601427e-07 2.6112662e-07 2.841435e-07 2.3859346e-07
0000c0 f8 b9 98 34 9b c1 99 34 53 6f 41 34 c4 b2 64 34
       2.8447516e-07 2.8639337e-07 1.8015025e-07 2.1299189e-07
0000d0 68 5b 80 34 57 c0 2c 34 75 f6 ba 33 e3 0a b7 34
       2.3908365e-07 1.6088721e-07 8.70613e-08 3.4094327e-07
0000e0 5e 27 df 34 31 45 c4 34 1d db 5d 34 d0 a9 d7 33
       4.156563e-07 3.6558188e-07 2.0661942e-07 1.00426064e-07
0000f0 ef 41 2f 35 be 36 39 35 75 29 ec 34 32 30 6b 34
       6.5288526e-07 6.899753e-07 4.398859e-07 2.1903614e-07
000100 5a ed 10 34 5a 86 40 35 0d 87 22 35 fb 3c 89 34
       1.3497393e-07 7.172108e-07 6.054623e-07 2.5562608e-07
000110 51 6f d8 33 bc ba a7 33 d8 ff 08 35 21 fd b9 34
       1.0078532e-07 7.81051e-08 5.103625e-07 3.464311e-07
000120 a2 75 e0 33 c3 be 60 33 ea 78 64 33 0e 0b 3c 33
       1.045221e-07 5.232756e-08 5.3195357e-08 4.3782215e-08
000130 d0 10 17 33 58 94 ae 33 a4 04 4b 34 dc e4 5a 34
       3.5172718e-08 8.12949e-08 1.8907537e-07 2.038609e-07
000140 72 bc 34 33 db f7 9a 33 be 22 6f 34 2a 65 ba 34
       4.2080906e-08 7.2162685e-08 2.2271249e-07 3.4718806e-07
000150 74 c2 9b 34 2e 4b f1 33 00 13 82 34 b3 fe f8 34
       2.9012483e-07 1.1236112e-07 2.422821e-07 4.6378918e-07
000160 99 68 0b 35 76 fd b3 34 9f b4 c4 34 fe bb 25 35
       5.1933745e-07 3.3525765e-07 3.6639264e-07 6.1740855e-07
000170 df de 70 35 3c e7 51 35 b9 f9 b1 34 e7 1d 24 35
       8.973129e-07 7.819506e-07 3.3150516e-07 6.1138275e-07
000180 ed a1 59 35 fd e2 8d 35 92 b1 49 35 c8 3c 94 34
       8.107443e-07 1.0571381e-06 7.5136734e-07 2.7611372e-07
000190 92 e7 40 35 b9 1d 85 35 f8 e3 8d 35 71 b3 58 35
       7.1862553e-07 9.917923e-07 1.0571666e-06 8.072739e-07
0001a0 97 68 06 35 96 20 59 35 76 96 8d 35 9e 8e b7 35
       5.007109e-07 8.088622e-07 1.0549109e-06 1.367607e-06
0001b0 95 4b 9f 35 2e 08 31 35 7a 67 df 34 39 32 44 35
       1.186842e-06 6.594954e-07 4.1612276e-07 7.3088773e-07
0001c0 bf 7a 93 35 e1 b5 94 35 7a c0 4d 35 8d 0c 81 34
       1.0988077e-06 1.1079793e-06 7.664854e-07 2.4037254e-07
0001d0 b0 a7 c1 34 8b 51 08 35 1b b0 3e 35 06 0c 33 35
       3.607106e-07 5.078261e-07 7.1036783e-07 6.670019e-07
0001e0 96 88 3c 34 5c b5 53 34 58 f1 8c 34 a0 d0 ce 34
       1.7558554e-07 1.9716884e-07 2.6252633e-07 3.8522285e-07
0001f0 13 fb e9 34 9c 01 a2 35 5b 96 c0 35 30 b1 7d 35
       4.3582313e-07 1.2070409e-06 1.4348874e-06 9.4507686e-07
000200 71 6e f5 34 81 b7 e6 34 52 39 b9 35 ee 57 b4 35
       4.5715163e-07 4.2974355e-07 1.3800257e-06 1.3436636e-06
000210 81 0d 4d 35 c2 64 f5 34 66 8d ca 34 40 99 6e 35
       7.63881e-07 4.5708117e-07 3.7728313e-07 8.888492e-07
000220 f8 f4 24 35 86 1b bf 34 31 0b 7e 34 0f 80 7d 34
       6.145124e-07 3.5596548e-07 2.3659665e-07 2.3609049e-07
000230 69 c0 f7 34 1f ed 7c 34 61 47 ed 33 48 69 ae 33
       4.6147332e-07 2.3555593e-07 1.1049156e-07 8.121657e-08
000240 7d c3 ea 33 f2 ad 73 34 48 36 da 33 4e 1f 79 33
       1.0932033e-07 2.269442e-07 1.016129e-07 5.80033e-08
000250 35 6b 6a 33 c3 30 ad 33 7b 3e f5 34 b6 50 d2 34
       5.4579875e-08 8.06481e-08 4.5680267e-07 3.9174273e-07
000260 6b 7c 9e 34 d7 40 b4 34 88 e9 f2 34 e6 00 36 35
       2.952032e-07 3.357479e-07 4.524593e-07 6.780159e-07
000270 32 9d 1c 35 f3 eb e4 34 38 19 15 35 e5 68 50 35
       5.834328e-07 4.2639985e-07 5.5543524e-07 7.763868e-07
000280 eb b8 8d 35 07 0b 9a 35 87 8a 9b 35 4c 01 bf 35
       1.0559137e-06 1.1477103e-06 1.1588717e-06 1.4230986e-06
000290 51 2d f5 35 cc c5 ef 35 59 4a 13 36 0e 10 31 36
       1.8267111e-06 1.7864454e-06 2.1947983e-06 2.63844e-06
0002a0 24 1a 5a 36 4c 0a 5e 36 b6 fa 2c 36 6b d8 42 36
       3.2499747e-06 3.3086571e-06 2.577593e-06 2.9034225e-06
0002b0 4b 8e 73 36 09 48 98 36 7f 5e 8b 36 4e 80 0c 35
       3.6292647e-06 4.538339e-06 4.1535236e-06 5.234077e-07
0002c0 56 35 69 35 eb bd 74 35 b1 b7 07 35 36 12 8b 34
       8.687688e-07 9.117345e-07 5.0558725e-07 2.5904018e-07
0002d0 cf 98 1f 35 c6 3c 9f 35 a6 03 9a 35 bc c3 00 35
       5.945448e-07 1.186411e-06 1.1474956e-06 4.7968547e-07
0002e0 5e f4 8a 34 70 da 71 35 59 a4 e5 35 e3 04 d8 35
       2.5882304e-07 9.0097365e-07 1.7109661e-06 1.6094676e-06
0002f0 89 d5 4a 35 27 c0 fd 34 79 6d 98 35 2c a7 fa 35
       7.55616e-07 4.7264732e-07 1.1356743e-06 1.8675105e-06
000300 0a b0 f3 35 cd 3f 9e 35 46 de 4c 35 b3 18 80 35
       1.8156145e-06 1.1790486e-06 7.631937e-07 9.543932e-07
000310 9d d2 b3 35 00 18 a8 35 8f 0e 81 35 94 41 5d 35
       1.3397836e-06 1.252396e-06 9.615486e-07 8.2424344e-07
000320 cf 02 0e 36 22 4f 18 36 c8 03 4c 36 53 68 82 36
       2.1161284e-06 2.2695826e-06 3.040057e-06 3.886447e-06
000330 d0 de 86 36 21 0b c1 35 2b 4c e2 35 ed 7d 13 36
       4.01945e-06 1.438286e-06 1.686048e-06 2.1978005e-06
000340 81 b3 2e 36 3d 1d 38 36 10 03 5a 35 be 32 4f 35
       2.6032506e-06 2.7435156e-06 8.1215785e-07 7.718735e-07
000350 2e 5a 6a 35 d0 77 90 35 12 08 c3 35 79 38 0f 35
       8.730302e-07 1.0763706e-06 1.4530981e-06 5.335383e-07
000360 e2 f4 c9 34 1f b1 c1 34 2b f7 04 35 10 bf 98 35
       3.7617343e-07 3.6077924e-07 4.953351e-07 1.1380489e-06
000370 9f 2e fc 34 48 3d bb 34 86 3f f5 34 69 91 98 35
       4.697258e-07 3.4876052e-07 4.5681026e-07 1.1367202e-06
000380 c0 d3 4d 36 aa ab 8b 35 85 24 c4 35 8b 86 9c 35
       3.0670635e-06 1.0406268e-06 1.4613767e-06 1.1662063e-06
000390 ff 6a 32 35 ce 0e db 34 c7 5f b3 35 c4 f1 df 35
       6.6465867e-07 4.08027e-07 1.3364414e-06 1.6685158e-06
0003a0 8e fc 8e 35 99 0a 03 35 70 0f 9a 34 f3 02 cc 35
       1.0653328e-06 4.8816725e-07 2.8695968e-07 1.5200043e-06
0003b0 8e 93 de 35 06 fd 7d 35 23 14 d4 34 c5 3f 8c 34
       1.6583233e-06 9.461804e-07 3.9502729e-07 2.612343e-07
0003c0 e5 5e d0 35 fd cb e8 35 8e 4b 9c 35 09 fe 20 35
       1.5524826e-06 1.7344715e-06 1.1644895e-06 5.9974315e-07
0003d0 ed e6 f0 34 03 fb cd 35 10 d9 ef 35 bf ae c0 35
       4.4871504e-07 1.5346744e-06 1.7870061e-06 1.4355973e-06
0003e0 4d f6 8e 35 6a 27 6a 35 5c f8 c0 34 40 cc ff 34
       1.0651507e-06 8.722915e-07 3.5943492e-07 4.7646063e-07
0003f0 96 17 d2 34 2c 1e cf 34 d1 6a e9 34 1a 59 12 35
       3.913271e-07 3.8578708e-07 4.347735e-07 5.45189e-07

exp_avg f4 [16]
000000 0a 52 37 ba db 41 83 38 22 6c 4e 39 7e 78 e1 37
       -0.0006993121 6.258833e-05 0.00019685974 2.6878199e-05
000010 ea 3b 6a b9 c3 70 88 38 81 9b 51 ba 90 a7 67 37
       -0.00022338299 6.505989e-05 -0.0007995889 1.3807687e-05
000020 de 76 55 ba 60 1f c7 37 bf a3 17 b9 e2 d5 29 3a
       -0.0008143018 2.3737259e-05 -0.00014461482 0.00064787094
000030 68 4e 44 ba 6c 44 4a 39 c4 4a 72 39 a8 7b c6 b9
       -0.000748849 0.0001928971 0.00023106771 -0.00037857634

exp_avg_sq f4 [16]
000000 26 d9 bb 36 f6 da ae 35 51 d3 5a 35 1e 8f 5f 35
       5.5983137e-06 1.3027736e-06 8.1518834e-07 8.3282237e-07
000010 a2 db f3 35 73 e7 4b 35 49 57 85 37 df 17 55 36
       1.8168832e-06 7.5960196e-07 1.589548e-05 3.1753368e-06
000020 f5 32 ca 37 83 be fd 36 d6 cf 13 36 fb 4f d4 36
       2.4104005e-05 7.562166e-06 2.2025683e-06 6.3274033e-06
000030 81 21 21 37 b8 62 c5 35 7f c0 e2 35 ed 07 35 36
       9.6041485e-06 1.4706375e-06 1.6894336e-06 2.6975715e-06

exp_avg f4 [32, 16, 5, 5]
000000 0e 54 bd b7 66 55 d9 b7 38 3e 94 b7 6c 23 c0 b6
       -2.2569697e-05 -2.5908183e-05 -1.7671948e-05 -5.7261695e-06
000010 92 a3 3a b6 3d 02 be b7 0a eb 05 b8 08 51 04 b8
       -2.781137e-06 -2.2650807e-05 -3.192857e-05 -3.154672e-05
000020 93 cb 79 b7 83 5e 48 b6 ee f9 a5 b7 07 9f c2 b7
       -1.4888955e-05 -2.9857335e-06 -1.9785915e-05 -2.3200655e-05
000030 6b d1 71 b7 39 c4 bb b6 5e 06 e5 b4 a2 9e 52 b7
       -1.4413478e-05 -5.5958776e-06 -4.2659207e-07 -1.255391e-05
000040 fc d6 4e b6 f9 b0 a9 36 f4 5f 3b 37 ab 41 73 37
       -3.082153e-06 5.057195e-06 1.1168409e-05 1.4499218e-05
000050 c4 b6 39 b7 73 5e 82 b7 0c 30 a0 b6 d4 7d c4 36
       -1.1069413e-05 -1.5541189e-05 -4.773965e-06 5.8559035e-06
000060 1d 7b 83 37 7a dd 04 b8 1c 3a 0e b8 3e 25 05 b8
       1.5673746e-05 -3.167752e-05 -3.3909557e-05 -3.1744356e-05
000070 d1 93 93 b7 74 b4 1d b7 b0 39 f5 b7 fd 9f 1d b8
       -1.7592598e-05 -9.399944e-06 -2.9233139e-05 -3.7580718e-05
000080 4a 49 07 b8 15 26 9f b7 c8 ee af b6 1c a8 ad b7
       -3.2254764e-05 -1.897201e-05 -5.243204e-06 -2.070149e-05
000090 ff c1 07 b8 a6 db f9 b7 56 09 97 b7 34 60 76 b6
       -3.236718e-05 -2.9785395e-05 -1.800495e-05 -3.6712854e-06
0000a0 b1 de ae b7 45 c2 ad b7 ca 1e 4a b7 07 09 83 b6
       -2.0846115e-05 -2.071367e-05 -1.2047307e-05 -3.905155e-06
0000b0 52 58 e1 36 e6 45 97 b7 fa a8 5c b7 0d b8 a9 b6
       6.7158044e-06 -1.8033152e-05 -1.3152365e-05 -5.058019e-06
0000c0 7e 33 f0 36 7a 9e 61 37 8c 14 0f b8 0a 3e 36 b8
       7.158552e-06 1.3447943e-05 -3.4112993e-05 -4.344996e-05
0000d0 a4 7b 3e b8 37 e1 02 b8 68 07 f4 b6 18 a6 21 b8
       -4.541468e-05 -3.1204163e-05 -7.272629e-06 -3.8540078e-05
0000e0 20 27 79 b8 b2 59 63 b8 a6 3e fd b7 59 fe 41 b7
       -5.9402664e-05 -5.4204553e-05 -3.0189123e-05 -1.1562916e-05
0000f0 40 dd 31 b8 f5 bb 56 b8 46 e1 32 b8 01 be cd b7
       -4.2406144e-05 -5.1196625e-05 -4.264831e-05 -2.4526382e-05
000100 de d9 de b6 0e 15 19 b8 fd a8 cf b7 76 1d 7c b7
       -6.6414786e-06 -3.649765e-05 -2.4755014e-05 -1.502723e-05
000110 d2 cc e3 b6 b7 05 6d 37 94 18 e9 b7 ec f7 d1 b7
       -6.7889714e-06 1.4127631e-05 -2.778721e-05 -2.503019e-05
000120 75 53 14 b7 20 a4 c6 b4 a2 4d 89 37 64 16 d3 b7
       -8.840919e-06 -3.699979e-07 1.6367823e-05 -2.5163587e-05
000130 5a 85 1c b8 6a 42 fc b7 7c 71 1f b7 c8 8a 18 b5
       -3.731749e-05 -3.0071667e-05 -9.503561e-06 -5.6826366e-07
000140 3d e6 08 b8 5b 97 25 b8 53 e1 e2 b7 24 e5 3b b7
       -3.2639353e-05 -3.9480026e-05 -2.7046224e-05 -1.11994195e-05
000150 81 b1 d5 b6 a7 1a 27 b8 6f e5 be b7 90 6f 91 b6
       -6.368559e-06 -3.9840725e-05 -2.2756603e-05 -4.3343243e-06
000160 90 0b 79 36 67 7f 89 36 fc b4 7e b7 2c b7 10 b7
       3.7110622e-06 4.0977498e-06 -1.51817185e-05 -8.625717e-06
000170 00 e4 74 b5 98 8c 36 37 95 91 55 37 99 87 51 b7
       -9.1228867e-07 1.088078e-05 1.2729685e-05 -1.2488942e-05
000180 6c 1e e8 b6 ee 72 43 b6 b6 a6 cd 36 ee 9d 4a 37
       -6.9176804e-06 -2.9124162e-06 6.128884e-06 1.2076909e-05
000190 d4 42 c3 b7 51 14 d5 b7 b9 78 b6 b7 25 47 0d b7
       -2.327693e-05 -2.540104e-05 -2.1752307e-05 -8.4208195e-06
0001a0 5d 01 47 b6 3f 47 ed b7 44 c7 0b b8 bb db ab b7
       -2.9654104e-06 -2.8285778e-05 -3.3325763e-05 -2.0487108e-05
0001b0 29 88 e2 b6 3a 93 8c 35 fe 67 ce b7 dc 80 1b b8
       -6.751176e-06 1.0473661e-06 -2.4605539e-05 -3.707489e-05
0001c0 a0 f0 07 b8 79 f0 91 b7 24 04 34 36 69 3e 82 b7
       -3.2410608e-05 -1.7397326e-05 2.68245e-06 -1.552627e-05
0001d0 31 e4 9a b7 08 25 30 b7 fe 07 38 b6 c5 3e f0 36
       -1.846449e-05 -1.04990395e-05 -2.7422789e-06 7.1598647e-06
0001e0 7a 7d 7b b7 40 34 f1 b6 be d9 de 35 62 af 9a 37
       -1.4989981e-05 -7.1884424e-06 1.660366e-06 1.84399e-05
0001f0 40 03 73 37 1f 46 b0 b7 95 4b a0 b7 d6 0b dc b7
       1.4484685e-05 -2.1013488e-05 -1.9108682e-05 -2.6231555e-05
000200 e8 78 c1 b7 dc 1e 4b b7 70 41 7a b7 a9 58 f9 b7
       -2.3063694e-05 -1.2106928e-05 -1.4916397e-05 -2.9724399e-05
000210 b0 93 02 b8 da 19 af b7 b2 8f db b6 c9 19 ca b7
       -3.113196e-05 -2.0873664e-05 -6.543437e-06 -2.4092284e-05
000220 a8 67 21 b8 a7 f5 22 b8 1c a7 f1 b7 83 61 33 b7
       -3.848193e-05 -3.885259e-05 -2.8807255e-05 -1.0691935e-05
000230 bb 3a b6 b7 a7 a7 91 b7 69 b9 5b b7 91 09 e8 b6
       -2.172344e-05 -1.7363416e-05 -1.3096586e-05 -6.9152525e-06
000240 57 03 29 36 65 7b 91 b7 17 44 52 b7 a6 8c 63 36
       2.5184906e-06 -1.7342807e-05 -1.2532829e-05 3.3907504e-06
000250 cb 51 2c 37 f6 b1 1a 37 84 f9 8c b7 64 cb fb b7
       1.0271043e-05 9.22055e-06 -1.680549e-05 -3.0016243e-05
000260 6b 76 d8 b7 e3 1e b8 b7 24 d0 29 b7 62 a3 b1 b7
       -2.580435e-05 -2.1948892e-05 -1.01216465e-05 -2.1176125e-05
000270 b8 02 12 b8 00 ff 23 b8 b2 eb 18 b8 fa 27 9a b7
       -3.4811645e-05 -3.9099716e-05 -3.6459132e-05 -1.8376846e-05
000280 c5 d7 fc b6 4b 0b 87 36 fe 96 8b b6 73 5f d2 b6
       -7.535304e-06 4.024628e-06 -4.1601006e-06 -6.2695995e-06
000290 9e 37 55 36 d2 96 89 b7 66 6c 7d b6 59 ad 0a 37
       3.1771847e-06 -1.6401904e-05 -3.7763034e-06 8.265802e-06
0002a0 8f 1d b6 37 02 da dc 37 e5 40 5f b7 b6 40 62 b7
       2.1709855e-05 2.6327561e-05 -1.3306945e-05 -1.3485716e-05
0002b0 be f9 a9 b6 96 be 75 36 c8 70 85 37 db b3 92 b7
       -5.0656663e-06 3.661878e-06 1.5907353e-05 -1.7488308e-05
0002c0 7d 37 e2 b7 2c b7 fe b7 ca f0 4e b7 a1 9f 9f b6
       -2.6967138e-05 -3.0364456e-05 -1.233462e-05 -4.7571525e-06
0002d0 0a b4 8a b7 6d da 0c b8 30 d5 2a b8 30 ce be b7
       -1.653472e-05 -3.3582026e-05 -4.0729705e-05 -2.2745779e-05
0002e0 35 09 a6 b6 c0 1b 82 b7 2e c0 bb b7 d0 4b d4 b7
       -4.9482574e-06 -1.551013e-05 -2.2381628e-05 -2.5307672e-05
0002f0 ff ea 48 b7 c8 51 4e 36 5f fe 91 b7 aa 5e 48 b7
       -1.1975643e-05 3.0743995e-06 -1.7403798e-05 -1.194297e-05
000300 f9 64 83 b7 9f a4 a7 b6 9a 6e c3 36 d8 6a 5c b7
       -1.5663436e-05 -4.9961523e-06 5.8243286e-06 -1.3137898e-05
000310 70 33 63 b6 69 3c 4c b7 26 cd 47 b6 88 f4 31 37
       -3.3855576e-06 -1.2173413e-05 -2.9772723e-06 1.06069565e-05
000320 29 0d ae b7 68 45 d5 b7 8e 41 93 b7 c6 22 9d b7
       -2.0748545e-05 -2.5423898e-05 -1.7554292e-05 -1.8732051e-05
000330 2f 02 73 b7 a8 aa 7a b7 2a e7 2e b7 1d 20 57 b7
       -1.4484437e-05 -1.4940895e-05 -1.042503e-05 -1.2822476e-05
000340 6c 44 3f b7 03 cb 24 b7 a6 b1 f7 b7 a6 ef 46 b8
       -1.1400418e-05 -9.822429e-06 -2.9527419e-05 -4.743007e-05
000350 23 4e 12 b8 75 7b 83 b7 46 ab d7 b6 c2 89 c8 b7
       -3.4881883e-05 -1.5673906e-05 -6.427438e-06 -2.3906006e-05
000360 48 15 12 b8 90 7d ca b7 50 ac 2d b7 4e ec 30 36
       -3.4828932e-05 -2.4138746e-05 -1.0351723e-05 2.636359e-06
000370 72 ed 2f b7 0a 01 db 36 3e be aa 37 58 1d bd 37
       -1.0486097e-05 6.5268296e-06 2.0354168e-05 2.254422e-05
000380 a2 50 b0 37 a3 be dc b7 d6 7d 0d b8 75 f2 55 b8
       2.1018383e-05 -2.6314816e-05 -3.3734214e-05 -5.1008963e-05
000390 bd bc 68 b8 68 5b d6 b7 45 7f 8c b7 56 f8 e0 b7
       -5.5488887e-05 -2.5553352e-05 -1.6748565e-05 -2.6818521e-05
0003a0 06 e7 6c b8 b0 71 81 b8 5d 0d b5 b7 0a 9d 09 b7
       -5.6481942e-05 -6.172375e-05 -2.1583104e-05 -8.2024e-06
0003b0 38 e0 c4 b7 cb 2f 46 b8 05 4b 6d b8 00 d8 96 b7
       -2.346943e-05 -4.725139e-05 -5.657507e-05 -1.7981976e-05
0003c0 3f 82 c2 b7 4e d0 34 b7 cb 23 15 b8 6a a5 2d b8
       -2.3187253e-05 -1.0777336e-05 -3.5557703e-05 -4.1400468e-05
0003d0 fb 5d 40 b7 e6 8a 5f b7 c2 bd 7b 36 e1 0a f2 b7
       -1.1465973e-05 -1.3324176e-05 3.7512368e-06 -2.8853714e-05
0003e0 d0 8a 0f b8 2d 35 e2 36 14 b0 d5 b7 28 ab dc b7
       -3.4223136e-05 6.7415153e-06 -2.5473571e-05 -2.6305745e-05
0003f0 ec 02 d5 b7 43 6b b2 b7 61 2c fc b6 39 b4 ab b7
       -2.539294e-05 -2.1269201e-05 -7.5153516e-06 -2.0468711e-05
