BlackBoxes/MNIST_black_box.ckpt (torch, 352876 bytes, 18 tensors)

conv1.0.weight f4 [16, 1, 5, 5]
00000000: 97a9 5d3e eae1 d73d bdfa ec3d 225d c63d
00000010: 7809 05bd d7e1 9bbd e7d7 213e 2df1 3e3e
00000020: 08da 66bd 7bf2 b63d 8c52 a33d 640c e2bd
00000030: 3663 313e d89e 6c3e 90bd 333e 4047 c53c
00000040: 2871 cbbd 6d45 403e e298 f23d 3eaf cd3b
00000050: 298d 8dbd a65c 1abd 7778 433e 0b65 9c3d
00000060: a8a3 493e 955a 05be dc48 aabd 6e90 1e3e
00000070: fbbd d73d b2ab 523d 5856 2ebe fae3 3d3e
00000080: 36ed e4bd f642 1c3e 94a5 213e 85b3 b5bd
00000090: ac77 293e 5c19 063e f73f 533e f30a 713e
000000a0: db42 39bd 8050 b43d c4a5 253e 9501 ad3d
000000b0: a6f5 0e3e 2ce8 a4bd 26bc 4f3e f36b 0a3e
000000c0: a335 133e b699 2cbe efd3 613e 3e42 923d
000000d0: 3f48 f73d e93e 05be 02ea be3d 5f75 863e
000000e0: aa63 173e 08cb 0ebe 880f 6f3e 9442 343e
000000f0: fb54 343e f1bd 303e 5c93 633d 6b71 463d
00000100: 5313 90bd 70bf dcbb 07ef 60be b0a1 e0bc
00000110: f395 173d c0fe 423d 9efc a1be b40d 02be
00000120: 2ba2 6fbe 13cd 76be fae6 923d a58d 10be
00000130: 260c 09be 451a 25be b2e2 4a3e 8182 37be
00000140: fdc3 823e 5472 773e 66ee ce3c 9345 13bd
00000150: 3610 e13d 3bef 233e 3e94 c03d e784 0cbc
00000160: 7768 7b3e 3552 ce3d 6b7d 43be fe1a 7c3d
00000170: e9e7 143e 336b 96bd dd98 21bd 8915 94bd
00000180: cfd5 2b3e e8ca a43d 72de 5f3e dedd 413e
00000190: a8d9 ebbd dfdf e23d 2e1c c8bd 8dd4 df3d
000001a0: 40a2 c33d d90c 86be 5683 88bd 717c 483e
000001b0: ee51 383e 5665 7b3e ba31 71be ace9 953d
000001c0: a95f 393e b125 2f3e 7e8b ebbd fd2c 403e
000001d0: 8c32 173d 7d25 53bd 0b22 d0bd d6f6 16bc
000001e0: 035f d7bb bc17 733e cf5d 8cbc cb16 523e
000001f0: 1e75 7e3e d967 0bbb a122 d23d 864a 0e3e
00000200: a035 963e b8a1 d9bd 1f5c fdbd ae8d a13d
00000210: e366 b7bd c79a 13bd d55b 5abd 471c a2bd
00000220: b0d8 ebbe f86b eebe ed6d 7abe e0fe 113e
00000230: b1e5 653d 0646 f8bd 0bcb 31bd 5dad 07bd
00000240: 529f fd3d b09b 623e 979e b53e 1e76 cf3e
00000250: 1593 c23d 24af 11be b179 31bd 0bca 003e
00000260: 5f34 19bd 7d95 5c3e c6dc 2f3e 66f2 113e
00000270: 9725 35be 7502 eebb 44d6 6f3e 41aa 593d
00000280: c156 e0bb 18c7 b9bd dea4 a0bc b48a 99bc
00000290: 21a6 833d 2c45 9bbc c2b4 1a3d b0b9 8e3d
000002a0: 88a1 5f3e 038f c83d 001c 783e a0b8 0e3e
000002b0: 5a14 c93d 993d 0a3e 98db 433e 9891 313c
000002c0: 6944 84bd 316d edbd 38d6 033e b0b9 663b
000002d0: a1bd 513c 11ef 7e3d 18f4 053e 7fab 253e
000002e0: fe2a 613e c2eb 8f3e 3c63 4a3e 3598 0ebd
000002f0: 4f8a abbd 0569 423e fb1a 0d3e 4122 03be
00000300: ed2a 0e3e b9c6 6abe 36e1 27be ba46 b9ba
00000310: a96f 423e 3e5b eabd 2bc6 64be b8ec b33c
00000320: 894b 363e 4949 893e a0c3 4bbe 0a74 32be
00000330: b984 91bd 3ff6 d3bd fa3b c03c 24e7 02be
00000340: 6e96 ba3d 186c b0bd 510c 733d b084 783e
00000350: 7fc5 603e 996c 2d3e 863c 683e af8f 823e
00000360: e820 603d 7557 d73d 390f 893e e776 3c3d
00000370: 6f79 383d e0b7 de3d 5a79 38be 6772 eb3d
00000380: 9ead 1fbe 6dc0 833e 9315 853c 7bf8 753e
00000390: c1cb 85bd 783c eebd a51d a63e f45b e13c
000003a0: b6bb ed3d 4fde 6dbe edd9 55be 586b 7a3e
000003b0: e519 5b3e 4071 6d3e 7db2 cabe 5838 e1be
000003c0: 8e1c 8f3d 646c 6d3e 3331 813d ff89 bcbe
000003d0: b21d 34be c091 513e 3435 033e 9dee 073d
000003e0: d8a6 3dbe 45ab a7bd acfd 42bc 7643 5e3e
000003f0: 3fe2 b53e 2ff0 0f3e 3886 743d 9ba3 e8ba
0.21646725 0.105411366 0.11571262 0.096857324 -0.032479733 -0.07611435 0.15805016 0.18646689
-0.056360275 0.08932968 0.07974729 -0.110375196 0.17323002 0.23107469 0.17552781 0.024081826
-0.09933692 0.18776484 0.11845566 0.006276994 -0.0691169 -0.037686013 0.19088922 0.0763646
0.19691336 -0.13022836 -0.08314678 0.15484783 0.10534283 0.051433273 -0.17025125 0.18543997
-0.11178057 0.15259919 0.1578582 -0.08872131 0.16549557 0.13095611 0.2062987 0.23539333
-0.045229774 0.08804417 0.16176516 0.084475674 0.13960895 -0.08052096 0.20286617 0.13517742
0.1437593 -0.16855511 0.22053503 0.07141541 0.12074327 -0.1301228 0.09321977 0.26261422
0.14784113 -0.13944638 0.23345768 0.17603523 0.17610542 0.17259957 0.055560455 0.048448008
-0.07034936 -0.0067366883 -0.21966182 -0.027420849 0.037008237 0.04760623 -0.31638044 -0.1270054
-0.23401706 -0.24101667 0.071729615 -0.14116533 -0.1338354 -0.16123302 0.1981304 -0.17920877
0.25540152 0.24164706 0.025260162 -0.035955023 0.1098942 0.16009228 0.09403275 -0.008576608
0.24551569 0.100742735 -0.19090812 0.06154918 0.14541592 -0.073446654 -0.039452422 -0.0723067
0.1678078 0.08046514 0.218622 0.18932292 -0.11516124 0.11077856 -0.09771 0.10929213
0.09552431 -0.26181677 -0.06665675 0.1957872 0.18000004 0.24550375 -0.23554125 0.0731996
0.18102898 0.17104222 -0.115012154 0.18767162 0.03691344 -0.051549423 -0.10162743 -0.009214124
-0.0065726056 0.23739523 -0.017134575 0.20516507 0.24849364 -0.0021271615 0.10260511 0.13895616
0.29337788 -0.106265485 -0.12371086 0.078883514 -0.08955171 -0.03603628 -0.053310234 -0.0791555
-0.46063757 -0.4656675 -0.24455996 0.14257383 0.056127254 -0.12122731 -0.043406527 -0.033124316
0.123839036 0.22129703 0.35472557 0.40519804 0.0950071 -0.14226967 -0.043328945 0.12577073
-0.03740346 0.215414 0.17174062 0.14252624 -0.1769012 -0.0072634765 0.2342158 0.053140882
-0.0068462794 -0.09071177 -0.019609865 -0.018742897 0.06428171 -0.018953882 0.03777004 0.06969011
0.21838963 0.09792902 0.24229431 0.13937616 0.09818335 0.1350006 0.19126737 0.010837935
-0.06458361 -0.11593092 0.12874687 0.0035205893 0.012801559 0.06223971 0.13081396 0.16178702
0.21989056 0.28109556 0.19764417 -0.034813125 -0.0837599 0.18985374 0.13779823 -0.12806036
0.13883562 -0.22927369 -0.16394505 -0.0014135458 0.18987907 -0.11443184 -0.2234122 0.021963462
0.17802252 0.26813725 -0.19898844 -0.17427078 -0.07105393 -0.10349702 0.023466099 -0.12783486
0.091107234 -0.08614367 0.059337918 0.24269366 0.21950339 0.16935958 0.22679338 0.25500247
0.05471888 0.10514728 0.26769426 0.04601183 0.045037683 0.10874915 -0.18015042 0.1149643
-0.15593573 0.25732747 0.016245639 0.24020569 -0.065330036 -0.11632627 0.32444492 0.027509667
0.11608069 -0.23229335 -0.20883913 0.24455011 0.21396597 0.23187733 -0.395893 -0.439883
0.06987868 0.23185879 0.06308212 -0.36824033 -0.17589453 0.20465755 0.12813264 0.033186544
-0.18520677 -0.08186964 -0.0119013 0.21705422 0.35524175 0.14056467 0.059698313 -0.0017748954

conv1.0.bias f4 [16]
00000000: d8d8 cabd d24d bc3d 67c4 303e 1375 993d
00000010: 00ce b6bd 67fd caba 3087 74bd a82a 1b3a
00000020: 44ad 183a 7479 183d 02f8 ca3c 6331 133e
00000030: 4115 1cba 58b4 e139 0484 3e3d 285a 1c3c
-0.09904641 0.091945305 0.17262422 0.07493033 -0.0892601 -0.0015486897 -0.059699237 0.0005919137
0.00058241584 0.0372252 0.024776462 0.14374308 -0.0005954095 0.0004304971 0.04651262 0.009542979

conv2.0.weight f4 [32, 16, 5, 5]
00000000: 2a59 be3c f88e 93bd 5166 94bc 29ae 72bd
00000010: 9503 ccbd ce14 ab3d 4ac0 f83c 5ac5 aabb
00000020: 1adb 1c3d 6da7 f2bc 979e 613d 7d1c 883d
00000030: 3f6b 593c 7aa5 3b3c 01d4 00bc dc07 98bd
00000040: ff8d b83c 9b27 e8bb 7067 ed3b 07e4 0d3d
00000050: 449c 28bd 89d3 50bd 2ae3 94bd e892 b7bd
00000060: 105f af3d d8d3 873c 7ed7 373c e28e 18bd
00000070: efd0 bbbd 9983 f5bc 147d 6b3d 70c0 433c
00000080: 630f 0ebc 705c 213d 4952 e2bc 7a07 893d
00000090: 34cd 1d3d dd99 e63a 4a6f 083d c5cd 16bc
000000a0: c0d1 3e3c 6e4e cfbc 2f22 92bd f83a 6abd
000000b0: c00e 223b 5b58 cdbd e682 47bd 14a5 6cbc
000000c0: 9ae7 2abb 4cc1 963c 1b2c 4fbd cfc3 7bbd
000000d0: 8a4c b2bc 53e7 2bbd 7567 35bd aef5 233d
000000e0: e86a 6b3d 173b ae3c 3dd9 52bc 6293 2fbd
000000f0: f6a0 1f3d 02e8 6f3d 0331 9a3d 2c29 f9ba
00000100: fba5 ac3d 1696 29bd 5325 af3c ee61 5b3d
00000110: 92d3 663c 79d7 043d f93e a53c f415 99bd
00000120: 3754 47bd c8d5 e43c 00a1 a6bc b032 a03d
00000130: 9d55 06bd b645 c43c 332a 64bd fb2e 82bd
00000140: 96c7 a23d 57a3 c13d ef0e 173d c762 933d
00000150: edcc 8ebc 7238 20bd 2402 913d 417e cb3d
00000160: 9f35 283c 0bd4 c63d 825a dbbd 4f5d 3dbc
00000170: 93a4 89bd 7232 adbc 24cb 713d eb73 9eb9
00000180: 9b0e 0cbd 6ee5 9abd dae9 f3bb 75df 28bd
00000190: 9611 6b3d 5632 413d 9cf3 ba3d 40cb a83c
000001a0: 66dd f2bc 5f9e 963d 0af7 5c3d 2a8e b33c
000001b0: 466e 753d c8e8 ee3c 6994 883d 7c0c 533d
000001c0: 76bc adbb c2e3 b2bc 30c5 bfbb 0ea4 31bd
000001d0: 2e5b 3a3c ee63 183d 4ee4 89bc 60f2 313d
000001e0: f00e c1bd 89d8 993b 7985 32bd 5fcc 013d
000001f0: e18a eb3c b53f 0d3e abc5 153e 030d fe3d
00000200: 9b84 563e c78a 383e 5a72 05be eaf1 c83d
00000210: 0997 793e 998e 723e 64e6 bb3d ff63 8dbb
00000220: a051 ee3d cd52 413e eab1 093e dd8a e23c
00000230: d210 26bd dab1 093e be07 893e 39b7 803e
00000240: e33b 713d 5a60 8ebc 68ef ce3d bcfa 513e
00000250: 6a93 f23d 13e7 ae3d bcd9 b13d b577 383d
00000260: 78fd 983d 45a1 01bd 479a 91bc 3020 a5bc
00000270: 3b6b a13d 76d2 bf3d 77d1 8dbc 456d 9b3b
00000280: 1850 e9bc 57cc e4bb f03d 863d c448 c83c
00000290: 53b0 ef3c aff6 a83c 0eca d5bc c1ef 91bc
000002a0: e2ca 2b3d 7675 c23c 0de0 9abd 0ce0 aabc
000002b0: 74c9 ab3c b9e4 583b 2582 a43c c651 3a3c
000002c0: 7bd2 993d 5947 e63c 57f2 98bc 74aa 98bd
000002d0: caa5 ab3d be32 113c 9c75 3f3d 3685 6f3d
000002e0: 0b47 133d 534b ca3d 6813 9d3d 348e 963d
000002f0: 50a7 723d dd3b 62ba 647f 16bd 6bff 273d
00000300: 0992 ad3d 451b ae3c 77e1 a53c 7cad 87bd
00000310: 605a cfbc 39e6 c93c c155 a23c d75f 23bd
00000320: d4e1 223d 6e6e 04bd 7636 afbd 3c8e f0bd
00000330: af18 85bd f1ec b83d 393c 893d e667 713d
00000340: 7d09 843d 7ad1 ee3c 1758 d3bc c565 b53d
00000350: d1bf 883d 9a6d ba3d 5ecd 933b 474b bcbd
00000360: 6921 eabc 1c6a b63c 177a a53b 9192 a03d
00000370: 6a7f 1dbd 71d7 68bd 92df 773c 2f67 43bd
00000380: 40a0 353d d6ba 6e3d ab36 323d 6ee9 d4bd
00000390: 5ee1 1fbd 5f5d 4cbc 1155 26be 7cae d4bd
000003a0: 0b85 dfbd 4f88 e6bd e111 59bb 140e dabd
000003b0: 5aa7 f9bd 339a 4bbe 6b4f 7dbd ecfb f23c
000003c0: c86f 93bd 6188 14be be66 52be 8556 d4bd
000003d0: 92e6 a23c f3b6 a8bc b5d1 f5bd 7dd1 f2bd
000003e0: 7644 aabd 85df 7cbc f535 e7bd 9fda 80be
000003f0: 2fab 46be 4b44 1ebe 7aef c3bd 0f2d 2b3e
0.023235876 -0.072050035 -0.018115195 -0.059248123 -0.09961621 0.083535776 0.030365128 -0.0052115144
0.03829489 -0.02962085 0.055082884 0.06646059 0.013270198 0.011453027 -0.007863046 -0.07423374
0.022528647 -0.0070847995 0.0072449967 0.034641292 -0.04116465 -0.050982986 -0.072698906 -0.08963567
0.085630536 0.016580507 0.011220811 -0.03724564 -0.0917071 -0.029969977 0.05749233 0.011947736
-0.008670661 0.039394796 -0.027627127 0.06690879 0.038525775 0.0017593462 0.03330926 -0.009204333
0.011646688 -0.025305953 -0.07135426 -0.057185143 0.002472803 -0.10026618 -0.04870882 -0.014443655
-0.0026077987 0.018402718 -0.05057917 -0.061466035 -0.021765012 -0.041968655 -0.044288117 0.04002922
0.057475 0.02126841 -0.012869176 -0.042865165 0.038971864 0.05857087 0.075288795 -0.0019009463
0.08430096 -0.0414029 0.021380102 0.05356019 0.014088528 0.032432053 0.02017163 -0.0747489
-0.048664298 0.02793397 -0.020340443 0.07822168 -0.03279649 0.023959022 -0.055704307 -0.06356617
0.07948224 0.09454983 0.036879476 0.07196575 -0.0174317 -0.03911633 0.070804864 0.099361904
0.0102666905 0.09708413 -0.10710622 -0.011557891 -0.06720843 -0.021142218 0.05903162 -0.00030222474
-0.034193616 -0.075632915 -0.0074436488 -0.04122873 0.057389818 0.047167145 0.09128496 0.02060473
-0.029646587 0.07354426 0.053946532 0.021918375 0.059919618 0.029163733 0.06668932 0.051525578
-0.0053020073 -0.021837119 -0.005852364 -0.043369345 0.011374278 0.037204675 -0.016832497 0.043444037
-0.09426677 0.0046950025 -0.04358432 0.031689044 0.028752746 0.13793834 0.14626186 0.124048255
0.20949022 0.1802169 -0.13031903 0.098117664 0.24374022 0.23687209 0.09174803 -0.004314899
0.116366625 0.18879242 0.13446775 0.027654106 -0.040543385 0.13446751 0.2676372 0.25139788
0.058895003 -0.017379928 0.10104257 0.20505804 0.11844523 0.08540168 0.08684108 0.045036037
0.0747022 -0.03164794 -0.01777376 -0.02015695 0.07881781 0.09366314 -0.017311795 0.0047432506
-0.028480574 -0.006982367 0.065547824 0.02444876 0.029258883 0.02062544 -0.026097324 -0.017814519
0.04194153 0.02373765 -0.075622655 -0.020858787 0.020970084 0.0033095314 0.020081589 0.011372035
0.07510849 0.028110193 -0.018670244 -0.07454386 0.08381231 0.008862196 0.04674302 0.05847665
0.035956424 0.09877648 0.07669717 0.07351342 0.059241593 -0.0008630136 -0.036742583 0.04101507
0.084751196 0.021253238 0.020249112 -0.066248864 -0.025311649 0.024645912 0.019816281 -0.039886322
0.039766148 -0.032331876 -0.085553095 -0.11745879 -0.06498849 0.09029568 0.0670094 0.058936976
0.06447122 0.02915262 -0.02579884 0.088573016 0.06677211 0.09102936 0.0045105657 -0.091940455
-0.028580384 0.022267394 0.0050499546 0.07840455 -0.03845159 -0.056846086 0.015128987 -0.047705825
0.04434228 0.05828365 0.043509167 -0.10396086 -0.039033286 -0.012473433 -0.16243388 -0.10384843
-0.10914048 -0.112564676 -0.003312223 -0.106472164 -0.12190123 -0.19883041 -0.061843317 0.029661141
-0.07199055 -0.1450515 -0.20547006 -0.10368065 0.019885335 -0.02059505 -0.12002889 -0.11856363
-0.08313839 -0.015434151 -0.11289588 -0.25166795 -0.19401239 -0.15455739 -0.09567161 0.16716407

conv2.0.bias f4 [32]
00000000: 9199 8fbc d29a 2bbc 2f42 c93c 66cf a53d
00000010: 2e07 92bd 9d42 d2bb 50a8 c4ba 8676 bb3c
00000020: 3d6c 1cbc d7e8 443d bdbf d6bc f77d bd3b
00000030: 296d 2ebd 2eb5 163c 6ea2 bf38 f46f 653d
00000040: c51e 103d f440 f53c 0a22 31bd 0aaa 59bd
00000050: dbb3 673d 22e7 3b3d f45b bd3c a2b6 05bc
00000060: 8d95 febc 640b 343b 24ac 463d e2c9 f23c
00000070: 576e e4bc 8113 ca3b 8c58 3e3d 9afe 953c
-0.01752928 -0.010473924 0.024567692 0.08096199 -0.07130276 -0.0064166323 -0.0015003774 0.022883665
-0.00954729 0.048073616 -0.026214475 0.0057828384 -0.042584572 0.00919847 9.1378446e-05 0.05601497
0.035185594 0.029938199 -0.043245353 -0.053140678 0.056568008 0.045874722 0.023115136 -0.008161219
-0.03107717 0.002747261 0.04850401 0.02963728 -0.027884645 0.006166876 0.046471164 0.01830988

out.weight f4 [10, 1568]
00000000: d61a 75bd cc03 acbd 064a 2dbd d99e 60bc
00000010: b575 373d a6ec 10bc a829 efba f9a7 5d3c
00000020: d756 b6bc 32da 09bc 6c4b 0b3d b685 873c
00000030: 4fcf 933d 97d2 1b3c eacb e8bb 5172 233c
00000040: 1b4d 8a3b db16 2f3c adbb 243d 947c 783c
00000050: 9d36 143d e7f2 fabc 4b3a 90bc 02ec a4bd
00000060: dcfb 7bbd 9d5f 51bd aad2 5b3d 8bd8 983b
00000070: 64a3 b43c 177d 2e3d 1a69 15bd 53db 32bd
00000080: b214 2abd 068a 80bd abe6 6ebc 4a29 223d
00000090: fe09 dd3c 7529 913c 2c5c 243d 3e4e 5cbc
000000a0: 0afe 36bd 2cfc c03b 19c7 0dbc 7236 783d
000000b0: 59d6 b4bc 6297 b63b 8c39 9b3d 52ce 6abc
000000c0: 1bc3 7bbd 7a87 a0bb 9b3f dcbc 5670 db3c
000000d0: 81da 55bd 7d41 80bd 4d2c e3bc a50f 803d
000000e0: 8931 4b3c f550 933c 5364 58bc 2fc4 4abd
000000f0: e9e4 8b3c 2fd9 4dbd 732f 6fbd 532f a039
00000100: c422 063c 3b93 b9bd 785a d7bd 3489 c9bc
00000110: 93a0 2dbd 21a6 b03b 2398 c53c 1378 093d
00000120: 3386 50bd ba55 76bd 050d 77bd b3f1 1cbd
00000130: 0897 9f3c 011e 053d 3c33 6e3c 746f 26bd
00000140: a785 56bd cc2b 88bd 9023 e13c 3b2a 083d
00000150: 0b81 90bc bb74 b13c e647 f63c 2e5c 5a3d
00000160: 2c6a cd3c 5e7d ea3c 0ca7 9a3c cd35 ab3c
00000170: d034 013d 0708 e43c df89 1f3d 0527 033d
00000180: 88c3 5bbd 7e45 d2bc 2116 29bc 5fed 91bb
00000190: 72f5 343c 0899 bb3c fde8 47bc 0b9a 45bc
000001a0: 5233 1cbd cec7 c5bb 95d2 5dbc f666 913c
000001b0: 540f 60bc bcae 69bc 254b 28be 7697 cebd
000001c0: fff8 a93c 6734 af3b ef66 1fbd db11 983c
000001d0: 68af bdbc ed12 af3b c809 e1bb 662e 183d
000001e0: 7bd6 903d 7091 023d 0965 7fbd bf89 643d
000001f0: 3caf 9f3d 8be6 56bb a883 1f3d adb6 be3c
00000200: c815 7e3d 7324 c9ba f278 5f3d 6e46 933d
00000210: d338 af3c 0b33 51ba 6bc4 343d f4cd 653d
00000220: d282 e8bd 7d97 263d 6a18 373d b471 243c
00000230: 4471 dabc 287b 8ebd 6279 d3bd 403f db3b
00000240: ebd5 78bd 2779 e13c 64e2 dbbc 0af5 8a3d
00000250: 7af4 c73d 7030 4e3e bc56 db3d ed3c 4e3d
00000260: ddd6 523d ecb6 023d 681b eabc 840a 60bd
00000270: 2397 863c a731 e83c 0cc6 06bd 8b02 5bbd
00000280: 6a83 b9bc bf99 82bd 09ab 8cbc 5519 42bb
00000290: 9bc3 60bc cfeb 8abd 3605 febc 3e59 d8bc
000002a0: 48ef 7abd 6bb9 04be 2b47 34bd 1ad0 26bc
000002b0: b0f7 e83c 4711 773d 0c5c 0e3d 481b 323c
000002c0: d68a f6bb ce65 c03b 632b 003d 39e8 853c
000002d0: 93f5 513c d354 1a3d e618 303c 4107 8c3c
000002e0: d4d9 513d 614c 943c 52bf f83b 938e 283b
000002f0: e7d1 a23c 3645 1a3d 255f aa3c 2b6e 463d
00000300: 07c0 023c 96cf b6bc 39b8 ddbc 559f f0bb
00000310: 6c9e 1d3c 845c 79bd bedf 1abd f5a5 6e3b
00000320: ed32 023d 2ff2 ab3c 8f50 a0bc 9ee6 e8bb
00000330: 73aa 813a 8c38 44bd 805a 9d3a 6a1e 9c3c
00000340: d67f 15bb e549 11bc fe30 d5bd 4d59 0bbc
00000350: 3306 f3bc cf47 27bd 672c b3bc c8c5 e3bb
00000360: b11b a5bc 8ccd 2abe a6d7 563d e687 6e3d
00000370: 8169 8b3c 397a cabd e191 843b 7e7e 86bb
00000380: ca69 d5bd d4c0 bb3c c17a 5a3d c6f3 04bd
00000390: d13f 1d3c cbff 413c 8775 663d 40aa 89ba
000003a0: 2ff5 92bc 9750 133c 8917 00bc aceb 183d
000003b0: 247f bd3c ae5b 883c 0f10 c33b 102f 353c
000003c0: 701d 6cbd a415 91bd 77fa 53bc 3341 51bd
000003d0: a2de 98bc ef1c ed3c 2099 193d 0c82 a63c
000003e0: 8573 a43c 0e28 613d b807 1f3d b24f 683d
000003f0: c75a 8d3d 2522 5c3d 9da1 f03c 17eb 1e3d
-0.059840046 -0.08399162 -0.042306922 -0.013709747 0.04478999 -0.008845484 -0.0018246667 0.013528817
-0.022258205 -0.008413838 0.034007475 0.01654325 0.07217275 0.009510658 -0.0071043866 0.009975986
0.0042206175 0.0106866015 0.040218044 0.0151664205 0.036184896 -0.030633403 -0.017605921 -0.080528274
-0.06151949 -0.051116575 0.0536677 0.004664486 0.022050567 0.042599764 -0.036477186 -0.043666195
-0.041523643 -0.06276326 -0.014581363 0.039590158 0.026982304 0.017719964 0.040126964 -0.013446389
-0.044675864 0.005889436 -0.008653426 0.060598798 -0.022074865 0.0055722455 0.075793356 -0.014331417
-0.061465364 -0.0048989626 -0.026885798 0.026786964 -0.052210335 -0.06262491 -0.027731085 0.06252984
0.012401947 0.01798294 -0.013207513 -0.0495035 0.017076926 -0.05025595 -0.05839486 0.00030552837
0.008187 -0.09061285 -0.105153024 -0.024601556 -0.042389464 0.005390898 0.024120396 0.033561777
-0.050909232 -0.06014035 -0.06031515 -0.03831644 0.019481197 0.032499317 0.014538582 -0.040633634
-0.052373555 -0.066489786 0.027482778 0.0332434 -0.017639657 0.021662107 0.03006358 0.053310566
0.02507504 0.028624233 0.018878482 0.020899678 0.031544507 0.027835859 0.038949843 0.032019634
-0.05365327 -0.025667902 -0.010320217 -0.0044533457 0.011044847 0.02290012 -0.012201545 -0.0120606525
-0.03813488 -0.0060357815 -0.013538976 0.01774929 -0.0136755295 -0.014262851 -0.16434915 -0.10087483
0.020748613 0.005346823 -0.038916524 0.018563202 -0.02315493 0.0053428323 -0.006867621 0.037153624
0.07072159 0.03187698 -0.062352214 0.055795427 0.07797095 -0.0032791223 0.038943917 0.023280466
0.06203249 -0.0015345946 0.0545587 0.07191168 0.0213894 -0.0007980323 0.04413263 0.056104615
-0.11353077 0.040671814 0.044701017 0.010036875 -0.026665337 -0.06957084 -0.10325886 0.0066908896
-0.060750883 0.02752359 -0.02684135 0.06785019 0.09763427 0.20135665 0.10709903 0.050351072
0.05147444 0.03191273 -0.028577521 -0.05469753 0.01642949 0.028343989 -0.032903716 -0.053469222
-0.02264567 -0.06376981 -0.0171714 -0.002961715 -0.013718511 -0.06783258 -0.031008344 -0.026409741
-0.061263353 -0.12961356 -0.044013184 -0.010181451 0.02843842 0.06031921 0.03475575 0.010870762
-0.0075238748 0.005871511 0.031291377 0.016346084 0.012814897 0.03767855 0.010748124 0.017093303
0.051233128 0.018102827 0.0075911665 0.0025719746 0.01987548 0.03766366 0.020797322 0.048444908
0.007980353 -0.022315782 -0.027065383 -0.0073432126 0.00962029 -0.060879245 -0.037811033 0.0036414836
0.031786848 0.020989506 -0.019569663 -0.00710757 0.0009892717 -0.04790549 0.001200512 0.019057471
-0.0022811792 -0.0088677155 -0.10409735 -0.008505178 -0.029666042 -0.040839966 -0.021871759 -0.0069510676
-0.020154806 -0.16679972 0.052451752 0.05823507 0.017018082 -0.09886593 0.0040457104 -0.0041044345
-0.10420568 0.022919096 0.053339723 -0.032459043 0.009597735 0.011840771 0.056264427 -0.0010503009
-0.017939178 0.008991382 -0.007818111 0.03733413 0.023131914 0.016645279 0.005952842 0.011058584
-0.05764526 -0.07084206 -0.012938133 -0.05108757 -0.018660847 0.02894446 0.037499547 0.020325683
0.020074615 0.05496984 0.03882572 0.05671663 0.0690208 0.0537435 0.029373938 0.038798418

out.bias f4 [10]
00000000: 2fb3 26bc 1e79 b83c 7c44 b9bb 424f 35bd
00000010: 5903 d6bc 37a0 143d 23ff 333c 187f a3bc
00000020: 2215 3abb b519 0cbc
-0.010174557 0.02251869 -0.005653916 -0.04426504 -0.026124643 0.036285605 0.010986122 -0.019958064
-0.0028393944 -0.008551051

exp_avg f4 [16, 1, 5, 5]
00000000: cf06 94b9 3394 b4b9 30d8 fbb9 6739 bab9
00000010: 1427 61b9 34d0 9cb9 2289 ccb9 4fd1 f8b9
00000020: 2951 a3b9 d0c2 30b9 c17c 97b9 179b c6b9
00000030: 87e7 f2b9 e807 6eb9 86c9 a6b8 0b12 7eb9
00000040: 679e 87b9 2d76 98b9 621a 44b9 eed3 0138
00000050: ab5f 2cb9 f233 25b9 a002 1db9 2d09 bdb8
00000060: 026f 1939 ecf2 fcb7 6aa3 09b9 338a 8ab9
00000070: e23b b8b9 91fc 92b9 041c 27b8 fbdd 22b9
00000080: 2776 aeb9 d777 a7b9 7bd9 f1b8 3f5f 1bb8
00000090: 0770 67b9 1705 acb9 c507 3eb9 8aea c038
000000a0: b2fd 80b8 3087 14b9 73ab 15b9 e88c 9eb7
000000b0: afb0 4839 bc20 b636 c665 1c38 b800 2539
000000c0: 5623 9c39 7ea0 033a d627 80b7 48c8 7839
000000d0: 22b8 b039 1467 7a39 8678 3639 122c 0139
000000e0: ec5a 5039 bdf4 8a39 8fc2 7d39 68fc 2039
000000f0: 46b2 7239 caa6 7739 da9d 5d39 44c0 3239
00000100: 424f a037 2f43 8939 304d 8839 4fc0 6739
00000110: b22a eb38 e97b 0f37 35ec ad39 f768 7c39
00000120: 7d99 5139 443c 7c38 ef79 eeb8 b96e 2039
00000130: ae06 b838 ef49 4c38 dcc2 c437 ecb9 2138
00000140: afb8 8937 8065 e6b6 74bb 81b8 1790 8cb8
00000150: 586b 52b8 a3fd c4b8 ab3f 88b9 3ba8 9db9
00000160: 0dba 2fb9 3032 f0b8 1800 c7b8 b241 90b9
00000170: 3bff 90b9 badf 3ab9 4794 03b9 bcf3 d2b7
00000180: c6f3 b4b8 7e64 ecb8 ec90 51b9 b7de 1cb9
00000190: 7f03 96b8 7d64 42b5 5fc2 8f38 a8d1 bb38
000001a0: 4b5c 0a39 8c50 95b8 f548 3c38 948c a838
000001b0: 70e4 9f38 ba01 1e39 01b9 3db9 8678 05b8
000001c0: a6c8 2738 c0e4 1c39 25ba a339 6abd bab8
000001d0: af77 b138 3511 9239 c636 5e39 6ed8 3539
000001e0: cc74 8038 83b0 0a39 c6cf a839 78f5 4a39
000001f0: 5a9f 7838 debe d03a 3700 043b d71b eb3a
00000200: 9c82 c93a 1799 ac3a 5377 f43a 4736 213b
00000210: e523 093b f694 d43a 180f c93a df65 183b
00000220: b53e 173b 062d 063b 70fd ea3a 5257 c03a
00000230: 8a22 b53a fe61 bc3a 691c 8f3a 5a79 523a
00000240: 127e 323a 0a9d 8737 80b6 54b6 0008 be36
00000250: 8444 8d39 5de8 a2b9 1d97 39b9 cb5f ebb8
00000260: 7be0 2db8 fbed 86b9 6e39 99b9 ab14 61b9
00000270: 7aff 05b9 86cc 39b8 c060 66b9 ec68 d5b8
00000280: 2591 3eb9 2298 a1b8 f0ee dbb8 3b6e 2cb9
00000290: c78b 7d37 1242 c2b8 6413 ecb7 4662 03b8
000002a0: 0682 bdb8 68b0 5538 2cbf eeb7 b453 7838
000002b0: 9617 6b38 f4d8 3fb8 b258 9138 e3db d038
000002c0: e9fd 3239 324b d739 86a9 fb39 af89 0d3a
000002d0: 1999 0239 7637 8139 b7a1 c439 cf37 d439
000002e0: 728c cf39 4437 2f39 ccbc 9339 4ce0 da39
000002f0: fa8b cc39 e6bd db39 4896 f839 8901 063a
00000300: efd2 0c3a 03c5 103a 164b 133a 79e2 4c3a
00000310: 5333 433a 05da 513a ec9b 353a fadc 263a
00000320: 6470 f438 7549 2039 c83e f439 4ab5 bc39
00000330: 1335 a839 3d78 ae38 67bc 4d39 85fc c239
00000340: c050 2839 94d2 2e39 945f 3539 7907 5939
00000350: 7c91 7239 96da 0238 f094 3637 5e75 8a39
00000360: bd0b 8839 da38 4539 fcfb 3b38 9097 5637
00000370: eb0c eb39 aec8 b939 c56b 5739 9265 fb38
00000380: c85f 5839 52cc b5ba 8d9d daba 6003 caba
00000390: e197 72ba 8ec6 01ba fdca 9bba 1698 a7ba
000003a0: 14ad 7bba 72c7 a7b9 56d5 44b9 bd2a 87ba
000003b0: 2bb0 88ba cac4 bfb9 3fde fa38 eec0 9438
000003c0: 0e9c 3eba de1c cdb9 3011 c539 6573 013a
000003d0: 98c1 7339 a5fd 85b9 7ef9 bc38 7afa 503a
000003e0: 588a 183a 6360 d939 9807 213a c04e 2f3a
000003f0: c96e e239 6a94 303a 2080 073a 7ade 733a
-0.00028233833 -0.00034442692 -0.00048035523 -0.00035519453 -0.0002147223 -0.00029909762 -0.00039012084 -0.00047458193
-0.00031150252 -0.00016857241 -0.00028893913 -0.00037881054 -0.00046330338 -0.00022700394 -7.9530335e-05 -0.00024230049
-0.00025867225 -0.00029079747 -0.00018701845 3.095337e-05 -0.00016438837 -0.00015754977 -0.00014973665 -9.0139314e-05
0.0001463257 -3.015386e-05 -0.00013126215 -0.00026424378 -0.0003513983 -0.00028035467 -3.9841994e-05 -0.00015532218
-0.00033275897 -0.0003194201 -0.000115322844 -3.7043585e-05 -0.0002207161 -0.0003281019 -0.00018122706 9.19896e-05
-6.15077e-05 -0.00014164741 -0.00014273617 -1.8900682e-05 0.00019139306 5.4278335e-06 3.7288082e-05 0.00015735894
0.00029780966 0.00050211686 -1.527734e-05 0.00023725734 0.00033706526 0.00023880258 0.00017401771 0.00012318816
0.00019870297 0.00026503755 0.00024200439 0.00015352818 0.0002314533 0.0002361789 0.00021135007 0.00017047027
1.9110394e-05 0.00026180732 0.0002599745 0.00022101517 0.00011213626 8.552314e-06 0.0003317312 0.00024071695
0.00019988972 6.013761e-05 -0.00011371436 0.00015300036 8.775048e-05 4.8706246e-05 2.345576e-05 3.8558544e-05
1.6417673e-05 -6.8663503e-06 -6.186115e-05 -6.702559e-05 -5.0167873e-05 -9.393252e-05 -0.00025987378 -0.00030070715
-0.0001675861 -0.0001145344 -9.489077e-05 -0.00027514767 -0.00027655982 -0.00017821687 -0.00012548371 -2.5147448e-05
-8.628475e-05 -0.00011272075 -0.00019985781 -0.00014960287 -7.1532086e-05 -7.241686e-07 6.854976e-05 8.9559064e-05
0.00013195087 -7.119877e-05 4.489064e-05 8.037049e-05 7.6242606e-05 0.00015068697 -0.00018093364 -3.1821917e-05
4.000277e-05 0.00014962535 0.0003122847 -8.904452e-05 8.4623105e-05 0.0002786011 0.00021191975 0.00017342131
6.125271e-05 0.00013226461 0.0003219826 0.00019355665 5.9276215e-05 0.0015926023 0.002014173 0.0017937374
0.0015374008 0.0013168183 0.0018651284 0.0024599002 0.0020925936 0.001621871 0.0015339581 0.002325408
0.0023078148 0.0020473613 0.0017928313 0.0014674461 0.0013819498 0.0014372466 0.0010918501 0.0008028947
0.0006808947 1.6166381e-05 -3.169669e-06 5.6633726e-06 0.00026944664 -0.00031072172 -0.00017699269 -0.00011223516
-4.1455478e-05 -0.0002573578 -0.00029225223 -0.00021465372 -0.00012779041 -4.4297914e-05 -0.00021970551 -0.00010176175
-0.00018173883 -7.705415e-05 -0.00010487239 -0.00016444262 1.511252e-05 -9.2629474e-05 -2.8142422e-05 -3.1324358e-05
-9.036441e-05 5.094745e-05 -2.8460832e-05 5.9205762e-05 5.6050332e-05 -4.5740002e-05 6.9306596e-05 9.95917e-05
0.00017069992 0.0004106402 0.00048000755 0.00053992396 0.000124548 0.0002464612 0.0003750452 0.00040477372
0.00039586757 0.00016709889 0.0002817869 0.00041747314 0.00039014203 0.0004191242 0.00047414214 0.0005111923
0.0005372008 0.0005522521 0.00056187937 0.00078157295 0.00074463076 0.0008005205 0.0006927836 0.00063653255
0.00011655761 0.00015286154 0.00046586082 0.00035993225 0.00032083 8.319363e-05 0.00019620509 0.00037190705
0.0001605181 0.0001667238 0.00017297111 0.00020697516 0.00023133116 3.119799e-05 1.0882723e-05 0.00026408857
0.00025948687 0.00018808563 4.4818953e-05 1.2790682e-05 0.00044832318 0.00035435468 0.00020544145 0.000119875316
0.00020635047 -0.0013870096 -0.0016679034 -0.0015412383 -0.0009254199 -0.00049505464 -0.0011886057 -0.0012786414
-0.0009600681 -0.0003200132 -0.0001877149 -0.001031242 -0.0010428479 -0.00036576978 0.000119623255 7.093126e-05
-0.0007271179 -0.00039122155 0.00037587574 0.00049381546 0.00023246405 -0.00025556717 9.01101e-05 0.0007971894
0.00058189547 0.0004146128 0.0006142794 0.0006687455 0.0004318862 0.00067359826 0.00051689334 0.0009302866

exp_avg_sq f4 [16, 1, 5, 5]
00000000: 444d 6e36 c981 a536 6789 e536 a3b5 ef36
00000010: 8b76 ac36 75f8 8136 084e e736 e553 4d37
00000020: af6a 6137 0c88 2a37 2e3f 9e36 2781 0337
00000030: 6532 a237 321f d737 67d5 8e37 cab3 9236
00000040: b749 0237 995f ab37 dcf8 c737 5989 6837
00000050: aede 6636 d524 e236 3ed4 7437 ba2d 7a37
00000060: 8598 1f37 8f12 d635 1ca8 6636 dd13 1237
00000070: 9927 5b37 fd50 4037 8d97 5136 264d 1737
00000080: e4f1 9b37 30b9 ee37 1fb6 c037 bfcb e636
00000090: b5f4 a337 c401 2438 beae 4c38 09eb 1538
000000a0: 0083 2237 f4a6 d737 0364 3f38 19a9 4038
000000b0: 9cdf e937 574c 1537 c99c b937 c21b 0438
000000c0: 2da9 d237 7431 3737 5d06 8037 a03b 2537
000000d0: 5517 a836 7d9a 7b36 9956 7d36 a117 9c37
000000e0: bc6e 4937 6ff6 df36 2d27 e336 ae69 d836
000000f0: bea7 3937 64bd dc36 2c39 8e36 f0b2 8336
00000100: 4b6b 7036 e6c0 4336 cc80 b135 b58b af35
00000110: fec5 cf35 1a2c 0036 c959 6335 7247 8c35
00000120: 9736 be35 0327 8e35 50a4 8e35 125a d035
00000130: cb74 cd35 86fd e735 ad15 5836 298b 4836
00000140: e0fe cf36 3ad9 f836 da5f fb36 7bce 1e37
00000150: 1050 1737 394a 1d37 1a7d 4c37 c866 8037
00000160: d8be a437 6a69 8337 02b2 bd36 f8c7 4537
00000170: 71c0 a037 6d60 a537 b9f1 7337 df84 9636
00000180: 9963 3437 73d1 8937 7e63 9537 bd9f 5b37
00000190: 7dc7 de35 dc9b 2c36 1a25 8136 26e5 e736
000001a0: f858 0837 1456 c635 f3a1 2f36 39a5 c936
000001b0: 94cf 1f37 5110 1c37 9146 db35 52b0 6d36
000001c0: 485f e236 a9c1 0737 be24 d336 3eac 4d36
000001d0: d2e0 a636 7d1b d436 6148 f536 9d92 f836
000001e0: a62e 9036 1534 ec36 eb1b 0d37 6da5 4137
000001f0: b939 4b37 85bc 8b38 0a69 bc38 30de d138
00000200: 7fde f338 2c8c c338 0a61 6538 f5dd 6738
00000210: b8a4 4338 4b28 9938 f16b da38 a2eb 5738
00000220: 4bb0 0638 f1f4 1038 a507 9e38 2df1 1b39
00000230: 9345 9f38 3ba8 8f38 d6b9 d038 d9c9 1839
00000240: 338a 3639 0414 0639 9b32 3239 d690 5d39
00000250: 0d42 4839 fba2 0f39 b3c9 2936 0b90 7e36
00000260: d579 e536 2c35 7e37 346e 8837 822f 5e36
00000270: 0246 8836 0a6b 2137 26ff a537 804f 8b37
00000280: b512 8136 39f6 c136 67bb 5e37 adc8 aa37
00000290: 2ba2 8737 a4f6 d136 e02c 4437 00d8 aa37
000002a0: 5340 d537 c24d 9337 1fe9 1937 447b 7837
000002b0: a5ed a537 674b a937 a15a 6e37 b024 f936
000002c0: 8f06 0337 688d 1037 4dba 4737 7f56 4937
000002d0: e67f 8237 27d8 9237 2737 8e37 1661 9c37
000002e0: 5a04 9b37 0f1f dd37 1023 c537 f1f3 8437
000002f0: e5ba 5b37 7b32 7037 ab2e af37 c980 7c37
00000300: 9b31 3037 feff df36 b7a4 ed36 321c 6337
00000310: 777b 4637 ffaa fc36 52ca be36 6181 0637
00000320: 78b6 0b37 ef65 3537 9faf da36 cbb9 aa36
00000330: 1d42 b636 f66d 5b37 aa1d 9b37 68ef 7337
00000340: a5c5 6537 2cdb 4737 ac79 cd37 5646 1438
00000350: 9797 0f38 e0e3 f837 9991 ce37 2166 fc37
00000360: f30f 1338 7945 0338 b2ad e037 2a05 a837
00000370: 0f06 a237 48a6 9d37 4d7e 5837 9915 3c37
00000380: a088 1337 0243 7938 49a3 8038 fdb4 5938
00000390: 91de de37 9b84 5337 0c93 9138 0005 8a38
000003a0: bbd4 3238 6f4f 6637 c95f b236 a7e5 9938
000003b0: 1b18 9038 8490 0b38 44ac ef36 4340 3836
000003c0: 289b 9938 3445 8638 a79e db37 ce72 cc36
000003d0: 440a 5e36 1036 9938 40b3 6c38 4676 de37
000003e0: d704 2c37 7f83 0237 06c9 9a37 c0dc e337
000003f0: 8270 1038 cbb3 1338 3bb5 0938 5286 9a37
3.5509738e-06 4.932492e-06 6.8407276e-06 7.1439003e-06 5.1397997e-06 3.873424e-06 6.8934205e-06 1.2238485e-05
1.3435884e-05 1.01644655e-05 4.716122e-06 7.838279e-06 1.9335372e-05 2.5644524e-05 1.7027092e-05 4.3720693e-06
7.765767e-06 2.0429305e-05 2.3838533e-05 1.3860256e-05 3.4402287e-06 6.7396127e-06 1.459295e-05 1.4911808e-05
9.51265e-06 1.5949644e-06 3.4370523e-06 8.706903e-06 1.3062637e-05 1.1462948e-05 3.123164e-06 9.018264e-06
1.8590079e-05 2.8458046e-05 2.297299e-05 6.8782533e-06 1.9545065e-05 3.910229e-05 4.880013e-05 3.5743262e-05
9.686453e-06 2.570774e-05 4.563109e-05 4.593385e-05 2.787989e-05 8.898866e-06 2.2126727e-05 3.1497104e-05
2.511273e-05 1.0919164e-05 1.5261752e-05 9.848649e-06 5.0095064e-06 3.7491839e-06 3.7750344e-06 1.8607652e-05
1.2006316e-05 6.6746065e-06 6.769688e-06 6.4496044e-06 1.1065915e-05 6.578559e-06 4.2385855e-06 3.9249353e-06
3.582524e-06 2.9169546e-06 1.3225012e-06 1.3079176e-06 1.5480325e-06 1.9099157e-06 8.4694744e-07 1.0451606e-06
1.4171991e-06 1.0591178e-06 1.0627646e-06 1.5523422e-06 1.5307681e-06 1.7284626e-06 3.2199125e-06 2.9883324e-06
6.198752e-06 7.4162645e-06 7.4915415e-06 9.465609e-06 9.018942e-06 9.3752105e-06 1.2188475e-05 1.530665e-05
1.9639192e-05 1.5665504e-05 5.6533618e-06 1.1788674e-05 1.9163099e-05 1.9714435e-05 1.4540209e-05 4.4858166e-06
1.0752025e-05 1.6429205e-05 1.7808514e-05 1.3090609e-05 1.6598348e-06 2.572072e-06 3.848819e-06 6.911013e-06
8.126946e-06 1.4777202e-06 2.61713e-06 6.0095012e-06 9.525469e-06 9.3021235e-06 1.6337309e-06 3.5418384e-06
6.746417e-06 8.091717e-06 6.2925674e-06 3.0647639e-06 4.973358e-06 6.3212924e-06 7.309995e-06 7.408044e-06
4.296965e-06 7.0394112e-06 8.410755e-06 1.1542213e-05 1.21131825e-05 6.663151e-05 8.9841036e-05 0.00010007282
0.00011628586 9.3244336e-05 5.468823e-05 5.5281405e-05 4.664503e-05 7.303114e-05 0.00010415156 5.1479445e-05
3.2112275e-05 3.4560395e-05 7.535451e-05 0.00014871797 7.59467e-05 6.850107e-05 9.9528275e-05 0.00014571044
0.00017408356 0.00012786692 0.00016994255 0.00021130158 0.00019098092 0.00013698258 2.5300367e-06 3.7932793e-06
6.838915e-06 1.515196e-05 1.626378e-05 3.310823e-06 4.061266e-06 9.62127e-06 1.9788346e-05 1.6607111e-05
3.8466774e-06 5.7805123e-06 1.3275864e-05 2.0359026e-05 1.616877e-05 6.257398e-06 1.1692959e-05 2.0366162e-05
2.5421532e-05 1.7559974e-05 9.173788e-06 1.4810652e-05 1.9780195e-05 2.0181482e-05 1.4207007e-05 7.4250493e-06
7.8097355e-06 8.615993e-06 1.1904701e-05 1.20006725e-05 1.5556765e-05 1.750521e-05 1.6953401e-05 1.8641858e-05
1.8479466e-05 2.6359716e-05 2.3500557e-05 1.584922e-05 1.3096932e-05 1.4316868e-05 2.0883357e-05 1.5050356e-05
1.0501967e-05 6.6757193e-06 7.0823257e-06 1.3536819e-05 1.1830466e-05 7.530092e-06 5.6859944e-06 8.017146e-06
8.32753e-06 1.0812174e-05 6.5173513e-06 5.088024e-06 5.4317193e-06 1.30790195e-05 1.8491253e-05 1.453967e-05
1.3695481e-05 1.1912354e-05 2.4494562e-05 3.5351455e-05 3.4235036e-05 2.9670016e-05 2.4624913e-05 3.0088298e-05
3.5062385e-05 3.1297535e-05 2.6783764e-05 2.0029565e-05 1.9314726e-05 1.879329e-05 1.290401e-05 1.1210702e-05
8.793693e-06 5.9428632e-05 6.13393e-05 5.190539e-05 2.6568103e-05 1.2607455e-05 6.9415284e-05 6.581284e-05
4.2636628e-05 1.3727563e-05 5.3159642e-06 7.3383846e-05 6.870945e-05 3.3274773e-05 7.1428094e-06 2.7455542e-06
7.3245086e-05 6.402508e-05 2.6180713e-05 6.093039e-06 3.3086553e-06 7.3056784e-05 5.6433724e-05 2.6519538e-05
1.0253126e-05 7.77922e-06 1.845184e-05 2.7163303e-05 3.4437056e-05 3.5214976e-05 3.283213e-05 1.8420778e-05

exp_avg f4 [16]
00000000: dbd3 8ab9 d08e 4f38 808b 37b7 d108 73b9
00000010: 26d8 4039 53e8 5b3a 1952 d239 07e1 783a
00000020: be52 47b9 9e65 fb3a c2da a9ba 56a3 8339
00000030: 186d 22ba 154a f339 922a 41ba 3628 3e39
-0.00026479256 4.948565e-05 -1.094013e-05 -0.0002317757 0.00018391068 0.0008388806 0.0004011549 0.0009493981
-0.00019008943 0.0019180065 -0.0012958872 0.00025107962 -0.0006196066 0.00046403767 -0.0007368709 0.00018134792

exp_avg_sq f4 [16]
00000000: 3bcf ee37 e40d c137 c596 e637 6aea 4537
00000010: 4abd e137 0c45 4a3a dfa9 2938 c11e 6038
00000020: 57fe 8b38 854f 0f3a c827 2239 1e33 c338
00000030: 3c6f 0c38 3134 3238 bb3e 8039 702d 0339
2.846831e-05 2.3013861e-05 2.7488344e-05 1.1796694e-05 2.6910235e-05 0.0007715977 4.0450945e-05 5.3434404e-05
6.675411e-05 0.00054668664 0.00015464344 9.307846e-05 3.3482196e-05 4.2487114e-05 0.000244608 0.0001251006

exp_avg f4 [32, 16, 5, 5]
00000000: beaf 0439 606f 3a39 a5ec 8039 baff 8b39
00000010: 5f46 7c39 a08e 4638 0a9f fc38 dd9c 5739
00000020: 7c4a 5439 ea8e 0439 2086 e235 538e 8c38
00000030: 92cc 3e39 39aa 2839 db0c e538 ce49 b937
00000040: 2b76 4838 2ca0 f438 7713 0739 538c 9938
00000050: 008d df35 e081 3c38 8678 b838 2f07 9338
00000060: ab10 c638 7b2b 3239 bf99 8939 4c0d 9d39
00000070: e95b 9439 9839 5c39 9740 2e39 81cb 3f39
00000080: e866 7239 3767 5339 219c 0539 088d 3937
00000090: b77d b638 f813 3c39 c75a 5739 57d4 bf38
000000a0: a0e4 11b6 f707 ce38 0ec8 6439 3709 2939
000000b0: 9c61 6238 6648 5938 0ca4 af38 bde7 1d39
000000c0: 35e2 7638 7891 b737 d415 1b38 70c1 a838
000000d0: 4076 1239 65ec 2639 5866 3939 2c1c 9838
000000e0: 9a93 1139 44da 2d39 a84f 0039 1c52 fc38
000000f0: c559 da38 2fcb 0139 640a 9838 7779 c938
00000100: dc3f 8338 a005 ae37 1ddb e337 6abb 5a37
00000110: 8833 e838 57b0 e738 6959 8837 1ac5 8538
00000120: 6530 b938 8008 fb38 aa64 f838 5ffb c138
00000130: 0165 3039 6551 4a39 c5ed 5039 bd8e 1c39
00000140: 98a4 5638 7d43 b038 9d5f 1e39 b3c1 2c39
00000150: 91b5 d738 76ba e837 ced4 8438 ea80 f038
00000160: 966f 0539 04f3 9738 2ee0 eb37 ce73 7138
00000170: 3030 c638 fde3 ee38 c588 4638 8034 a935
00000180: 5d69 7938 9eea 9538 ec39 0138 d7b9 fa37
00000190: 1b9a ea38 b67c 4c39 9c48 6239 0077 4f39
000001a0: 6d4e 1539 44be a938 4ca3 f338 acd3 d038
000001b0: 3cad 0139 671f 4838 3026 2e38 e2ec 7338
000001c0: 9d68 1039 dc6e 0a39 ed02 5838 004c 3bb7
000001d0: 8e67 3138 e1e4 0f39 b516 c438 e9e6 8137
000001e0: e2e9 c737 045a 8538 b73e 9f38 1881 2e38
000001f0: bae1 4db8 6478 7c38 0298 6e37 72ec 1637
00000200: ce4a bc37 bccc 4837 91d7 e537 68bc 5db8
00000210: 8ffd d0b7 debb 1837 2873 6938 ae2b c6b7
00000220: 00d9 d837 f5a5 6338 9b0d a538 ba6f 6237
00000230: 6682 9637 c4ea 1238 cac3 61b7 cffe 20b8
00000240: cce5 2db8 55f2 ddb7 34b4 59b8 0bd6 55b8
00000250: c82a 26b8 0027 87b7 28cf 0a39 a19a 5c39
00000260: 0f5a 7b39 67e5 8739 ef3d 3f39 18d8 ad38
00000270: dcbb cd38 aedc 0a39 8d09 2f39 2ded ff38
00000280: f22f a137 fa5c bc38 122a 3339 e844 2c39
00000290: 4278 b138 a0a3 9a36 36f6 b138 ba46 f738
000002a0: 5ab4 9d38 8035 1237 6012 14b7 c1aa 8338
000002b0: 96a2 9a38 2427 5238 024b 6237 0050 a637
000002c0: 60a1 af38 48ad 0d39 d8cb 2d39 ca9e 1a39
000002d0: 82c3 8338 47fa d538 9623 ce38 c8b4 ce38
000002e0: 1a68 ba38 6ce7 3238 fe6f 3337 2416 2737
000002f0: 28bf 1e38 33c9 a138 ef39 cab7 8c2b 01b8
00000300: 1081 0038 20c8 b138 aef5 7938 fca0 0d37
00000310: 08d0 e537 07d8 9438 821f 6438 0c23 ea36
00000320: 7ecf 9c38 775d 0c39 6926 3439 10d4 3f39
00000330: e876 3639 fbf4 ab38 70a8 ba38 29e8 fb38
00000340: 38a4 1439 e23a d038 2e6b 09b8 509c d8b6
00000350: fc9d 4838 c071 2e39 f66e e138 7036 cdb6
00000360: b970 4e38 a6d1 f738 38cf 2b39 49d6 c138
00000370: 67ca 5f38 a034 ba37 78f1 7a37 516c 1c38
00000380: b207 0a38 65a4 8cb7 bf73 1938 f931 dc38
00000390: 1618 2b39 3a40 6239 0582 4c38 6a00 3b38
000003a0: 98ba dc38 22ec 3139 61d1 3f39 1b57 c838
000003b0: 14ee 0f38 bf0f 6338 ae5a f538 f7f7 2e39
000003c0: e8c7 db37 738c 04b8 4841 4937 8336 f138
000003d0: a4e3 2339 94cb 4db7 8097 84b6 5516 b338
000003e0: 5187 3639 fa69 db38 fd86 0639 6b66 0f39
000003f0: 1f42 3c39 462b 3c39 b084 1739 b23b 9338
0.0001265397 0.00017779833 0.00024590376 0.00026702677 0.00024058808 4.733971e-05 0.0001204592 0.00020562434
0.00020245643 0.0001264174 1.6877348e-06 6.70223e-05 0.0001819602 0.00016085141 0.000109219654 2.2088087e-05
4.779377e-05 0.00011664661 0.00012881854 7.321746e-05 1.6655831e-06 4.494365e-05 8.796253e-05 7.010844e-05
9.4444804e-05 0.000169916 0.00026245226 0.0002995528 0.00028297238 0.0002100229 0.00016617995 0.0001829099
0.00023117254 0.00020160979 0.00012742031 1.1059696e-05 8.7018525e-05 0.00017936516 0.00020537815 9.147141e-05
-2.173976e-06 9.824329e-05 0.000218183 0.00016120529 5.3973505e-05 5.1804258e-05 8.3752064e-05 0.00015059016
5.8861642e-05 2.188304e-05 3.697521e-05 8.046895e-05 0.00013967697 0.00015919057 0.00017681101 7.253172e-05
0.00013883263 0.00016579876 0.00012236706 0.000120315904 0.00010411771 0.0001237809 7.24986e-05 9.6070515e-05
6.2584615e-05 2.0745036e-05 2.7162541e-05 1.3037448e-05 0.000110722205 0.00011047784 1.6254098e-05 6.378647e-05
8.8305016e-05 0.00011970196 0.00011844312 9.249779e-05 0.00016822295 0.00019294543 0.00019925002 0.00014930493
5.1174866e-05 8.404905e-05 0.00015103673 0.00016475357 0.00010285818 2.7743383e-05 6.3338885e-05 0.00011468104
0.00012725437 7.245506e-05 2.8118575e-05 5.756673e-05 9.450351e-05 0.000113911905 4.7334255e-05 1.2606761e-06
5.9464353e-05 7.1485745e-05 3.080994e-05 2.988886e-05 0.00011186694 0.00019501414 0.00021580089 0.0001978539
0.00014238963 8.093988e-05 0.00011617559 9.95764e-05 0.00012366934 4.771296e-05 4.1520398e-05 5.815633e-05
0.00013771882 0.00013202004 5.1501138e-05 -1.1163764e-05 4.229653e-05 0.00013722807 9.350238e-05 1.5485524e-05
2.3831559e-05 6.358701e-05 7.5933924e-05 4.160506e-05 -4.9086033e-05 6.0193604e-05 1.42212975e-05 8.995748e-06
2.244618e-05 1.1968597e-05 2.7399308e-05 -5.2865973e-05 -2.4913605e-05 9.103647e-06 5.5658777e-05 -2.362378e-05
2.5850255e-05 5.4275577e-05 7.870347e-05 1.3496663e-05 1.7942115e-05 3.5027755e-05 -1.3456631e-05 -3.838428e-05
-4.146043e-05 -2.6458098e-05 -5.190466e-05 -5.09825e-05 -3.9617327e-05 -1.6111415e-05 0.00013237877 0.00021038439
0.00023970775 0.00025920125 0.00018238252 8.2895334e-05 9.810153e-05 0.00013242915 0.00016692858 0.00012203525
1.9215022e-05 8.981857e-05 0.00017086443 0.00016428868 8.4624175e-05 4.608606e-06 8.485878e-05 0.00011791052
7.5199365e-05 8.714735e-06 -8.825766e-06 6.278372e-05 7.373576e-05 5.0104354e-05 1.3488114e-05 1.9825995e-05
8.374709e-05 0.0001351136 0.00016574503 0.00014745738 6.282983e-05 0.00010203249 9.829474e-05 9.8565186e-05
8.8885616e-05 4.2654035e-05 1.0695307e-05 9.959131e-06 3.7848164e-05 7.7145545e-05 -2.4107254e-05 -3.0796553e-05
3.0637777e-05 8.477294e-05 5.9595033e-05 8.441737e-06 2.73958e-05 7.097428e-05 5.438878e-05 6.9778234e-06
7.477308e-05 0.00013386259 0.00017180447 0.00018294179 0.00017401169 8.1995466e-05 8.900545e-05 0.00012011856
0.00014175556 9.929181e-05 -3.2763164e-05 -6.455499e-06 4.783085e-05 0.00016636308 0.00010749504 -6.1158134e-06
4.921921e-05 0.00011816928 0.00016385026 9.242871e-05 5.3355845e-05 2.2197433e-05 1.49573825e-05 3.7294176e-05
3.290893e-05 -1.6765853e-05 3.658584e-05 0.000104997256 0.00016316804 0.00021576966 4.875848e-05 4.458466e-05
0.00010525173 0.00016968002 0.00018293179 9.552968e-05 3.4315584e-05 5.4135682e-05 0.00011699401 0.00016686307
2.6199923e-05 -3.1602056e-05 1.1995733e-05 0.00011501929 0.00015629694 -1.2266351e-05 -3.9515435e-06 8.539545e-05
0.00017407282 0.000104624734 0.00012829523 0.00013675696 0.00017953709 0.00017945198 0.00014449912 7.020625e-05

exp_avg_sq f4 [32, 16, 5, 5]
00000000: b6a8 b434 28f3 c034 b1c9 dd34 3630 1035
00000010: dc64 2a35 da2e 2435 0279 5235 bfde 6935
00000020: 4a30 8335 afe2 7935 3194 1335 3481 7335
00000030: f5ee 9d35 8775 cd35 9f7c d235 02d8 bc34
00000040: 42ca 2635 451a 8435 c58b cc35 53b3 df35
00000050: 4fbc ef34 5e5e 4535 1090 8c35 367c ad35
00000060: f392 ad35 3e35 3935 2937 5135 564e 6a35
00000070: 53d8 8a35 64a9 a135 234b a135 9182 c135
00000080: 11c9 ea35 8e8a 0b36 663c 0b36 335d a135
00000090: 0d80 f435 1767 1636 678c 2036 a7e6 1636
000000a0: 3d8a 7735 f618 b735 c774 f435 029e 1236
000000b0: 8f45 0f36 b3b0 8335 e29d ca35 6199 0b36
000000c0: 5bc3 1636 119c 0b36 6b7b 4c34 7b75 8034
000000d0: 8a84 a334 8f6e c434 201f fc34 b211 df34
000000e0: e8d6 fa34 19e3 e434 fc45 da34 d06f e734
000000f0: 4e6a 2735 4182 5f35 2244 8735 046f 9e35
00000100: dd1c 8735 3b1c e634 1025 2835 6b53 8135
00000110: 5e3b a135 32c1 8e35 b328 c034 1f37 f434
00000120: 1c45 1b35 7292 4335 e936 6635 0945 0935
00000130: 1fc8 1235 1e5a 1d35 b53e 3d35 9888 4a35
00000140: 905d 5935 9015 9535 7491 ad35 95eb c635
00000150: bf61 ba35 6663 2035 8645 8935 6d17 c635
00000160: 12b7 fd35 8b3d 0136 dceb 0535 4b5b 4535
00000170: 7f8a 8735 99cd b235 e025 c135 78c9 1d35
00000180: 3961 6935 6617 9335 1b79 9a35 c34c 9135
00000190: a0b2 8034 7077 9634 a66a a834 9213 c434
000001a0: a888 d134 79b8 7e34 2fd8 a334 513b d634
000001b0: dcc9 0835 8c78 0f35 8c52 8834 e4c4 cc34
000001c0: 226c 1335 1892 3535 5f89 1935 6570 8534
000001d0: e3cf e034 c0e7 2235 6c68 3c35 7b06 2835
000001e0: 5a7f 9a34 6683 fb34 ed6e 2a35 818d 4c35
000001f0: 0785 2b35 b022 7f33 d22b be33 773d 0534
00000200: 91ba 3134 ae1d 3034 12a6 8d33 049d eb33
00000210: 6b0c 4934 f6ef 6434 5cdc 3d34 bfaa 8b33
00000220: 3bb7 bd33 57da d033 93ba e533 96b0 1734
00000230: 85e3 6533 1459 b133 bc01 0634 6368 3434
00000240: 634d 3134 f0f4 a333 24ab 1f34 14e9 7a34
00000250: d86f 6134 33a8 0b34 e3e4 2a35 bc3e 3535
00000260: d016 3f35 790e 7535 e43d 8835 a097 3a35
00000270: efac 8235 e80f a835 f2f9 c735 2530 c135
00000280: d4cd 0835 b65b 4f35 3f00 9135 52a8 c035
00000290: 97f2 c235 ee38 f534 f4b7 4635 0eb3 9535
000002a0: 13e3 c935 a3bf c535 9ed3 1335 2b3e 7535
000002b0: 950f ac35 f9b1 c735 361f a735 d361 ae33
000002c0: 40f8 0134 a7a2 1a34 b0f4 3434 0145 5b34
000002d0: d489 3334 3f37 5234 2549 8034 8f61 a534
000002e0: 8865 d134 d4e8 8734 ae01 c034 bd2d 1b35
000002f0: 70f9 2435 2353 1135 a265 3434 fbe0 9234
00000300: c4ed d734 428c e334 5ccd eb34 a21f 0f34
00000310: 62d1 6234 e3f3 b334 e51c f934 e526 0735
00000320: 73e5 c634 97a1 cd34 bd8e e534 8042 0335
00000330: 2d12 2835 01a2 7d35 4a53 b535 1053 e435
00000340: 3374 fb35 4d2b e835 f552 3535 d52a aa35
00000350: 0786 eb35 4d34 fb35 6e98 e935 a050 b234
00000360: 9b63 1035 c1c2 5735 4e49 9e35 6a8d c935
00000370: a997 c734 e4e3 2235 3c38 7f35 a110 a935
00000380: bde3 bc35 b1f4 d833 7c04 4e34 ad4d 6334
00000390: 1115 8634 81af c134 085a ea33 1862 6834
000003a0: d865 8634 48a0 b734 c698 1335 31cf 0334
000003b0: 575c 6034 6d34 8534 a4c0 da34 8e7a 6835
000003c0: e32d 0734 89fa 3834 41fc 8e34 515e e334
000003d0: 8b18 8935 0323 0b34 8404 5234 26a7 aa34
000003e0: aa21 0135 9161 7f35 7822 0534 1467 e333
000003f0: 5b0e f133 5ef1 0634 6e01 0234 c7ba 8d34
3.3650366e-07 3.5939706e-07 4.1311208e-07 5.3714336e-07 6.3476705e-07 6.116294e-07 7.8407186e-07 8.71234e-07
9.774315e-07 9.3089596e-07 5.4977414e-07 9.071257e-07 1.1766957e-06 1.5307895e-06 1.5682489e-06 3.5174895e-07
6.213414e-07 9.842412e-07 1.5239863e-06 1.6666985e-06 4.4654232e-07 7.352554e-07 1.047274e-06 1.2925655e-06
1.2932272e-06 6.899535e-07 7.7938836e-07 8.7285787e-07 1.034476e-06 1.2044734e-06 1.2017302e-06 1.441762e-06
1.7492877e-06 2.0793264e-06 2.074777e-06 1.2022559e-06 1.8216684e-06 2.2411748e-06 2.3923583e-06 2.2486e-06
9.2215834e-07 1.3641827e-06 1.8213403e-06 2.1847668e-06 2.134915e-06 9.811687e-07 1.5096123e-06 2.0801892e-06
2.2465454e-06 2.0803457e-06 1.904388e-07 2.3927336e-07 3.045755e-07 3.6588287e-07 4.6961304e-07 4.1549862e-07
4.6722494e-07 4.2633545e-07 4.0656585e-07 4.3108457e-07 6.236704e-07 8.326352e-07 1.0078113e-06 1.1804227e-06
1.0066684e-06 4.286138e-07 6.263881e-07 9.635527e-07 1.2012713e-06 1.0636052e-06 3.57924e-07 4.5488648e-07
5.7842567e-07 7.2856267e-07 8.576158e-07 5.1136936e-07 5.4680453e-07 5.8618195e-07 7.049924e-07 7.5449634e-07
8.097495e-07 1.1107641e-06 1.2931837e-06 1.4820713e-06 1.3886528e-06 5.974929e-07 1.0227529e-06 1.4758967e-06
1.8903249e-06 1.925832e-06 4.988958e-07 7.352107e-07 1.0098591e-06 1.332187e-06 1.4390644e-06 5.8780233e-07
8.694074e-07 1.0959163e-06 1.150914e-06 1.0825682e-06 2.3971825e-07 2.802658e-07 3.1370035e-07 3.6522084e-07
3.9028714e-07 2.3722704e-07 3.051841e-07 3.9903765e-07 5.095769e-07 5.344707e-07 2.5392035e-07 3.8141218e-07
5.491912e-07 6.764035e-07 5.719684e-07 2.4854958e-07 4.187451e-07 6.0686943e-07 7.018741e-07 6.259431e-07
2.8777396e-07 4.6847998e-07 6.3491353e-07 7.620184e-07 6.3896044e-07 5.9403362e-08 8.855535e-08 1.2408951e-07
1.6552282e-07 1.6402075e-07 6.596032e-08 1.0971601e-07 1.8724101e-07 2.1321452e-07 1.7682163e-07 6.5037504e-08
8.834328e-08 9.7254706e-08 1.0697581e-07 1.4127212e-07 5.3525145e-08 8.258408e-08 1.2480353e-07 1.6801782e-07
1.6512563e-07 7.634833e-08 1.487029e-07 2.3367858e-07 2.0995446e-07 1.3006574e-07 6.366301e-07 6.7519045e-07
7.118624e-07 9.129067e-07 1.0150802e-06 6.9511043e-07 9.736085e-07 1.2521605e-06 1.4899399e-06 1.4393632e-06
5.096347e-07 7.7246966e-07 1.0803413e-06 1.4354102e-06 1.4524729e-06 4.5676228e-07 7.4028435e-07 1.1153477e-06
1.5041754e-06 1.4733417e-06 5.506971e-07 9.136008e-07 1.2819534e-06 1.4878452e-06 1.2451553e-06 8.1203005e-08
1.2104374e-07 1.440154e-07 1.6852823e-07 2.0421068e-07 1.6720816e-07 1.9577872e-07 2.3895078e-07 3.0804628e-07
3.9003157e-07 2.5315114e-07 3.576401e-07 5.780856e-07 6.145774e-07 5.413769e-07 1.680078e-07 2.7358314e-07
4.0219868e-07 4.2384096e-07 4.392158e-07 1.3329421e-07 2.1124063e-07 3.35188e-07 4.6400888e-07 5.034802e-07
3.704732e-07 3.8301798e-07 4.275843e-07 4.8898073e-07 6.2611326e-07 9.448559e-07 1.3509791e-06 1.7011498e-06
1.8734776e-06 1.7297949e-06 6.754847e-07 1.2678453e-06 1.7547871e-06 1.8716179e-06 1.7404216e-06 3.3213746e-07
5.3789125e-07 8.0377146e-07 1.1793252e-06 1.5016824e-06 3.7176986e-07 6.068133e-07 9.5076734e-07 1.2596321e-06
1.4073372e-06 1.0102793e-07 1.9186876e-07 2.1169281e-07 2.4974773e-07 3.6076747e-07 1.0912851e-07 2.164237e-07
2.5033546e-07 3.4203026e-07 5.498408e-07 1.2275702e-07 2.0895219e-07 2.4811325e-07 4.074583e-07 8.6605075e-07
1.2589548e-07 1.722748e-07 2.66331e-07 4.235067e-07 1.0214438e-06 1.2958121e-07 1.9559417e-07 3.1786584e-07
4.810523e-07 9.513688e-07 1.239913e-07 1.0589261e-07 1.1225048e-07 1.2567531e-07 1.2107714e-07 2.6399195e-07

exp_avg f4 [32]
00000000: 594f 8039 5431 3c36 9e6b a239 c4d7 3bb8
00000010: ac39 2f38 1fb4 eab8 766c b638 8673 4fb9
00000020: 416b a939 0c02 4138 14c8 91b8 0f2a 9339
00000030: dc6b 44b8 f8ee a6b8 ea4a 93b7 260f 0db9
00000040: 6c5c e638 430d 0039 e2b7 f038 70ff b2b8
00000050: 9097 47b9 0812 b1b9 e0c0 e837 3aba d238
00000060: 49c0 7039 d553 62b9 bd95 f4b8 6cd7 83b9
00000070: 191a 31b9 adad 83b9 9984 9eb8 0cc0 cdb8
0.0002447318 2.8042896e-06 0.0003097923 -4.478522e-05 4.1776962e-05 -0.0001119154 8.698639e-05 -0.00019784094
0.00032314102 4.6016692e-05 -6.951406e-05 0.0002806936 -4.6830493e-05 -7.960008e-05 -1.755865e-05 -0.00013452451
0.000109844696 0.00012211972 0.00011478343 -8.53528e-05 -0.0001903458 -0.00033773505 2.774637e-05 0.00010048268
0.00022959815 -0.0002158427 -0.000116627176 -0.0002514677 -0.00016889758 -0.00025115666 -7.558725e-05 -9.810933e-05

exp_avg_sq f4 [32]
00000000: c861 7936 63bd 5d36 fe0a b636 d811 2c37
00000010: ce51 8636 561e cf36 d3ce 5736 a9aa a435
00000020: 8e04 4c36 41ac fb35 34a2 6a36 c6f0 0737
00000030: a0b9 d535 abfe 2037 75fd aa35 c289 8136
00000040: 29ef 8536 e55f 7735 d278 5b36 8f57 0436
00000050: 3c3f 9136 068c c436 70e1 7736 f6eb 3d36
00000060: bab6 1c36 0099 5835 0c05 b935 b35b 3137
00000070: 1e74 1736 ab33 ab36 fb42 dd36 3354 6536
3.7160808e-06 3.3041804e-06 5.4253023e-06 1.02561535e-05 4.0030345e-06 6.1726123e-06 3.2157884e-06 1.2268621e-06
3.040102e-06 1.875109e-06 3.4963132e-06 8.1026865e-06 1.5923761e-06 9.596038e-06 1.2739753e-06 3.8605367e-06
3.991551e-06 9.2154215e-07 3.270387e-06 1.9720499e-06 4.328698e-06 5.857556e-06 3.693709e-06 2.8300542e-06
2.3352172e-06 8.0688915e-07 1.3785043e-06 1.05713725e-05 2.2568343e-06 5.102212e-06 6.594111e-06 3.417267e-06
