models/weights/LinearTransparent.pt (torch, 1063 bytes, 2 tensors)

fc1.weight f4 [2, 8]
0.14450577 -0.07378847 0.002414889 0.017538063 0.0013090827 -0.03717487 0.02366962 -0.0012985008
-0.07352719 -0.052785773 0.00016632589 0.06645523 0.0014194697 -0.050656177 -0.010622159 -0.10469949
00000000: 52f9 133e 691e 97bd 1d43 1e3b fcab 8f3c
00000010: 8795 ab3a ad44 18bd cae6 c13c 7532 aaba
00000020: 6c95 96bd e535 58bd c467 2e39 ae19 883d
00000030: 800d ba3a da7c 4fbd 9008 2ebc b06c d6bd

fc1.bias f4 [2]
-0.06990104 0.32442123
00000000: 4728 8fbd 8a1a a63e
