models/weights/LinearTransparent.pt (torch, 1063 bytes, 2 tensors)

fc1.weight f4 [2, 8]
000000 1e 95 96 bc 98 c6 ee 3c d0 5b 75 3e 5d 74 2f be
       -0.018381651 0.029147431 0.23960805 -0.17134233
000010 ae f7 1a 3e fb 0c 0e be fa ca da 3d c8 80 5f be
       0.15133545 -0.13872139 0.10683246 -0.2182647
000020 64 24 46 be 99 6e 3c bd b2 a8 5d 3e fa 1f 74 be
       -0.1934982 -0.04600391 0.21646383 -0.23840323
000030 9e 80 93 bc e3 da 3b 3d ac d1 89 3e 72 77 d8 3d
       -0.018005665 0.045863044 0.2691778 0.105696574

fc1.bias f4 [2]
000000 94 ee a6 be e3 15 24 be
       -0.32603896 -0.16023974
