models/adult_nn_2.pt (torch, 1063 bytes, 2 tensors)

fc1.weight f4 [2, 8]
000000 34 be 8a 3e a7 68 8a be 3a c2 3e 3b 7a 77 0b 3e
       0.27098238 -0.27032968 0.0029107467 0.13619795
000010 d6 4e 80 3b 42 d0 3d be c3 58 cb 3c d1 db 32 be
       0.003915648 -0.18536475 0.024822598 -0.17466666
000020 70 b3 d5 be ff 0a c6 bc b4 8f 1d ba c8 35 1e 3e
       -0.41738462 -0.024175165 -0.0006010488 0.15450203
000030 5c ef 6a 3b 01 50 94 bd ff 5c 65 bd d0 cc 82 be
       0.0035848236 -0.07241822 -0.05599689 -0.25546885

fc1.bias f4 [2]
000000 a8 f8 77 3e 9a 3e 69 bc
       0.24215949 -0.014236117
