models/adult_latent_xgb_2_0.pt (torch, 1063 bytes, 2 tensors)

fc1.weight f4 [2, 8]
000000 64 ba 9d 3e 18 50 28 be 41 26 9e 3a 49 a4 ab 3d
       0.30806267 -0.16436803 0.0012065844 0.08380944
000010 5e f1 c4 3a a6 48 70 be b8 2b f1 3d c0 31 40 3d
       0.0015025546 -0.23465213 0.11775917 0.046922445
000020 a3 8e 94 be 06 8d ab bd 31 88 df b9 3c 52 76 3e
       -0.29015073 -0.083765075 -0.00042635345 0.24054807
000030 79 85 d8 3b ad f9 2a be 30 c5 46 bd 4e fa 75 bc
       0.006607708 -0.16696806 -0.048527896 -0.015013291

fc1.bias f4 [2]
000000 6b e4 66 3e 09 52 d9 bb
       0.22548072 -0.006632094
