models/adult_latent_xgb_5_2.pt (torch, 1191 bytes, 2 tensors)

fc1.weight f4 [5, 8]
0	0x3e878d38	0.2647493
1	0xbe31bdae	-0.17357513
2	0x3c09ecb7	0.008418254
3	0xbdf176d9	-0.117902465
4	0xbbd39948	-0.0064574815
5	0xbe8fb6b8	-0.2806909
6	0xbc01c590	-0.007920638
7	0xbfbf3ab0	-1.4939785
8	0x3ec043ad	0.37551633
9	0xbd47a413	-0.048740458
10	0x3b186e4d	0.0023259104
11	0x3eac6db0	0.33677435
12	0x3c255f4f	0.010093524
13	0x3e193e87	0.14965259
14	0xbd1de128	-0.038544804
15	0xbce5b1f3	-0.028038954
16	0xbb9b9158	-0.004747551
17	0xbe59e939	-0.21280374
18	0xbbc1421e	-0.0058977744
19	0x3df383c5	0.118903674
20	0x3c93c6c5	0.018039117
21	0xbe93ee76	-0.2889287
22	0xbdb243c0	-0.087043285
23	0x3fe84180	1.8144989
24	0xbe3e99a8	-0.18613303
25	0x3e44c78a	0.19216743
26	0xbb07900e	-0.0020685229
27	0x3e9bdbeb	0.30441222
28	0x3b515f97	0.0031947845
29	0xbe61b42f	-0.22041391
30	0x3e5b3c50	0.21409726
31	0xbf5c202b	-0.85986584
32	0x3e8c2075	0.27368513
33	0x3eaa3368	0.33242345
34	0xba925a03	-0.0011165742
35	0xbe00b733	-0.12569885
36	0xbca5845e	-0.02020472
37	0xbd1f0de7	-0.038831618
38	0x3e9df86f	0.30853602
39	0x3f8f3e60	1.119091

fc1.bias f4 [5]
0	0xbe055d89	-0.13023962
1	0xbe900fac	-0.28136957
2	0xbdb37dee	-0.087642536
3	0xbea64541	-0.32474712
4	0x3e519fe5	0.20471151
