models/adult_latent_xgb_2_13.pt (torch, 1063 bytes, 2 tensors)

fc1.weight f4 [2, 8]
0.0821016 0.12620875 -0.0051224832 -0.21183896 -0.0072239093 0.23893534 -0.00076638284 1.4377565
-0.017101163 -0.042134784 -0.007825455 0.14550942 0.011561334 -0.32349864 0.114391185 1.29875
00000000: e224 a83d de3c 013e 81da a7bb 50ec 58be
00000010: 8bb6 ecbb 77ab 743e 15e7 48ba 6808 b83f
00000020: bd17 8cbc 8695 2cbd 5636 00bc 6c00 153e
00000030: c06b 3d3c 9da1 a5be ed45 ea3d 713d a63f

fc1.bias f4 [2]
-0.10949631 0.31025428
00000000: 9a3f e0bd a6d9 9e3e
