models/adult_latent_xgb_5_25.pt (torch, 1191 bytes, 2 tensors)

fc1.weight f4 [5, 8]
-0.105502985 -0.13555951 -0.00044136538 -0.31550682 -0.00033840077 0.27147526 -0.22344148 1.2018597
-0.066206336 0.4251424 -0.004710482 -0.10596395 -0.019823762 0.10214747 0.33089852 1.3258821
-0.035014898 -0.15713118 -0.001490516 -0.17507532 0.0008528876 -0.38212258 0.044829406 1.4394448
0.27887145 0.026780274 0.010189431 -0.3279073 -0.022136103 6.908343e-05 0.11586963 -1.6907599
0.4916259 0.0010239836 7.169413e-06 0.10956176 0.0006857275 0.074270666 -0.022475224 1.6416588
00000000: f311 d8bd 1dd0 0abe 0f67 e7b9 1c8a a1be
00000010: 626b b1b9 cefe 8a3e d8cd 64be 8ad6 993f
00000020: 3097 87bd 44ac d93e 635a 9abb a103 d9bd
00000030: 7165 a2bc b132 d13d 886b a93e 81b6 a93f
00000040: c86b 0fbd ffe6 20be 6b5d c3ba f246 33be
00000050: 5194 5f3a 92a5 c3be 0a9f 373d ba3f b83f
00000060: 3dc8 8e3e 4e62 db3c 92f1 263c 77e3 a7be
00000070: c656 b5bc e2e0 9038 0e4d ed3d d26a d8bf
00000080: 64b6 fb3e 3037 863a ca90 f036 eb61 e03d
00000090: 65c2 333a 381b 983d f61d b8bc e021 d23f

fc1.bias f4 [5]
0.14341621 0.18066368 0.3466076 0.19687155 0.23407456
00000000: b3db 123e e6ff 383e 8d76 b13e b298 493e
00000010: 3eb1 6f3e
