models/adult_latent_xgb_2_05.pt (torch, 1063 bytes, 2 tensors)

fc1.weight f4 [2, 8]
000000 89 46 ab 3d ed ba ca 3d d2 26 14 bc 6d c3 f4 bd
       0.08363063 0.098989345 -0.009042459 -0.11951337
000010 1d 18 0b 3b 30 8f 0f bc 14 8b cb 3d 88 1b 7b 3f
       0.002122409 -0.008762166 0.099386364 0.98088884
000020 b2 99 66 bd 64 75 b1 bd 64 a3 85 bb d1 c2 47 3e
       -0.05629892 -0.086649686 -0.0040783156 0.1950791
000030 51 2a 50 3c 42 a0 be be fb cf f2 3d 61 9c 27 3e
       0.0127054015 -0.37231642 0.118560754 0.16368248

fc1.bias f4 [2]
000000 57 a6 8e be 14 fb 03 3e
       -0.27861282 0.12888747
