models/adult_latent_xgb_5_3.pt (torch, 1191 bytes, 2 tensors)

fc1.weight f4 [5, 8]
0.34101853 -0.23199356 0.010012236 -0.15501758 -0.0028157367 -0.21227026 -0.1001289 -1.7457391
0.15568128 0.1638607 -0.0047064773 0.06690828 -0.006001273 -0.32746363 0.21157086 2.1537147
-0.09181035 -0.4280415 -0.002646857 0.17686026 0.028854089 -0.07953705 -0.27607673 1.6127841
0.40377098 0.02605174 0.0013016842 -0.05482832 -0.005423625 0.31274617 -0.010326543 1.7395573
0.17476922 0.016341051 -0.0004970757 0.4624779 0.011629218 0.015538645 0.09625525 -1.3168876
00000000: fb99 ae3e b88f 6dbe 5d0a 243c eebc 1ebe
00000010: 3988 38bb 605d 59be 6110 cdbd 6174 dfbf
00000020: ea6a 1f3e 19cb 273e cb38 9abb 3507 893d
00000030: 54a6 c4bb 50a9 a7be 08a6 583e 76d6 0940
00000040: 1107 bcbd 4128 dbbe e476 2dbb db1a 353e
00000050: 695f ec3c 52e4 a2bd ee59 8dbe b66f ce3f
00000060: 12bb ce3e 756a d53c 469d aa3a a993 60bd
00000070: aab8 b1bb 4420 a03e a930 29bc d0a9 de3f
00000080: b4f6 323e abdd 853c 304e 02ba e7c9 ec3e
00000090: 7a88 3e3c cd95 7e3c 7921 c53d c68f a8bf

fc1.bias f4 [5]
-0.12331732 0.03766607 -0.24723825 0.21399802 -0.25134847
00000000: cb8d fcbd bd47 1a3d 062c 7dbe 4c22 5b3e
00000010: bfb0 80be
