models/adult_cat_red_2.pt (torch, 1063 bytes, 2 tensors)

fc1.weight f4 [2, 8]
00000000: 2dc4 cd3c 1acd 123d f636 93bb 5d8b 4cbe
00000010: 0c83 6cbd 6e56 823e 5ecd 533d 0a36 b73b
00000020: 0926 50bd 4b31 64bc 7616 a1bb 2138 7f3e
00000030: d011 53bd 76b9 253e 5037 583e 7e39 f43b
0.025117958 0.03584013 -0.004492636 -0.19975038 -0.057742164 0.25456566 0.051709525 0.0055911588
-0.050817523 -0.013927768 -0.0049160076 0.24923755 -0.05153066 0.16184029 0.2111485 0.0074531427

fc1.bias f4 [2]
00000000: dd9b 703e ceee aebe
0.23496957 -0.3416657
