models/adult_nn_4.pt (torch, 1127 bytes, 2 tensors)

fc1.weight f4 [4, 8]
0.10843906 0.19589317 0.0028727716 0.30012655 -0.0010914502 -0.09486879 -0.0057593524 -0.19717881
-0.16880584 -0.32570127 0.004216963 0.048594363 0.0007869808 0.036507737 -0.17110337 -0.3988242
0.024237065 -0.23448259 -0.0046573197 0.00053452636 0.010501765 -0.30651864 0.14752601 0.061523944
-0.48330608 0.16508983 -0.0059805573 0.030971743 0.0034359347 -0.050235458 0.078927614 0.024072781
00000000: 4c15 de3d 3898 483e 1c45 3c3b 30aa 993e
00000010: fe0e 8fba 914a c2bd f3b8 bcbb 3ee9 49be
00000020: 70db 2cbe 51c2 a6be 732e 8a3b e20a 473d
00000030: 634d 4e3a 2389 153d b935 2fbe af32 ccbe
00000040: cf8c c63c 341c 70be 6e9c 98bb 751f 0c3a
00000050: 980f 2c3c 03f0 9cbe 0f11 173e 8800 7c3d
00000060: e573 f7be 4f0d 293e 8df8 c3bb 74b8 fd3c
00000070: 6b2d 613b b2c3 4dbd cda4 a13d 4834 c53c

fc1.bias f4 [4]
0.25464717 0.30031225 -0.11883607 -0.08275363
00000000: 1d61 823e 87c2 993e 5360 f3bd bc7a a9bd
