models/adult_latent_xgb_2_11.pt (torch, 1063 bytes, 2 tensors)

fc1.weight f4 [2, 8]
0	0x3ea73e98	0.32664943
1	0xbe809502	-0.25113684
2	0x3bb1b4bc	0.0054231565
3	0x3dfb990d	0.122850515
4	0x3b8aa631	0.0042312373
5	0xbe662f12	-0.22478893
6	0x3e00da28	0.1258322
7	0xbf052a70	-0.5201788
8	0xbe7910a5	-0.24322756
9	0x3c01f5ea	0.007932166
10	0x3b921442	0.0044579813
11	0x3dc64868	0.09681779
12	0x3aad3f19	0.0013217657
13	0xbba52ffc	-0.0050411206
14	0xbdcaf378	-0.09909719
15	0xbfc43af1	-1.5330487

fc1.bias f4 [2]
0	0x3de060e7	0.10955983
1	0x3e66e270	0.22547317
