models/compas_latent_xgb_10_15.pt (torch, 2407 bytes, 2 tensors)

fc1.weight f4 [10, 34]
-0.04024635 -0.064471744 0.19301833 -0.028911658 -0.031606358 -0.04961727 -0.09872927 -0.12116184
-0.10599278 -0.12642318 -0.0040704547 0.13300562 0.12910117 0.17461358 0.06863402 0.023386769
0.11760878 0.11238614 0.0440954 0.14248899 0.031711698 -0.06411649 -0.12741 0.1289096
-0.06626999 0.0922259 -0.03827819 0.046823073 0.061805166 -0.049025755 0.19231941 -0.006434688
0.068829715 0.7541206 0.1481965 -0.02801197 0.2292682 0.08948479 0.018573798 0.07895509
0.12381921 0.03405565 0.0262461 -0.22669747 0.058305968 -0.05599263 -0.19370016 -0.01615748
0.0013384531 0.10524335 0.061637696 0.0964783 0.091702074 0.066671476 0.09553336 0.06549024
0.07995306 -0.061500333 -0.099023096 -0.12168806 -0.07520078 0.054412328 -0.117871344 0.19585995
0.0752354 -0.0011241783 -0.030346598 0.42407393 0.17603908 0.021387747 -0.033932246 -0.0017499841
-0.119863845 -0.16524982 -0.0731979 0.21514988 -0.16992788 -0.013542587 0.116225705 -0.06684109
0.19100587 0.1365046 0.05437997 -0.07113466 -0.03306456 -0.0393033 0.04897963 -0.030892229
-0.00789241 0.115679435 0.07376932 0.029617757 0.041420132 0.0113311345 0.07056992 0.1281517
-0.040920738 -0.067250915 0.11500815 0.047734126 -0.0104236705 -0.7746269 -0.047930032 0.019003121
0.026860064 -0.055324323 -0.0855215 -0.02454478 0.16886838 0.15283558 0.033673547 0.121601425
-0.14162393 0.12960003 -0.14737576 0.17524074 0.0023559881 -0.0028401515 -0.07859412 -0.12413733
-0.045574214 0.053215988 -0.055076227 -0.036601253 0.00022464793 0.0048112557 -0.048655458 -0.04414269
0.16027135 0.11738051 0.11137315 0.023220666 0.08200917 0.05644669 -0.022677746 0.569811
0.1317523 0.07694122 -0.09338746 0.010026449 -0.113799185 0.14541112 -0.005965098 0.04277668
-0.27709204 -0.1408349 0.20323306 0.13729146 -0.054970756 -0.014682899 -0.03528673 0.111164525
0.09808036 0.038848218 0.05714919 0.11930837 0.046290375 -0.030062044 -0.006695133 0.07665498
0.1353368 0.13174255 0.003270925 -0.05666786 0.02925981 -0.092727885 -0.03328714 -0.012295486
-0.0003248759 0.5743612 -0.02249772 -0.05692179 0.107196674 0.13474654 0.1132356 -0.0461682
-0.036592048 0.08793353 -0.024503266 0.14520505 0.19447987 -0.015415584 0.0107748285 -0.12924595
-0.013134892 0.040837348 -0.035608925 -0.08090588 0.06701991 -0.04376375 0.0426217 0.08117541
-0.0517596 -0.044481613 -0.019337486 0.06805703 -0.009240579 0.032393504 -0.041505393 -0.12951529
-0.059794407 -0.06559186 -0.057022773 0.5914577 0.13392572 0.08031731 0.17557074 -0.14528474
-0.14748114 0.08926118 -0.20339718 0.05388973 -0.07560452 0.14657058 -0.005726872 -0.10268662
-0.20323323 -0.0069507957 -0.024338666 -0.15044846 -0.06527962 -0.010859738 -0.010740946 -0.08039986
-0.08436073 -0.011623399 0.0117831165 -0.15056452 -0.13205801 -0.039160825 0.082672276 -0.03273001
0.004662362 0.09286074 0.0016463888 0.023117213 0.021538198 0.4168557 -0.05715159 -0.14424954
0.044925768 -0.18913385 -0.1315582 -0.017479971 -0.06291626 -0.0041805883 -0.12253845 -0.101195455
-0.056913044 -0.009696062 -0.13617124 0.06713184 -0.01642214 -0.054400425 -0.024563283 -0.07942175
00000000: 5bd9 24bd c309 84bd 99a6 453e 24d8 ecbc
00000010: ab75 01bd 7a3b 4bbd 9232 cabd b323 f8bd
00000020: be12 d9bd 1475 01be 7361 85bb a032 083e
00000030: 1933 043e e7cd 323e fe8f 8c3d 9c95 bf3c
00000040: dfdc f03d b42a e63d 619d 343d a2e8 113e
00000050: 20e4 013d 824f 83bd c477 02be e100 043e
00000060: 8fb8 87bd efe0 bc3d 97c9 1cbd 8dc9 3f3d
00000070: 6a27 7d3d 3bcf 48bd 61ef 443e 13da d2bb
00000080: 98f6 8c3d 0c0e 413f d3c0 173e 5c79 e5bc
00000090: 48c5 6a3e cd43 b73d 1428 983c 35b3 a13d
000000a0: ed94 fd3d f07d 0b3d 1002 d73c 6223 68be
000000b0: 3dd2 6e3d 8758 65bd 5659 46be b15c 84bc
000000c0: 096f af3a d389 d73d cf77 7c3d 6a96 c53d
000000d0: 4cce bb3d 0e8b 883d ffa6 c33d bf1f 863d
000000e0: 6ebe a33d c6e7 7bbd 9fcc cabd 9737 f9bd
000000f0: de02 9abd 76df 5e3d 8866 f1bd 838f 483e
00000100: 0415 9a3d 2a59 93ba 6e99 f8bc 3820 d93e
00000110: 9743 343e 5b35 af3c 8afc 0abd b95f e5ba
00000120: 2d7b f5bd 4037 29be c8e8 95bd 4050 5c3e
00000130: 9301 2ebe bae1 5dbc be07 ee3d fbe3 88bd
00000140: 0b97 433e ddc7 0b3e 88bd 5e3d 0caf 91bd
00000150: b46e 07bd 7ffc 20bd dd9e 483d b311 fdbc
00000160: 2b4f 01bc 57e9 ec3d 5f14 973d f0a0 f23c
00000170: 28a8 293d 39a6 393c f686 903d 333a 033e
00000180: 819c 27bd d9ba 89bd 6589 eb3d dc84 433d
00000190: 0bc8 2abc f34d 46bf 4852 44bd 6fac 9b3c
000001a0: a309 dc3c c29b 62bd e525 afbd 2212 c9bc
000001b0: d5eb 2c3e ee80 1c3e 46ed 093d 2b0a f93d
000001c0: dd05 11be dfb5 043e ace9 16be 4f72 333e
000001d0: ec66 1a3b d621 3abb f4f5 a0bd b63b febd
000001e0: 07ac 3abd 02f9 593d 9c97 61bd 32eb 15bd
000001f0: 788f 6b39 bda7 9d3b f24a 47bd f7ce 34bd
00000200: 2c1e 243e 3165 f03d 9b17 e43d 4439 be3c
00000210: 6cf4 a73d a534 673d aec6 b9bc 22df 113f
00000220: 13ea 063e 5c93 9d3d ed41 bfbd fa45 243c
00000230: 8c0f e9bd a7e6 143e de76 c3bb 9a36 2f3d
00000240: 02df 8dbe 0637 10be 541c 503e 2296 0c3e
00000250: 0429 61bd 8b90 70bc d188 10bd 3aaa e33d
00000260: 5bde c83d 4f1f 1f3d 4515 6a3d f257 f43d
00000270: fa9a 3d3d ad44 f6bc d962 dbbb 49fd 9c3d
00000280: bb95 0a3e 85e7 063e 045d 563b 8f1c 68bd
00000290: 45b2 ef3c 1ee8 bdbd 1958 08bd 0273 49bc
000002a0: 1b54 aab9 5609 133f 234d b8bc d326 69bd
000002b0: ee89 db3d fffa 093e 11e8 e73d de1a 3dbd
000002c0: 8be1 15bd 7f16 b43d 13bb c8bc a2b0 143e
000002d0: bb25 473e a591 7cbc e888 303c 0d59 04be
000002e0: bb33 57bc 1045 273d aada 11bd fbb1 a5bd
000002f0: bc41 893d 9e41 33bd 1794 2e3d 4b3f a63d
00000300: e001 54bd 5a32 36bd a669 9ebc 7c61 8b3d
00000310: cc65 17bc 0daf 043d 8f01 2abd a89f 04be
00000320: fbea 74bd 0655 86bd b690 69bd c669 173f
00000330: d323 093e 677d a43d d1c8 333e 86c5 14be
00000340: 4c05 17be 91ce b63d 5a47 50be 7abb 5c3d
00000350: 8bd6 9abd 9916 163e 7ca8 bbbb 5d4d d2bd
00000360: 5f1c 50be 80c3 e3bb e261 c7bc 290f 1abe
00000370: 52b1 85bd 0bed 31bc cbfa 2fbc afa8 a4bd
00000380: 52c5 acbd 1270 3ebc f90d 413c 962d 1abe
00000390: 373a 07be 1a67 20bd 1550 a93d e70f 06bd
000003a0: bac6 983b c62d be3d a4cb d73a 4f60 bd3c
000003b0: e070 b03c 1c6e d53e c917 6abd 27b6 13be
000003c0: 1504 383d 4eac 41be 31b7 06be 2832 8fbc
000003d0: 3dda 80bd 51fd 88bb 70f5 fabd 903f cfbd
000003e0: a71d 69bd 3bdc 1ebc 7970 0bbe 6b7c 893d
000003f0: b987 86bc fbd2 5ebd f038 c9bc dfa7 a2bd

fc1.bias f4 [10]
0.1291668 0.003302207 -0.14981227 0.04898052 0.05023362 0.10477568 -0.09841541 -0.0147569105
-0.12159865 0.1266987
00000000: 4d44 043e d769 583b 6368 19be cc9f 483d
00000010: c5c1 4d3d a294 d63d 058e c9bd f8c6 71bc
00000020: b708 f9bd 4ebd 013e
