models/compas_latent_xgb_20_15.pt (torch, 3815 bytes, 2 tensors)

fc1.weight f4 [20, 34]
0	0x3df42622	0.11921336
1	0x3c59d5a1	0.013295562
2	0xbb5c28b0	-0.0033593588
3	0xbde0dc61	-0.10979534
4	0xbd6ff6cb	-0.05858497
5	0xbd2a0103	-0.04150487
6	0x3d7db8d0	0.06194383
7	0xbdf3fd94	-0.119136006
8	0xbe06b954	-0.13156635
9	0xbd5efc51	-0.054439846
10	0xbe446603	-0.1917954
11	0x3cc833c3	0.024438744
12	0xbc584463	-0.013199898
13	0xbc773c65	-0.015090083
14	0x3d670303	0.056399357
15	0x3d4ed361	0.050494555
16	0xbd0094d6	-0.03139194
17	0x3db4c3c3	0.08826401
18	0x3c597224	0.013271842
19	0xbce4657f	-0.027880428
20	0x3ce7897c	0.0282638
21	0x3ca561ab	0.020188173
22	0x3d635a38	0.05550596
23	0xbe078638	-0.13234794
24	0x3db5e2e7	0.08881169
25	0xbd8ca1ce	-0.06866799
26	0x3ddcef04	0.10787776
27	0x3ddaf837	0.106918745
28	0x3dcee0e1	0.10101486
29	0x3ba7570f	0.0051068137
30	0x3c3711e6	0.011173701
31	0xbd8e1aeb	-0.06938728
32	0xbd819d84	-0.06328872
33	0xbd098028	-0.033569485
34	0xbd0b2692	-0.03397233
35	0x3dd3dd84	0.10344985
36	0xbe14f6aa	-0.1454722
37	0x3d60c6ad	0.054876972
38	0xbd6584cc	-0.056034848
39	0xbdf08b72	-0.11745347
40	0x3d33b104	0.043869987
41	0xbdfab9a7	-0.122424416
42	0xbe11e1d3	-0.14246301
43	0xbca2f433	-0.019891834
44	0x3e0219da	0.12705174
45	0xbccac48b	-0.024751922
46	0xbe42d7f1	-0.19027688
47	0x3db9405b	0.09045478
48	0xbd2f9e98	-0.042875856
49	0x3dc3a9ad	0.095538475
50	0x3d552fee	0.052047662
51	0xbcaefac3	-0.021359807
52	0x3cf8978b	0.030345699
53	0x3dfaacb9	0.122399755
54	0x3dccdec8	0.1000343
55	0xbd1c2c97	-0.03812846
56	0x3d88bbba	0.06676431
57	0x3c793680	0.015210748
58	0x3d09913f	0.033585783
59	0x3d61fde9	0.05517379
60	0x3dea6e21	0.11446787
61	0x3d67bbac	0.056575462
62	0x3dfcecd2	0.123498574
63	0xbd0f7fb2	-0.03503389
64	0x3d32b09e	0.043625467
65	0xbdb5896e	-0.08864103
66	0xbd35fc18	-0.04442987
67	0x3e965926	0.2936489
68	0xbc3843c9	-0.01124663
69	0x3d82c774	0.06385699
70	0x3d1a2add	0.037638534
71	0xbda831de	-0.082126364
72	0xbd86251b	-0.06550046
73	0xbd54ef84	-0.051986232
74	0xbd21ec73	-0.039532136
75	0xbe15e55f	-0.1463828
76	0x3dbdcefe	0.09267996
77	0x3d937059	0.07199163
78	0x3d922373	0.07135668
79	0xbe2450a5	-0.16046388
80	0x3dba0a2d	0.09083972
81	0x3dad66e3	0.0846689
82	0x3e09f439	0.1347207
83	0xbddffaba	-0.10936494
84	0xbde530e5	-0.111909665
85	0xbd72888f	-0.059212264
86	0xbd7d0647	-0.061773565
87	0x3d26751e	0.040639035
88	0x3c9dd153	0.019264853
89	0xbdab5e64	-0.08367613
90	0xbdb76f66	-0.089567944
91	0xbe0aae53	-0.13543062
92	0x3baa0467	0.005188513
93	0x38ae2504	8.303861e-05
94	0xbdcba3f3	-0.0994338
95	0x3dbe3619	0.09287662
96	0x3db8f5b8	0.09031242
97	0x3e073a09	0.13205732
98	0xbca3236d	-0.019914353
99	0xbd8b5646	-0.06803565
100	0x3d80edf5	0.06295387
101	0xbe73fe0b	-0.23827378
102	0xbda4911a	-0.080354884
103	0x3de7ae77	0.113125734
104	0x3dcf7f23	0.10131671
105	0x3d24bcbc	0.040219054
106	0xbdf1c8a4	-0.11805847
107	0xbc3d617d	-0.011558888
108	0xbd4e5ac5	-0.050379533
109	0x3d6d3644	0.05791308
110	0x3e0a2323	0.13489966
111	0xbda2cb99	-0.079489894
112	0xbce65387	-0.028116
113	0x3dbe33b7	0.092872076
114	0xbd891581	-0.06693555
115	0x3d123227	0.03569236
116	0x3d9ae414	0.07563034
117	0x3da0ae5a	0.07845755
118	0x3d838846	0.064224765
119	0xbd6612a0	-0.056170106
120	0x3c78d48a	0.015187392
121	0x3cee54fe	0.029093262
122	0xbd0b9d9a	-0.034085847
123	0xbddd3841	-0.10801745
124	0xbd902f60	-0.07040286
125	0x3c8c2d2a	0.01711138
126	0x3c184d18	0.009295724
127	0xbd9cef0a	-0.076627806
128	0xbd7718ac	-0.060326263
129	0xbd92ad7e	-0.07161997
130	0xbcf4f915	-0.029903928
131	0xbda41e6c	-0.08013615
132	0xbd61e208	-0.0551472
133	0x3e038c4f	0.12846492
134	0x3d89c20b	0.06726464
135	0xbcbb8582	-0.02289081
136	0xbe22675b	-0.1585974
137	0xbd164880	-0.036690235
138	0xbe17ad16	-0.14812121
139	0xbbd006ac	-0.0063484516
140	0xbd9fd082	-0.078034416
141	0x3d9a2ed9	0.07528467
142	0xbd50b6e8	-0.050955683
143	0xbc29190f	-0.010320916
144	0x3e1afa54	0.15134555
145	0xbe596b60	-0.21232367
146	0xbd6c9632	-0.057760425
147	0x3d842743	0.06452801
148	0x3e3a1a22	0.18174031
149	0x3ca3a787	0.019977344
150	0xbddd27ab	-0.10798582
151	0x3d42ae72	0.047529645
152	0x3d2d72f5	0.04234596
153	0x3d364650	0.04450065
154	0x3d13f05b	0.036117893
155	0x3dd2866a	0.10279544
156	0x3d3593db	0.04433046
157	0x3d04ab80	0.032390118
158	0xbd9ce537	-0.07660907
159	0xbe0fb3a0	-0.14033365
160	0xbcaf4c60	-0.021398723
161	0xbd0cccc6	-0.034374975
162	0xbe13a9da	-0.14420262
163	0xbe1f0926	-0.15530834
164	0xbde82359	-0.11334867
165	0xbd192002	-0.03738404
166	0x3d80d6c4	0.06290963
167	0x3d11eb9a	0.035625078
168	0x3c6451be	0.0139355045
169	0xbef159d7	-0.47138855
170	0xbd8236b7	-0.06358092
171	0x3d8b4646	0.06800513
172	0xbdc07c6e	-0.09398733
173	0x3d262a05	0.040567417
174	0x3e003f36	0.12524113
175	0xbda67799	-0.0812828
176	0x3d2c5843	0.04207636
177	0x3d3d1a48	0.046167642
178	0x3de6a66c	0.11262211
179	0x3dbbb05a	0.09164496
180	0xbe4d3b1f	-0.20042084
181	0xbc224e9c	-0.009906437
182	0x3e368a4d	0.17826195
183	0x3d4ed52d	0.05049627
184	0xbcf8ce32	-0.03037176
185	0xbdd252f2	-0.10269727
186	0xbda63379	-0.081152864
187	0xbd771ac3	-0.060328256
188	0xbd58f34a	-0.052966394
189	0xbd301b16	-0.04299458
190	0xbd3a92cf	-0.045550164
191	0x3c77ea6f	0.015131577
192	0x3cbcec82	0.023061994
193	0x3d555d75	0.05209108
194	0xbc4bb4e7	-0.012433267
195	0xbdfd169e	-0.123578295
196	0x3d5f0791	0.054450575
197	0xbc8f89de	-0.017521795
198	0x3d9a0846	0.07521109
199	0x3cb0c2ae	0.021577206
200	0x3e477058	0.1947645
201	0xbe1812fe	-0.14850995
202	0xbdc17d97	-0.094477825
203	0xbe21a948	-0.15787232
204	0xbdc43f04	-0.09582332
205	0x3cd69bca	0.026197333
206	0xbdf6d4cd	-0.12052307
207	0x3e1bd4f8	0.1521796
208	0x3dd148e5	0.10218982
209	0xbe113fa0	-0.14184427
210	0xbd332391	-0.04373509
211	0xbdaf2615	-0.085521854
212	0x3dce21bf	0.1006503
213	0xbde2c14d	-0.110720254
214	0x3e09ebfa	0.13468924
215	0xbc1b28b5	-0.0094701545
216	0xbe4c0c2d	-0.1992652
217	0xbcebe892	-0.028797422
218	0xbd1bafbd	-0.038009394
219	0x3bd1ef41	0.006406695
220	0xbcf5b127	-0.0299917
221	0x3cf6f30a	0.030145187
222	0x3dbff28b	0.09372433
223	0x3d21704a	0.039413728
224	0xbcc2aaa1	-0.023763003
225	0xbde01535	-0.10941545
226	0xbdabc3c6	-0.0838695
227	0x3dfabbdf	0.12242865
228	0x3e190515	0.14943345
229	0x3de0187b	0.10942169
230	0xbdaaa5b3	-0.08332386
231	0x3e0723b1	0.13197209
232	0x3d678606	0.0565243
233	0x3d169ba4	0.036769524
234	0xbcc28b25	-0.02374799
235	0xbcca2ed9	-0.024680542
236	0xbc33aa2e	-0.010965867
237	0x3e6e15b7	0.23250471
238	0xbd4db9ea	-0.05022613
239	0x3d1a1cb4	0.03762503
240	0x3e069281	0.13141824
241	0x3d736c8e	0.059429698
242	0xbd8be9b7	-0.06831687
243	0xbe1a1039	-0.15045251
244	0x3dcc4f43	0.099760555
245	0x3dba4842	0.09095813
246	0xbe04f807	-0.1298524
247	0x3cd017c1	0.025401952
248	0x3bbcbd4c	0.0057598706
249	0x3c96b430	0.018396467
250	0x3df039f6	0.11729805
251	0x3d6b3389	0.057422195
252	0x3d00bb22	0.031428464
253	0x3d5fe96b	0.054665964
254	0x3d61556c	0.055013105
255	0xbd549657	-0.051901188

fc1.bias f4 [20]
0	0xbd6eaeda	-0.05827222
1	0x3e09a657	0.1344236
2	0xbd4eff69	-0.050536547
3	0x3daa37dd	0.08311436
4	0xbd4ff0e6	-0.050766848
5	0xbdcae374	-0.099066645
6	0xbe1eff3c	-0.15527052
7	0xbe28245e	-0.16420123
8	0x3d38452e	0.04498785
9	0x3deac88f	0.11464035
10	0xbd6096da	-0.054831363
11	0x3ca3f303	0.020013338
12	0xbd04100c	-0.032241866
13	0xbe25b6da	-0.16183034
14	0x3d9793ea	0.07401259
15	0x3e1e6750	0.15469098
16	0xbe2b3bb6	-0.16721997
17	0x3e09553f	0.13411425
18	0x3ae15b07	0.0017193266
19	0x3df8013c	0.121096104
