models/compas_latent_svc_10_15.pt (torch, 2407 bytes, 2 tensors)

fc1.weight f4 [10, 34]
000000 fe 44 0b 3d f9 84 ff 3d 8f 7f 0c 3e d9 d9 25 bd
       0.034001343 0.124765344 0.13720535 -0.04049096
000010 a9 53 0a 3e 6f 13 17 3d 87 90 e9 bd eb 28 7a bd
       0.13508476 0.036883768 -0.114045195 -0.06107418
000020 1f c8 9f 3d ab 06 46 bc 5a a7 73 3d ea ff 2a 3d
       0.07801842 -0.012086551 0.05948577 0.041747965
000030 2e 9a 57 be 57 8b cc bd a3 04 90 3d 07 63 90 bd
       -0.21054909 -0.099875145 0.070321344 -0.07050138
000040 49 a5 e6 bd e7 02 be bd 7f 0d 04 bd 44 b7 cb bd
       -0.112619944 -0.09277897 -0.032239433 -0.099470645
000050 03 e0 89 bd 53 f4 c0 3d 7e 73 80 3d 77 62 99 bc
       -0.0673218 0.09421601 0.062720284 -0.01872371
000060 82 f7 ea bc e0 07 08 3e 3d 60 2a bd 2c f8 f7 3c
       -0.028682474 0.13284254 -0.041595686 0.030269705
000070 be c4 43 bc 04 d2 0f bc d4 47 2d be 6a 5c 00 3c
       -0.011948762 -0.008778099 -0.16921932 0.007834533
000080 12 c1 9d 3d 2e 24 1b 3f 82 d7 ae 3d b4 d5 a6 3d
       0.07702841 0.6060208 0.085371986 0.081462294
000090 a7 7c 24 be 3b 9a 21 bc 08 a5 5c bd e5 bb 9d bd
       -0.16063176 -0.009863432 -0.053868324 -0.07701854
0000a0 44 eb f5 bc c4 5b d4 3d 33 d1 78 3d 74 06 85 be
       -0.03001941 0.103690654 0.060746383 -0.25981486
0000b0 84 a8 0b be a5 49 48 bc ce a3 5f be e0 be 0e be
       -0.13638502 -0.0122245895 -0.2183983 -0.1394
0000c0 5c ac 18 be 49 5c 5b bd b8 cc 36 bd 94 83 7f 3c
       -0.149095 -0.053554807 -0.04462883 0.0155953355
0000d0 20 e3 6a bc 19 c6 61 bc ff db 06 3c 9b 8d 85 3d
       -0.014336377 -0.01378014 0.008231162 0.0652115
0000e0 c7 5f a8 3c fd 0f c5 3d f6 3f 84 3d 59 38 1e bd
       0.020553483 0.0962219 0.06457512 -0.038627956
0000f0 72 db 01 3d f7 f0 11 3e 20 ff 43 bc ea bd 24 be
       0.03170342 0.14252077 -0.011962682 -0.16088071
000100 7a 33 c1 bd d6 1f 38 3c e1 3d 76 3d eb f1 82 3e
       -0.094336465 0.011238059 0.060117606 0.25575194
000110 bf 74 60 be 84 f4 6c bd 28 af 7d 3d 35 0f 05 3e
       -0.21919535 -0.057850376 0.06193462 0.12994082
000120 c8 dc 69 3d 68 43 07 be 95 d0 69 3e d8 2c ad bd
       0.05709532 -0.13209307 0.22833474 -0.08455819
000130 78 a9 f2 3d b3 5f a3 bc f3 da 11 bc dc c0 4a 3c
       0.1184873 -0.019943094 -0.008902299 0.012375083
000140 57 4c 35 be d8 a8 31 bc 24 58 a1 bd f1 32 5e bb
       -0.17704903 -0.010843478 -0.078781396 -0.0033904875
000150 87 cc 97 3c ca fe 0d 3d a4 f9 3e 3c 45 20 0b 3d
       0.018530143 0.034666814 0.011656199 0.03396632
000160 b7 ba e6 3c 66 89 0a 3d d6 09 5b 3e 8c e5 3d bc
       0.028165204 0.03382244 0.21390471 -0.011590373
000170 f5 93 c9 3c 3a 23 28 3d 76 1e cc bd 77 fb 53 bd
       0.024606684 0.04104922 -0.099667475 -0.051753487
000180 f2 20 52 bd db bb ba bd 8d f8 18 be 2a ac b8 bd
       -0.05130095 -0.09117862 -0.14938565 -0.09017213
000190 14 f9 a3 bd e3 46 ff 3e bf b8 22 be 3b f8 56 bd
       -0.08006492 0.4985877 -0.15890788 -0.052482825
0001a0 ef f1 80 bd 0e 77 23 3c 2d dc e1 bc 0c ac 51 bc
       -0.06296145 0.009977115 -0.027570808 -0.012797367
0001b0 c3 0e 6f 3d fc 9e 17 bd 64 eb 20 be b9 8c e8 bd
       0.058363687 -0.037016854 -0.15714794 -0.11354966
0001c0 e0 5b 04 be 2b 28 b7 3c 64 67 32 bd 9e 68 72 bc
       -0.12925673 0.02235802 -0.043555632 -0.0147954505
0001d0 1d 95 8d bd d9 46 88 3d 91 71 de 3b fe 12 0a bd
       -0.06913207 0.06654138 0.0067884405 -0.03370952
0001e0 c0 11 01 3d 12 37 0a bd 52 30 e9 3c c3 99 cf 3c
       0.03151107 -0.033743925 0.028465424 0.025341874
0001f0 05 a0 76 bd e2 07 eb bd cd f6 0c bd b0 4f 57 3d
       -0.0602112 -0.11476113 -0.034415055 0.05256623
000200 95 d5 6c be c8 81 bf bd 21 ef f1 bd 84 52 57 3e
       -0.2312835 -0.09350926 -0.11813188 0.21027571
000210 9e 71 a4 3d 20 c4 ba 3c 54 cf 90 bc ea b7 64 bf
       0.08029483 0.022798598 -0.017676987 -0.8934313
000220 f6 cd 83 3c 41 4b c6 3c 87 7b 0a 3e 61 6c a8 3d
       0.01608942 0.024205806 0.13523684 0.08223797
000230 cb 78 38 bc 6d 43 1c 3d 5e 16 f0 3d 6e e5 d5 3d
       -0.011259268 0.03815024 0.11723016 0.10444151
000240 a4 a8 44 be 6c e5 0a 3c 80 85 ec 3d 20 0c 88 bd
       -0.19204956 0.00847755 0.115489006 -0.06642938
000250 96 cf e0 bd 04 67 0d bd 99 02 88 3d 28 f7 b2 3c
       -0.10977094 -0.03452207 0.066411205 0.021846369
000260 69 ea 2f bd b0 15 9f bd 7c 34 7b bd 1b 3b de bd
       -0.04294816 -0.077678084 -0.06132935 -0.10851117
000270 aa e0 d0 bc 72 0c 3b bc 9d f0 82 3d d0 f0 50 3d
       -0.025497753 -0.011416541 0.063935496 0.051010907
000280 04 d9 01 3e bd ff 8e bc d0 f8 da 3d 2d 8c 4c 3d
       0.12680441 -0.01745593 0.106919885 0.04993837
000290 65 41 05 3d 29 5b 54 3e a5 3c a8 bd 26 49 93 3d
       0.03253307 0.207379 -0.08214692 0.07191686
0002a0 2e 7d d0 3c 7b ae db be d5 9e ab 3b 5f e6 de 3b
       0.025450315 -0.42906556 0.00523744 0.0068023647
0002b0 0d eb 3d 3e dd 36 18 3e 47 ac 9c bd a9 15 06 3e
       0.18546696 0.14864679 -0.07650047 0.130942
0002c0 23 67 ef 3d 6e 66 f6 3d cf 56 b3 bd f4 dc d2 bd
       0.11689594 0.12031256 -0.08756792 -0.1029605
0002d0 9d a3 06 3e c7 25 03 3d 4a 73 48 3c c8 b9 80 bd
       0.13148351 0.03201845 0.012234518 -0.06285435
0002e0 34 46 f9 bd e3 0e 6d 3d 8b 69 96 bd 81 65 0f be
       -0.12171593 0.057875525 -0.073443495 -0.14003564
0002f0 89 62 b5 bd 02 e8 86 bd 38 8e 94 bd 2d 03 99 bc
       -0.08856685 -0.06587221 -0.072536886 -0.018678272
000300 cb 89 37 bd 50 10 5a 3d b4 5e c1 bd 4a 8c 79 bd
       -0.044809144 0.053238213 -0.09441891 -0.060924806
000310 0b 1d ce bc 41 7e bb 3c 80 8d a4 bc 31 fa 1f 3d
       -0.025160333 0.022887351 -0.020087004 0.03905696
000320 f8 4e 56 3e 53 b4 af 38 ed 57 35 3b 3b 83 34 3f
       0.20928562 8.378238e-05 0.0027670816 0.7051274
000330 1f 2c 46 bc d5 6f db 3d 4c 2a e0 bd 72 bd f1 3d
       -0.01209548 0.1071469 -0.109455675 0.11803712
000340 77 ae 65 3e aa c7 68 bd 99 0e ca 3d 05 7c c8 bb
       0.22429834 -0.05683104 0.098660655 -0.0061183
000350 8e 08 22 be 1b 84 d1 bd 9f 57 d9 3d ba b8 9f 3d
       -0.15823576 -0.10230275 0.106124155 0.07798906
000360 d0 8d 67 3e c0 4c 60 3c 39 70 18 3e 4d 64 d1 bd
       0.22612691 0.013690174 0.1488656 -0.10224209
000370 d4 47 d6 bd fd 00 f3 bd b5 4e 86 bd d6 9a d0 bd
       -0.10462919 -0.11865423 -0.06557981 -0.101857826
000380 46 64 94 bd ad a0 8b bd da 1d 80 3d 35 ed b9 bd
       -0.07245688 -0.06817756 0.06255694 -0.09078447
000390 47 f7 d6 bd 7f 7b cd bd 39 33 34 bd 3b aa 5f bb
       -0.10496383 -0.10033321 -0.043994162 -0.0034128565
0003a0 40 25 99 bd 24 12 10 be 91 f5 9b 3d f9 37 f7 bd
       -0.07477808 -0.1406942 0.076151974 -0.12071223
0003b0 4a 8d e7 bc be 03 82 be ff a3 a4 3d 30 3e a0 bc
       -0.028265614 -0.2539348 0.08039092 -0.019560903
0003c0 8e 31 39 be c1 18 40 bd 5d 98 a6 bb fd 00 21 3e
       -0.1808531 -0.046898607 -0.005084081 0.15723033
0003d0 5d a5 8b 3c 13 58 35 be df 75 37 be e7 9a d9 bc
       0.017046625 -0.17709379 -0.17916058 -0.026563121
0003e0 5d ea 0c 3e 28 cb fc ba 27 ed 7f be 67 1b f7 3d
       0.13761277 -0.001928662 -0.2499281 0.120657735
0003f0 74 f0 b8 3d a0 f7 a8 bd 41 db 5b 3c 75 ea 36 bd
       0.09030238 -0.08250356 0.013418973 -0.04465719

fc1.bias f4 [10]
000000 20 8b 8b 3c be 8e 4f bc c6 0a b8 bd 7a 6e 07 be
       0.017034113 -0.01266831 -0.0898643 -0.13225737
000010 1e a1 50 3d 57 2d 8f 3c 6a 15 00 be 72 e8 0b 3e
       0.050934903 0.017477674 -0.12508169 0.1366289
000020 c0 52 fe bd 16 f1 ee 3c
       -0.12418127 0.029167693
