models/compas_latent_xgb_15_15.pt (torch, 3047 bytes, 2 tensors)

fc1.weight f4 [15, 34]
00000000: 9a8b b5bd 4252 473d b918 21bd 57f7 5a3e
00000010: afab d33d 4090 d0bd fb7b 713e 8484 ff3d
00000020: 8323 abbd 5eb8 083e 390b a93d 6f58 4c3d
00000030: 922e 0a3e 83ec 59bd 4eaf 373a 9776 42bc
00000040: 5034 1dbd 88cf 03be 2b93 bbbd f8a1 35bd
00000050: 254f 04bc a1ac 42bb b6c8 c53d 3116 b63d
00000060: 3651 603d 5cc0 43bd 3517 d23d 82bb 1a3d
00000070: 5897 94ba 146b a63d 18ac 123e 72c5 1abd
00000080: 7be8 07bd 8ba3 4e3a c9ca 473d 971f b23d
00000090: 709b f33d 08e5 b53d 6ac7 21be 77b8 1e3d
000000a0: 43d6 143e 9d95 f43d a88b 10bd 4e40 1bbe
000000b0: 1a00 35be 89ff e3bc cf0b edbd c9f1 0d3e
000000c0: 7a60 9bb9 e8bb 603d d83e fa3d 596d 383e
000000d0: 15c7 5f3d 40e2 163c 1593 f23d db23 b13d
000000e0: 6ec5 f73d 5f72 fe3d 2cc0 b73d fb3b 443c
000000f0: 304a b43d ad42 a03d d5a1 2d3c d073 19bd
00000100: b969 32bd f342 443c 32b7 76bd 963b 7b3e
00000110: a41a 3cbe 657e efbc 1893 3b3e 274f 943d
00000120: 58e9 f3bd e663 a9bd 1a44 0ebd 69f2 1b3d
00000130: de89 863c 22f1 f13d a0da 11be 58de ac3d
00000140: 5318 bc3d 49a1 913d f0bc bf3d b651 39bd
00000150: ffdb 513d e412 ee3c 55b1 c9bd 4cee 83bd
00000160: e594 0f3d b6da f7bd 69a1 9fbd d4fc 61bd
00000170: ebc0 34bc 09f6 6c3d 9311 b73c 357b 9c3d
00000180: f6f9 f03d 50a3 d93c 82d8 afbd 4a9f cbbd
00000190: 0ec1 67bd d288 80be aa8d 95bd badd eebd
000001a0: b5f4 5cbe 0918 223e 5efd 00be 4814 803b
000001b0: 1de6 453d ee70 ae3c 57a1 ed3b 6f55 173d
000001c0: 499c e23d 72fa cf3d 6010 1bbe 5c31 733d
000001d0: 54ee 913d 268b 063c 3dbd 37bc b1de 99bd
000001e0: 1f6b 9dbd 35d8 cbbd 5dff 9ebc f5a4 333e
000001f0: be26 c93d 8600 21be 7831 5d3b bc63 17bc
00000200: fd9f 88bc dada 993d 90ac cf3c 61a8 b73d
00000210: 3e90 c23d 4376 9e3a 50b6 8ebd 7174 9b3e
00000220: ca1d 133e 08de 34be 7941 dcbd 0de8 d0bb
00000230: 84dc 97bd dfdd 89bd ccf2 73bd c384 35bc
00000240: 251d 2c3e 6ac3 80ba a0f1 45be c070 003d
00000250: 1ca3 433d 3df6 3ebd 1136 803c 0534 83bd
00000260: 3543 72bb 3eb1 a1bd fa7b 1bbd a30a fbbd
00000270: 7132 19bb b3da 143e 6120 643c d995 f7bd
00000280: fae4 34be 4617 09be bba4 433e d367 f83c
00000290: d59c ba3c 1151 093e d789 023e 15fb 5fbc
000002a0: c51a 06be 842e 13bf 0b8b 5f3d 0577 9fbd
000002b0: 7531 0b3b 0e2b 243e 2d3a d03d 8c2e f4bd
000002c0: d6d5 f73d d7ef b23d 5bf9 25bc 99bd 77be
000002d0: b3fe ae3d e2d1 323e ef2a de3d a207 363d
000002e0: e5d4 0c3e 15ba 94bd 642c 82bd 42dc a8bd
000002f0: 73fc c3bd 430a 05bd 18f6 69bd aec4 243e
00000300: 71d3 1b3e c58e 063e dbd5 433d 3734 0a3e
00000310: d6f1 29bd fa0f ac3d 8148 d83c 4e41 c8bc
00000320: 7e87 223e c5f2 bb3c 1a74 953d 504d 163f
00000330: 45c1 9b3c 689f 37bd 24d2 15bd bdfc dcbd
00000340: 2939 fdbd 57a0 02be c76a ddbd 999f f93d
00000350: a33d b9bd 262d f8bd b664 6a3d 43bd fe3d
00000360: e9e5 37be b0fc 843c 9e57 be3b b656 873c
00000370: e5c8 e13c 1963 95bd 0f74 debd f581 04bd
00000380: e160 243c d1d2 603d 0415 173d 9177 1f3d
00000390: 285d bfbc c48c a0bd 61b5 833d 0089 85bd
000003a0: 1fcb f43d 4585 0e3e f59f aa3d 8c99 09be
000003b0: 26d3 0ebe e040 673e 6c21 3dbc efcb 1c3e
000003c0: 14b7 22be 4410 55bd b71e 863d 589a 313e
000003d0: b7a4 d73c e4e0 a3bd 8fd8 1f3d c9a3 2e3d
000003e0: bf27 9ebd c660 493e f7df 3dbe 334f c4bc
000003f0: f411 783d 22f0 b1bd 8d2e 4abd 97f7 173d
-0.088645175 0.04866243 -0.039330218 0.21383415 0.103354804 -0.101837635 0.23582451 0.12476447
-0.08356383 0.1335158 0.08254094 0.049889024 0.13494328 -0.05320407 0.00070070184 -0.011869094
-0.038379967 -0.12872136 -0.091589294 -0.04434392 -0.00807551 -0.0029704946 0.09657423 0.088909514
0.05476495 -0.04779087 0.10258333 0.037776478 -0.0011336608 0.08125892 0.14323461 -0.037785955
-0.033180695 0.0007882646 0.048777375 0.086974315 0.11894882 0.08881575 -0.15798727 0.038750138
0.1453486 0.11942599 -0.035289437 -0.15161249 -0.1767582 -0.02783181 -0.11574518 0.13861765
-0.00029635784 0.0548667 0.12219018 0.18010463 0.05463322 0.009209216 0.1184446 0.08649417
0.120982036 0.12424158 0.08972201 0.011977191 0.08803213 0.078252174 0.010597666 -0.037463963
-0.043557856 0.011978853 -0.060233302 0.24534449 -0.18369538 -0.029235074 0.1831783 0.072416596
-0.11909741 -0.08271007 -0.034732915 0.038072977 0.016423162 0.118135706 -0.14243555 0.08440846
0.09184327 0.07110841 0.09362209 -0.04524394 0.051235195 0.029061742 -0.098482765 -0.06441936
0.035054106 -0.12102263 -0.077944584 -0.055172756 -0.011032323 0.057851825 0.022347247 0.076406874
0.11766426 0.026567131 -0.085862175 -0.09942491 -0.056580596 -0.25104386 -0.07302411 -0.11663385
-0.21577723 0.15829481 -0.12596652 0.0039086677 0.048315156 0.021294083 0.007251899 0.03694671
0.11064965 0.101551905 -0.15142965 0.059373245 0.071255356 0.0082118865 -0.0112145515 -0.07513178
-0.07686447 -0.099533476 -0.019408876 0.17543395 0.098218426 -0.15722856 0.003375141 -0.009240087
-0.01667785 0.07512446 0.025350839 0.089676626 0.09500168 0.0012089688 -0.06968367 0.30362275
0.14366832 -0.17662823 -0.107546754 -0.006375319 -0.07415107 -0.06731772 -0.05955772 -0.011079016
0.16807993 -0.0009823863 -0.19330454 0.031357527 0.047762975 -0.04662155 0.01565078 -0.06406406
-0.0036966328 -0.078951344 -0.03796003 -0.12257888 -0.0023376013 0.14536552 0.013923735 -0.12089128
-0.17665473 -0.13387784 0.19105808 0.030322945 0.022779861 0.1340983 0.12747894 -0.013670702
-0.1309615 -0.5749285 0.05457596 -0.07786373 0.0021239195 0.16032049 0.10167346 -0.119229406
0.12101333 0.08737152 -0.010130252 -0.2419342 0.08544674 0.17462876 0.10848033 0.044440873
0.13753088 -0.07262055 -0.06356123 -0.08245136 -0.09569635 -0.03248049 -0.05711946 0.16090652
0.15217377 0.131404 0.04781137 0.13496481 -0.0414904 0.08401485 0.02640176 -0.024445202
0.15871999 0.02294291 0.07297535 0.5871172 0.019013057 -0.044829756 -0.03657736 -0.107903935
-0.12364418 -0.12756477 -0.10811382 0.12188644 -0.090449594 -0.121179864 0.05722495 0.124384426
-0.17958798 0.016233772 0.0058087846 0.01652084 0.027561614 -0.07294292 -0.1086198 -0.0323505
0.010032863 0.05488855 0.036885276 0.038932387 -0.02335985 -0.07839349 0.0643108 -0.06520271
0.11952805 0.13918026 0.08331291 -0.1343748 -0.13947734 0.22583342 -0.011543613 0.1531217
-0.15890151 -0.052017465 0.06548827 0.17344034 0.02632366 -0.08001879 0.039024886 0.042636666
-0.07722425 0.19665822 -0.18542467 -0.023963546 0.060563996 -0.0868838 -0.0493608 0.037101354

fc1.bias f4 [15]
00000000: d8db a0bd df4f e6bd 4bb2 9dbd 758f 1abd
00000010: f31f 393d dc16 c9bc d4bb c7bd fe6f 133e
00000020: e6a2 c5bd 91fd ffbd 8423 093e 974a febd
00000030: 0a49 e0bd abbb 4a3c 38e8 d0bd
-0.07854432 -0.11245703 -0.07700022 -0.037734468 0.045196485 -0.024547033 -0.09752622 0.1439819
-0.09650211 -0.12499536 0.13392454 -0.12416571 -0.10951431 0.012373845 -0.10200542
