models/compas_latent_nn_10_15.pt (torch, 2407 bytes, 2 tensors)

fc1.weight f4 [10, 34]
000000 2a 2f 2c 3e c8 85 60 3d d9 f9 59 be 1e 60 0d bd
       0.16814867 0.054815084 -0.21286716 -0.034515493
000010 c9 0d ac 3d 12 7e 9b 3d 94 6c 17 be f3 06 e1 bd
       0.08401067 0.075924054 -0.14787513 -0.109876536
000020 41 76 c8 bd 38 86 41 bd 76 f1 27 3e 48 8e 21 3e
       -0.0978818 -0.04724714 0.16400704 0.15776932
000030 c3 4e 5c be 02 02 a0 bd ce 74 15 3b 43 c5 51 bc
       -0.2151442 -0.07812883 0.0022805217 -0.0128033785
000040 74 01 fb 3b 99 ec ab bb 31 5a 8d 3d 2a 55 b4 bd
       0.0076600853 -0.0052467105 0.06901968 -0.08805306
000050 40 1b d3 3c a4 7b c1 bd 1e 91 58 be 10 5c 22 be
       0.02576983 -0.09447411 -0.21149108 -0.15855432
000060 3c a6 b9 bc 2f 50 78 bd 92 9a 53 3c 08 03 5b bc
       -0.022662275 -0.060623344 0.01291527 -0.013367422
000070 ba ab 83 bd 85 d6 69 3d 04 1d a8 3d c5 a2 71 3c
       -0.064292386 0.057089347 0.08208659 0.01474828
000080 80 32 88 bc 38 5c 10 3e 2e 94 18 3e a5 2e 91 3d
       -0.016625643 0.14097679 0.14900276 0.07088975
000090 34 b0 81 3e 62 a4 aa bb ca 85 82 3d ff 28 cc 3b
       0.25329745 -0.0052075842 0.063731745 0.006230473
0000a0 30 b3 45 be 8f f8 8a bc 5c 87 a8 3d 84 68 bb 3d
       -0.19306636 -0.016964225 0.08228943 0.09150794
0000b0 81 8b 73 3d 13 f2 d7 3d 00 63 18 3e 25 5d 51 3d
       0.059459213 0.10544219 0.14881516 0.05111422
0000c0 89 17 a6 3d 48 02 16 bd 3a 36 b1 bc e1 ba 92 3d
       0.08109958 -0.03662327 -0.021632303 0.071645506
0000d0 6a f8 83 3c 70 c6 9a bc 89 a1 e1 bb 51 ed 8b 3d
       0.016109664 -0.01889345 -0.0068857116 0.06832374
0000e0 80 a2 2c bd 17 55 5d 3d 96 68 a5 bd 6b 56 0e bd
       -0.04214716 0.054036226 -0.08076589 -0.034750383
0000f0 90 96 54 bc 2d 07 b2 bd c1 ae 8f bd 9e 1f 0c 3e
       -0.01297535 -0.08692775 -0.070157535 0.13683936
000100 9b b1 ca bd ca e0 1f 3d 6b 0d ca bb e8 4e 78 be
       -0.09897157 0.039032735 -0.0061661503 -0.2424885
000110 1e 84 38 be ac 0d 27 3d c5 88 1e 3d bc a1 95 bd
       -0.18019149 0.040784523 0.038704652 -0.07306239
000120 1c df 84 3d f6 13 4d bd c7 29 52 bd 05 75 e8 bd
       0.06487867 -0.050067864 -0.051309373 -0.11350445
000130 e3 5e b0 3d ac d4 93 3e a2 c6 f9 bc e4 4a 66 3d
       0.08611848 0.28873193 -0.030490223 0.056223765
000140 3b 7c 6e be 46 79 6c 3d b4 53 bd 3d bb 57 86 3d
       -0.23289578 0.057732843 0.09244481 0.06559702
000150 76 26 d7 3c d8 2b 28 3d e8 2f c1 3d 43 c3 3a 3d
       0.026263457 0.041057438 0.094329655 0.045596372
000160 c0 6f 8b 3d 47 83 00 3e 64 69 de 3d 78 c3 49 bc
       0.06808424 0.12550078 0.108599454 -0.01231467
000170 90 66 b4 3d 5b 20 00 3e 44 cc 46 3e e6 aa 06 3d
       0.08808625 0.12512343 0.19413859 0.032877825
000180 d5 67 20 3e 0a 4f 0c 3e a2 f9 ad 3d 92 c5 ea bc
       0.15664609 0.13702026 0.08494879 -0.028658662
000190 94 84 31 bd ae 3d 1f 3f 72 f6 2d 3d 20 01 d5 bc
       -0.043339327 0.6220349 0.042471357 -0.026001513
0001a0 09 ec fc 3d af 33 0d 3e ec e7 c1 3d af 1a 17 3d
       0.12349708 0.13789247 0.09468064 0.03689068
0001b0 33 86 85 3e b6 22 14 bc 82 19 0f 3e b3 79 1f ba
       0.26078948 -0.009041479 0.13974574 -0.0006083503
0001c0 39 fd 09 be 50 4c 8f 3d 4f 03 47 be c1 0f 17 bd
       -0.13475503 0.06996977 -0.19434856 -0.03688026
0001d0 4b d7 35 3d ad a0 99 bd f6 ec 07 be 6d ae e5 bc
       0.044394772 -0.075013496 -0.13273987 -0.028037274
0001e0 9b 25 1b bc e5 2e 2b be 62 c9 90 bc d9 3a 02 bd
       -0.009469415 -0.16717108 -0.017674152 -0.031794403
0001f0 83 79 dd 3c f5 f0 07 bd b3 0e 8d 3d 54 04 85 bb
       0.02703548 -0.03318878 0.06887569 -0.004059354
000200 8a 88 44 bd ef 2d 0a 3e 26 52 b0 bd c0 f5 8f bd
       -0.047981776 0.13494085 -0.086094186 -0.07029295
000210 ac b8 4e be 81 29 03 3d b6 be ad bc 4f 8a 8e 3e
       -0.20187634 0.032022003 -0.021209102 0.27839896
000220 c1 57 f0 bd 3b 37 37 be 4d 56 f8 3d c6 8f f7 3d
       -0.11735488 -0.17892163 0.121258356 0.120879695
000230 29 26 92 3d 83 c4 99 3d fd c1 49 3e 90 ed 6c bd
       0.07136185 0.07508185 0.19702907 -0.057843745
000240 b1 95 95 3c 75 db ff 3c c3 44 f9 3d 37 a8 18 3e
       0.018259855 0.031232575 0.121713184 0.14907919
000250 a6 78 6a 3e 8d c6 60 3d eb 21 22 3e 13 f5 e3 3c
       0.22897586 0.054876853 0.15833251 0.027826821
000260 28 99 32 bc 19 a5 ee bd b0 ea fb bc 76 cd da bc
       -0.010900773 -0.11652584 -0.030751556 -0.0267093
000270 ad 63 eb bc 84 1f 09 3e 4d 6f e8 3c a6 40 90 bd
       -0.028734053 0.13390929 0.028373385 -0.07043581
000280 a0 de 2f 3d 48 0c 5e 3d b1 8a a2 bd bf 6e 8e 3b
       0.04293692 0.05421093 -0.079366095 0.004346698
000290 1d b2 2b bc 19 1c 7a 3d 24 55 c1 bb bb f6 e3 bc
       -0.010479477 0.061061952 -0.005900042 -0.027827611
0002a0 36 59 2f bd 95 f2 cd be 70 dc 80 bd 4a 20 a8 bd
       -0.042809688 -0.40224138 -0.06292045 -0.08209284
0002b0 38 c3 63 bd be f4 4a be 8f 1c 29 3d e2 4e 66 be
       -0.055606097 -0.19819924 0.041287 -0.22491029
0002c0 bb a9 b7 bd cd e4 e1 bd b9 76 d1 3d 8f 90 d4 bd
       -0.089679204 -0.110299684 0.10227723 -0.10379135
0002d0 76 8b f9 3c 9e 8a 7d be 25 5e 93 3d b8 f7 de 3d
       0.030462008 -0.2475991 0.07195691 0.10887092
0002e0 56 03 61 bc 89 35 9a bc 88 69 15 bd 66 91 41 3d
       -0.0137337055 -0.018824356 -0.036477596 0.047257803
0002f0 3b 68 6f 3d 9d 3d 03 bd 80 5d 67 3c 7c e1 ab 3d
       0.05844901 -0.03204118 0.014121413 0.08392617
000300 cd 82 ed 3c 63 1f 75 bd 5a 88 a3 3d b3 2f 4b 3e
       0.028993035 -0.059844386 0.07984991 0.19842415
000310 0f 50 99 bc 8a 0b 38 3d ef 23 d2 3b f4 9e 48 3e
       -0.018714933 0.04493288 0.006412975 0.19591886
000320 e7 30 a2 bd 12 87 bc bd 50 58 2b be 06 62 06 bf
       -0.07919484 -0.0920545 -0.16732907 -0.5249332
000330 10 72 8f 3c d8 50 01 3d 3a 3e 9f 3d 03 e3 2d 3c
       0.017510444 0.03157124 0.07775541 0.010613206
000340 e7 5c 30 3e 82 9b 7c bc f5 65 8f bc c0 0b 2d be
       0.1722294 -0.015417935 -0.017504672 -0.16899014
000350 44 64 f3 3d 96 94 45 bd 0d 2f 7c 3e 40 eb 1a bd
       0.118843585 -0.048237406 0.24627323 -0.037822008
000360 0c e2 ae 3d eb 2a a1 3d 11 e2 c6 3d 84 d3 1b bd
       0.08539209 0.07869514 0.097110875 -0.038043514
000370 bb 6c cf bc 3d 15 42 3d 5d 58 45 3d 89 30 01 bb
       -0.025320401 0.047383536 0.048179973 -0.0019712767
000380 41 b4 a6 3c 1d 53 1d bd e5 82 09 3c 3d 0d 0e be
       0.020349624 -0.03840934 0.008393024 -0.13872238
000390 2c ba b2 bd 48 87 84 3c b2 13 54 bd dc bd 8a bc
       -0.08726916 0.016177788 -0.051776595 -0.016936235
0003a0 f7 f2 e8 bc de 93 27 be 5d 2f 26 3e ec 8c ab bd
       -0.028436167 -0.16365 0.16229005 -0.08376488
0003b0 f2 08 e7 ba c4 ff 51 3f 55 49 a1 3d 63 d1 73 bd
       -0.0017626567 0.8203089 0.07875315 -0.05952586
0003c0 af 0c 81 3d 44 2a 9b bd 07 2f 3f be ce 3c 90 3e
       0.06301247 -0.07576421 -0.18670283 0.2817139
0003d0 96 05 12 bd 63 26 0e 3e 22 d7 fd 3d 4f 7f d4 bd
       -0.03564986 0.13881831 0.12394549 -0.10375845
0003e0 d5 3c bc bb d4 a1 df bd d9 04 65 be 63 8b 54 bd
       -0.0057445564 -0.10919538 -0.2236513 -0.051890742
0003f0 55 49 05 be 91 ab ea 3d c2 b0 d6 3d 34 38 8f bc
       -0.13016255 0.11458505 0.104829326 -0.017482854

fc1.bias f4 [10]
000000 86 86 e2 3c 78 00 93 3c f7 8c ea 3d 1a da eb 3d
       0.027652036 0.01794456 0.11452668 0.11516209
000010 20 28 1a be 2c b8 29 bc 65 73 dc bd de 92 13 be
       -0.15054369 -0.010358851 -0.10764197 -0.14411494
000020 30 b5 fa 3d a0 32 b7 bd
       0.1224159 -0.08945203
