models/fico_svc_7.pt (torch, 1703 bytes, 2 tensors)

fc1.weight f4 [7, 24]
000000 5f 9e 96 3c 30 0e b3 3e d4 7d 25 bf 96 7c 37 bc
       0.018386064 0.34971762 -0.64645123 -0.011199137
000010 c3 06 74 3e d7 4b 1b bd 2a 0d 15 3d 21 70 79 be
       0.23830704 -0.037914123 0.036389507 -0.2435918
000020 29 d0 b9 3e 07 47 58 be 18 c1 93 be 97 63 5f 3e
       0.36291626 -0.21120845 -0.28858256 0.21815334
000030 21 10 3c be ce 02 b0 bd 74 3a c6 3e f9 d9 d1 bd
       -0.18365528 -0.08594285 0.3871647 -0.10246653
000040 d2 65 fa bd 5d 60 38 3e c6 4a 52 3c c0 e0 09 3e
       -0.12226452 0.1800551 0.01283521 0.13464642
000050 21 d1 d7 3d 15 7e 3c 3e f4 b7 bb 3e b6 e2 35 3e
       0.10537935 0.18407471 0.36663783 0.17762265
000060 7f 34 d7 bc 41 ad d0 3e 1f 90 dc be b4 ca 35 3d
       -0.02627015 0.40757182 -0.43078706 0.044382766
000070 a8 0b 88 3d ae 1c 83 bc f0 04 a3 be 76 db 48 be
       0.06642848 -0.016004886 -0.31839705 -0.19614968
000080 f9 00 40 bf 0b 44 ad be 8f a8 2a be de 4d 3b 3e
       -0.75001484 -0.33840975 -0.16665863 0.18291423
000090 3e 86 7e be 76 62 ae bd 43 c1 55 3d 98 21 ac be
       -0.24855897 -0.08514874 0.05218626 -0.3361938
0000a0 9f e7 d4 3c 42 22 97 bd 41 ba 42 bd e2 08 f8 3b
       0.025989352 -0.07379581 -0.047540907 0.0075694183
0000b0 9d 3e 6f bd 89 d3 7e bc ec c1 19 be f7 37 2a 3e
       -0.058409322 -0.015553364 -0.15015382 0.16622911
0000c0 c9 39 f6 bd 78 4d 2f 3e 2a 53 3e 3e d7 d0 3e 3e
       -0.120227404 0.17119396 0.18586412 0.18634354
0000d0 e5 5e 43 be a6 9e 49 be 61 31 9a be f2 a9 3e bc
       -0.19079168 -0.19689426 -0.30115798 -0.011637198
0000e0 9c f0 da 3d 50 e5 53 3c bf 0e 1a be fe a2 32 be
       0.10690424 0.01293309 -0.15044688 -0.17444989
0000f0 c0 09 c4 bd 5e de 08 bf b2 7e ef be 79 9b 07 be
       -0.09572172 -0.53464305 -0.46776348 -0.13242902
000100 50 86 20 be af 72 9a 3d 48 7f 08 be fe 64 b5 3d
       -0.15676236 0.075414054 -0.13329804 0.08857153
000110 78 af c1 be 23 dc 0f 3e 92 99 1d 3e 22 85 b0 3d
       -0.37829185 0.14048819 0.15390614 0.08619143
000120 26 95 f3 bc 60 cc 8e bb b3 7e 31 3e 34 df 99 3d
       -0.029734205 -0.0043578595 0.17333488 0.07513276
000130 a3 e7 e2 be 7a 82 d1 bd 84 c2 ab be 47 ed 32 be
       -0.4431735 -0.102299646 -0.3354684 -0.17473327
000140 77 9e d1 bd 1c 59 05 3d 15 28 d3 bd a6 56 d9 be
       -0.10235303 0.032555684 -0.103103794 -0.4244892
000150 b7 f4 61 be d1 65 1a 3e 8a 36 b6 3e bc 9c 4b be
       -0.22066008 0.15077902 0.35588485 -0.19884008
000160 80 f6 da bd c3 7e aa bd 39 c8 64 bd d0 33 8e be
       -0.106915474 -0.08324959 -0.05585501 -0.27773905
000170 f5 57 18 be 3c bd 8d be 26 df b1 3e 00 e7 1a 3e
       -0.14877303 -0.27683437 0.3474056 0.15127182
000180 dd 7f 90 3c 4a 12 41 be 3f 27 3f bd 17 70 0a be
       0.017639095 -0.18854633 -0.046668287 -0.13519321
000190 9d f1 38 3d b2 05 f0 bd 56 9f d6 bd b1 93 69 3e
       0.045152295 -0.11719836 -0.1047961 0.22810246
0001a0 39 3e 63 be d1 8f 2d 3e 75 54 81 3e 11 75 ba bd
       -0.22191705 0.16949393 0.25259748 -0.0910436
0001b0 6a 7a f8 3d c4 d9 d2 be a6 1f 04 3f a1 5f d6 3d
       0.12132724 -0.41181767 0.5161079 0.104674585
0001c0 2e 12 e4 3d df fc 54 3e e9 0f 26 bd 09 c3 3f 3e
       0.1113628 0.20799588 -0.040542517 0.18726744
0001d0 25 7f 48 be de 77 8b 3e a5 42 13 3d 82 75 f9 bd
       -0.19579752 0.2723989 0.03595223 -0.12180616
0001e0 e4 08 f7 3d fd 0f a3 3c c9 5d e9 bd 86 a6 08 3d
       0.120622426 0.019905085 -0.11394841 0.033361934
0001f0 a0 7c cf 3d d4 bc 8f bd 15 dd 29 3c 0c 49 66 3e
       0.10131192 -0.07018438 0.0103676515 0.22488803
000200 4e 43 9a be 70 39 23 3e d5 0d 81 3e 2d ec bc 3d
       -0.30129474 0.1593988 0.25205866 0.092247345
000210 93 48 32 bb 2a f5 55 3e fa 5e 8b be 32 86 38 3b
       -0.0027203902 0.20894304 -0.272209 0.0028156159
000220 81 60 1c bd e8 ec 35 3e 03 ef 97 3d 53 1b 9f 3d
       -0.03817797 0.17766154 0.07418635 0.077688836
000230 a3 d7 60 3e 73 56 33 3d 1d 7f 24 3f e2 c9 16 3e
       0.21957259 0.043783616 0.6425646 0.1472545
000240 7f 42 42 be f5 53 9d bd 5a 69 c1 3d b9 3c ab bd
       -0.18970679 -0.07682029 0.09443922 -0.08361191
000250 a1 52 6f bd 40 17 f4 3c 69 0e 81 3d 07 1a 80 bd
       -0.05842841 0.029796243 0.06301577 -0.06254964
000260 76 f8 5b bc 0b 85 4f bd 49 00 8e bc fe c5 15 bc
       -0.013425937 -0.05066399 -0.01733412 -0.009141443
000270 24 ce 81 3d 82 71 09 3d 9d f5 09 bd a3 fa 04 3e
       0.06338146 0.033555515 -0.0336815 0.12986235
000280 95 a3 0f 3c c2 57 dc 3d 19 43 6b 3c 72 6c 6b 3d
       0.008767028 0.10758926 0.014359259 0.05747647
000290 76 da 8a bc b9 9a b8 3b 22 70 38 ba 90 c8 62 3f
       -0.016949873 0.0056336788 -0.0007035752 0.88587284

fc1.bias f4 [7]
000000 42 75 1c 3f be c7 d2 be 8e 4d 37 be 3d 36 e2 be
       0.6111642 -0.41168016 -0.17900679 -0.44182006
000010 79 88 00 3f 59 44 57 3f 3c 97 29 bf
       0.5020824 0.84088665 -0.6624639
