models/fico_7.pt (torch, 1703 bytes, 2 tensors)

fc1.weight f4 [7, 24]
000000 18 65 02 3d 46 9e 8e 3e 77 76 04 3e 71 e2 42 3d
       0.03183469 0.27855128 0.12935816 0.047579233
000010 69 ea 88 3e 13 7b 24 3e 48 96 0f 3e f2 c7 af 3d
       0.2674134 0.16062574 0.14022171 0.085830584
000020 b5 57 c0 be 5c fb 33 be e2 7c 84 bd fe 66 c7 3e
       -0.37566915 -0.17576355 -0.06469132 0.38945764
000030 27 b5 9c 3d 37 e4 55 bc e8 43 d7 3e 52 28 39 bc
       0.076517396 -0.013054899 0.42043996 -0.011301117
000040 6a fc d2 3d 4a b1 0f be aa a6 d3 3c 11 9c b5 3d
       0.103020504 -0.14032474 0.025836308 0.08867658
000050 ab 81 cc 3d 0d 0e ba 3d e1 16 f4 be d0 ca c5 3c
       0.0998567 0.09084711 -0.47673705 0.02414456
000060 39 75 bc 3d 60 44 82 3e d7 32 97 3d 46 cf 10 3e
       0.09202046 0.2544279 0.07382744 0.14141569
000070 bf 63 9c 3d a4 8d 37 3e 3d ca d3 3e 24 9e ab bd
       0.076362126 0.17925125 0.41365233 -0.08379772
000080 21 6d 0a 3d 78 2c e7 bc 21 93 d7 3c fc f1 15 3e
       0.03379548 -0.028219447 0.026315274 0.14643091
000090 40 74 20 bd 5e de cc 3e 4c 35 c7 3e ca 75 36 bd
       -0.039173365 0.40013403 0.3890785 -0.044545926
0000a0 48 a3 3d be 64 c7 cf 3d 74 7d bc 3d 53 eb 2f bd
       -0.18519318 0.101454526 0.09203616 -0.042949032
0000b0 e6 a5 89 3e 81 f9 93 bc 08 f6 19 3f 44 f2 46 3e
       0.26884383 -0.018063309 0.6014104 0.19428355
0000c0 20 b4 d8 3d 8c c2 79 bd f5 34 6e be 55 48 b4 bd
       0.10581231 -0.06097655 -0.23262389 -0.08802859
0000d0 e2 30 41 3e f2 fa 52 be e3 21 93 bd 4b ad 47 3e
       0.18866304 -0.2060354 -0.07184198 0.194997
0000e0 92 54 c2 be 4f 9c e5 3d ff c4 6a 3e be 4a 00 3d
       -0.37955147 0.11211454 0.2292671 0.03132128
0000f0 fd a4 99 3d 1d ad d2 be c0 ce 6c 3d f7 88 a6 3d
       0.07502172 -0.411477 0.05781436 0.08131593
000100 b4 a3 2d 3c 60 ba a3 3e 39 d7 61 bc 05 13 8f 3e
       0.010598112 0.3197813 -0.013784223 0.27944198
000110 6d 1a 9b bd 38 ec af 3e a8 ec b9 3e 72 f4 81 3c
       -0.075734 0.34359908 0.36313367 0.01586363
000120 b4 11 a8 bd 6b 27 27 3d ff 59 b4 3e 3f 10 ce 3d
       -0.082065016 0.040809076 0.35224912 0.100616924
000130 c3 ec e6 be fc ad 01 be ac 90 62 bd 3b 94 c1 bd
       -0.4510251 -0.12664026 -0.05531375 -0.09452101
000140 fe 18 25 bf 21 d7 a0 3d d1 b7 a5 3d c0 d3 93 be
       -0.6449126 0.078535326 0.08091701 -0.2887249
000150 a6 be fb bd 9e 14 9b 3d c4 84 0a 3e a6 8c 71 bd
       -0.12292223 0.07572292 0.13527209 -0.058972023
000160 08 fe f5 bd f6 2c 04 be ba 0a a9 bd ce d5 46 be
       -0.12011343 -0.12907776 -0.08253999 -0.19417498
000170 83 51 6e be 6e 2a 6d be 6a 27 2e 3d 13 b2 74 bd
       -0.23273282 -0.23160717 0.042518057 -0.059740137
000180 6c 5d d8 bd ff 2d 09 3f 66 07 8b 3e 04 e1 ac 3e
       -0.10564694 0.5358581 0.27154082 0.33765423
000190 9b 5c b7 bd d0 24 c8 bc 3c 8e 39 3e 41 b0 81 be
       -0.0895321 -0.024431616 0.18120664 -0.25329784
0001a0 fd d0 aa 3d 7e 58 b5 bd 76 da 7f be 20 01 c4 3d
       0.083406426 -0.08854769 -0.2498568 0.09570527
0001b0 0c ed f4 bd ba e9 b3 be 03 f6 6d be 4a 37 43 be
       -0.119592756 -0.35139257 -0.23238377 -0.1906406
0001c0 36 6c 88 be ee 16 24 3b 98 d5 e2 bd 83 17 a3 3d
       -0.26645058 0.0025038081 -0.11075896 0.07963469
0001d0 1c 3d 91 be e4 f3 26 3e c3 6f bd 3d 71 38 cf 3c
       -0.28366935 0.16303974 0.092498325 0.025295468
0001e0 4d c8 80 bd 98 b3 0d be 13 08 a2 be 53 d1 01 be
       -0.06288204 -0.13838041 -0.31646785 -0.12677507
0001f0 ca 19 31 be 1b 7b 06 be 61 22 0c be 25 c4 27 be
       -0.17294994 -0.13132899 -0.1368499 -0.16383417
000200 66 a9 b7 3e 59 0b b5 bd e4 b3 0a be 5f 76 7f be
       0.35871428 -0.08840055 -0.13545185 -0.24947499
000210 a7 15 a1 bd 97 b6 9c be 5b c8 2c 3f d2 54 dd 3d
       -0.07865458 -0.30608055 0.6749322 0.10807194
000220 43 3f 74 bd 7a ac c9 3d 0b 1f a2 bd 98 c6 71 3d
       -0.059630644 0.098473504 -0.07916077 0.059027284
000230 7a 5f 68 be bc 3a 4c 3d b2 d5 11 bd af 15 cd bd
       -0.22692671 0.0498607 -0.035604186 -0.100139014
000240 d7 97 69 be 04 c9 9d bd 33 8f 5c 3d a0 05 07 be
       -0.22811829 -0.07704356 0.053847503 -0.1318574
000250 a0 61 bb bd 0c f8 9e 3d 8c b8 b1 bd d1 92 0c be
       -0.0914948 0.07762155 -0.08677778 -0.13727881
000260 bd db 8b bd ef 94 30 be 99 0d d9 bd 5f f8 4b 3c
       -0.06829021 -0.17244314 -0.10598297 0.012449353
000270 32 d5 4a 3d f0 c4 12 3d cb 73 5d bd 55 7e b4 3d
       0.049519725 0.035832345 -0.054065507 0.088131584
000280 29 26 ec 3d 1d 56 11 3e 0f 55 5d 3c 5d b0 9e 3d
       0.11530716 0.14193006 0.013509049 0.077484824
000290 21 6d 72 bc 34 d3 05 ba 9a ac 43 bc 44 5e 6e 3f
       -0.014796526 -0.0005105019 -0.011943007 0.9311259

fc1.bias f4 [7]
000000 ba 4a 7e 3e 61 38 ce 3e d5 7a 6d 3e 34 44 7f be
       0.24833193 0.4027739 0.23191388 -0.24928361
000010 42 a1 f1 bd 28 ec 8d 3b 6e c6 1b 3e
       -0.117983356 0.0043311305 0.15212414
