models/fico_3.pt (torch, 1319 bytes, 2 tensors)

fc1.weight f4 [3, 24]
000000 9e f0 15 3f 45 d9 1c 3e 14 9c 8f 3d 5e 95 68 3e
       0.5857028 0.15317257 0.070121914 0.22713229
000010 fc 02 9d 3e 69 dd 0b 3d 1d 82 fa 3d c9 9f d8 3e
       0.3066634 0.0341467 0.122318484 0.42309406
000020 48 ed 62 bd 3e c3 50 3e 2d a5 48 3e 44 06 22 3e
       -0.05540207 0.20386979 0.1959426 0.15822703
000030 73 4d 26 3d ad ba 42 be 3b b4 b8 3e 68 ee a2 bd
       0.040601205 -0.19016524 0.36075005 -0.07955629
000040 fe b7 7c be 36 7b 5f be 73 c7 e3 bb d5 02 3f 3b
       -0.24679562 -0.21824345 -0.0069512664 0.0029145975
000050 0e 77 10 3e b5 47 83 3e 50 35 6f be 68 e3 86 bf
       0.14107916 0.25640646 -0.23360181 -1.0538149
000060 56 e3 36 bd 18 a4 38 3c dd 72 bd 3e 03 74 e5 3d
       -0.0446504 0.011269592 0.37001696 0.11203768
000070 df 14 68 be 03 f0 ae be a3 25 5c be 24 70 1a be
       -0.22664212 -0.3416749 -0.21498732 -0.15081841
000080 26 e0 87 3d 40 47 00 3b 84 fc f5 bd 81 26 7d be
       0.0663455 0.0019573718 -0.12011054 -0.2472172
000090 05 d2 d2 bd 4e 78 b9 bd 8f 5f a7 be 89 11 07 be
       -0.10293964 -0.090561494 -0.32690093 -0.13190283
0000a0 27 86 36 be 23 bc a0 be 2f f7 c9 bc 56 93 d7 be
       -0.17824613 -0.31393537 -0.024654 -0.42104596
0000b0 ea c7 e6 be ae aa c4 be 98 a7 d1 be 7d 75 e2 be
       -0.45074397 -0.38411468 -0.40948176 -0.4423026
0000c0 5c c8 88 bd fe 45 ad bd 73 3d 03 be 7c 44 c8 bd
       -0.066788405 -0.084606156 -0.1281641 -0.09778687
0000d0 7d b6 08 be f9 3f a8 be fd 05 30 be 5e 94 2c 3d
       -0.13350864 -0.32861307 -0.17189784 0.04213368
0000e0 66 fc 26 bf 36 e8 71 3d 46 6a cf 3b 43 73 96 bd
       -0.6522888 0.059059344 0.0063298075 -0.07346203
0000f0 c2 1c 61 bd 55 fd 3d 3d c9 d2 c7 bd f9 5e 71 3e
       -0.054959066 0.046384174 -0.09757001 0.23571385
000100 54 ee 07 be bd f2 03 bc f8 3f 4c bc f6 62 4c bd
       -0.13274509 -0.008053479 -0.012466423 -0.049899064
000110 af 07 61 bd 82 13 c4 bd 5f 01 fe 3d 71 89 cf bd
       -0.05493897 -0.09574033 0.12402605 -0.10133637

fc1.bias f4 [3]
000000 61 1c 89 3f 91 5e 51 bf 5d 76 66 bf
       1.0711786 -0.8178492 -0.9002436
