models/fico_nn_7.pt (torch, 1703 bytes, 2 tensors)

fc1.weight f4 [7, 24]
0	0x3cca9b92	0.024732385
1	0x3f0c439d	0.5479067
2	0x3e695228	0.22785246
3	0x3e88253a	0.26590902
4	0x3dfdc725	0.123914994
5	0x3ed2c106	0.4116289
6	0x3e8eed49	0.2791541
7	0xbe728a6c	-0.23685616
8	0x3e642bb5	0.22282298
9	0xbe890584	-0.2676202
10	0xbda4a214	-0.080387264
11	0x3e8f94ae	0.2804312
12	0xbd4a3b95	-0.049373228
13	0xbd425925	-0.047448296
14	0x3e9cadb3	0.30601272
15	0xbe5f83d2	-0.21827629
16	0xbd1aade6	-0.0377635
17	0x3dc5c26b	0.09656223
18	0x3be77c98	0.0070644133
19	0x3e161f02	0.14660266
20	0x3cbb7dc6	0.022887122
21	0x3e38a546	0.18031797
22	0x3e787f30	0.24267268
23	0x3e03c1ac	0.12866849
24	0x3e142daf	0.14470552
25	0xbe927b6e	-0.28609794
26	0xbee480cf	-0.44629523
27	0xbe46a4ad	-0.19398756
28	0x3e9a2080	0.3010292
29	0xbd9ca697	-0.07648962
30	0x3e5306bd	0.20608039
31	0x3e1d3410	0.15351892
32	0x3f1944d9	0.5987068
33	0x3db14a64	0.08656767
34	0xbc2764d8	-0.010216914
35	0x3dbe362c	0.09287676
36	0x3dba47fb	0.090957604
37	0x3e7cbfd0	0.24682546
38	0x3e5d011e	0.21582457
39	0x3e239554	0.15974933
40	0x3e5c49e6	0.21512565
41	0x3dbcb65b	0.09214469
42	0x3e00f170	0.12592101
43	0x3d1255c9	0.035726342
44	0x3eb9f913	0.3632284
45	0x3d49341b	0.049121957
46	0x3e1da952	0.15396622
47	0x3dbe4dd5	0.09292189
48	0x3e82f80a	0.25579864
49	0xbde34090	-0.11096299
50	0xbdb177d3	-0.08665433
51	0x3c9fa4e0	0.019487798
52	0xbe3b544d	-0.18293877
53	0x3dac971f	0.084272616
54	0xbd91171e	-0.070844874
55	0x3cd801f7	0.026368124
56	0xbe1a4e6b	-0.15068977
57	0x3e4b8f64	0.19878918
58	0x3e87a551	0.26493314
59	0xbeb17c4f	-0.34665152
60	0xbdb9deea	-0.090757206
61	0xbd2a5faf	-0.041595157
62	0x3edc6872	0.43048435
63	0xbcea4a89	-0.028599994
64	0x3d9977dd	0.07493565
65	0x3e38bb23	0.18040137
66	0xbcd7df08	-0.026351467
67	0xbcbffc50	-0.023435742
68	0xbda11e3e	-0.07867096
69	0x3c919de7	0.017775489
70	0x3f1d2f54	0.6140034
71	0x3e4c3d81	0.19945337
72	0x3d0ec969	0.03486005
73	0x3d87c15c	0.06628677
74	0x3ea2672d	0.31719342
75	0xbc8fed0e	-0.017569091
76	0x3ddeb9fe	0.10875319
77	0x3e5eba98	0.21750867
78	0x3e8e5eca	0.27806693
79	0x3dd6e9ca	0.104938105
80	0xbf095227	-0.5364098
81	0xbdd4ec12	-0.10396589
82	0x3e2d047e	0.16896245
83	0x3e7325ed	0.23744936
84	0x3da01df2	0.078182116
85	0x3eec3fcc	0.46142423
86	0x3ecc586f	0.3991122
87	0x3e0074ae	0.1254451
88	0x3e5ccb4b	0.21561925
89	0xbe074664	-0.13210446
90	0x3dd83b6a	0.10558207
91	0xbd948e66	-0.07253723
92	0x3e96f880	0.29486465
93	0xbe0e0cab	-0.1387202
94	0xbe0edafb	-0.13950722
95	0x3dbbeb54	0.09175745
96	0xbd2d4d3e	-0.042309992
97	0xbdff960c	-0.12479791
98	0xbe0879b4	-0.13327676
99	0xbe0b76a4	-0.13619477
100	0xbe7a06cf	-0.2441666
101	0xbbdaac2b	-0.006673356
102	0xbd30efeb	-0.043197554
103	0xbe91cf54	-0.2847849
104	0x3e72fef1	0.23730065
105	0xbe2bed4c	-0.1678974
106	0xbe5cd9e9	-0.21567501
107	0xbe813bb7	-0.2524087
108	0xbdce020f	-0.100589864
109	0xbdaa5ce9	-0.083185025
110	0x3f08700d	0.53295976
111	0x3d5a02b6	0.05322524
112	0x3d9c60b1	0.0763563
113	0xbe011e32	-0.12609175
114	0xbd9baeb5	-0.07601682
115	0xbe120e38	-0.14263237
116	0xbe4a149a	-0.19734421
117	0xbe296c05	-0.16545112
118	0xbecbe53b	-0.39823326
119	0xbe0a7fdb	-0.13525335
120	0xbd6d5ca2	-0.05794967
121	0x3d66ba1d	0.056329835
122	0x3eafd05d	0.34338656
123	0x3e58cb32	0.21171263
124	0xbe992d4c	-0.2991737
125	0x3dab23c6	0.083564326
126	0x3e426207	0.18982707
127	0xbe5dc818	-0.21658361
128	0x3e4abe37	0.19799124
129	0x3cfcdbfa	0.030866612
130	0xbd76adcc	-0.06022434
131	0xbe0f879e	-0.14016578
132	0xbdd9dec2	-0.10638191
133	0x3f04f428	0.5193505
134	0xbe9b1374	-0.3028828
135	0xbdb4affc	-0.08822629
136	0xbe5edc2e	-0.2176368
137	0xbe3365e3	-0.17519335
138	0x3d131941	0.035912756
139	0xbe963bbb	-0.29342446
140	0x3dddda23	0.10832622
141	0xbeb57abc	-0.354452
142	0x3e511488	0.20417988
143	0x3d979a1f	0.07402443
144	0xbdf2e2eb	-0.118596874
145	0xbd300d42	-0.042981394
146	0xbb496c03	-0.0030734546
147	0xbda7408e	-0.0816661
148	0xbd30560b	-0.043050807
149	0xbc9e002d	-0.019287193
150	0xbc0339d9	-0.008009397
151	0xbd474780	-0.048652172
152	0xbce06ed8	-0.027396604
153	0xbdab4fc7	-0.08364826
154	0xbd626784	-0.0552745
155	0x392fb3e0	0.00016756309
156	0x3ccd6ec8	0.025077239
157	0x3c4e9380	0.012608409
158	0xbcf765a4	-0.030199833
159	0xbdc3851e	-0.095468745
160	0x3df568e9	0.11982901
161	0x3da12858	0.07869023
162	0x3ae16ef7	0.0017199208
163	0x3d08e4e0	0.033421397
164	0xbc647951	-0.01394494
165	0x39d897bd	0.00041311784
166	0x3c5619aa	0.013067642
167	0x3f7fdcce	0.99946296

fc1.bias f4 [7]
0	0x3f9da61a	1.2316315
1	0x3f661ce9	0.89887863
2	0x3f4fe6c0	0.8121147
3	0x400188bf	2.0239713
4	0x3d9749fd	0.07387159
5	0xbe24fe73	-0.1611269
6	0xbf799aaf	-0.97501653
