models/fico_rf_7.pt (torch, 1703 bytes, 2 tensors)

fc1.weight f4 [7, 24]
0.07951233 -0.26602122 0.07557995 -0.116431765 -0.18864425 -0.14537488 -0.24026741 0.097018406
-0.10868475 0.22260271 0.18820505 -0.31844595 0.040048577 0.0026449068 0.28075898 0.0732962
0.03657644 0.2966102 -0.0013550129 0.03540707 -0.043300048 0.031050092 0.66314524 -0.051050857
-0.07063856 0.01569905 0.3478867 0.020744313 -0.07196787 0.052151896 0.050137114 0.07001538
-0.60339683 -0.03788896 0.105333455 0.078989334 -0.005304659 0.46226257 -0.47086328 0.023829253
-0.03830729 -0.081509 0.07328285 -0.13714257 0.20744364 -0.20382781 0.13631256 0.025047643
0.15218534 -0.20680888 -0.0024799402 -0.16716844 0.12962104 0.19278583 0.2692056 0.12050659
0.38254556 0.100079164 0.09831887 0.04945324 0.08833762 0.57951874 0.35226908 0.083130635
0.22426148 -0.11602704 0.11642881 -0.13587053 0.384975 -0.23156789 -0.08276746 -0.010033268
-0.1618188 0.053085115 0.32969034 0.11979725 -0.36587927 -0.06419025 -0.12119995 -0.17411318
-0.3664069 -0.07621659 -0.028782988 -0.2572723 -0.14126562 0.03350628 0.47592586 -0.0486283
-0.16130307 -0.26635516 -0.07566442 -0.28489003 -0.24420911 -0.26150504 -0.29105392 0.033101704
-0.27693722 0.30859438 -0.23262429 0.06909503 -0.11441925 0.059696067 0.18300645 -0.47810477
0.18205756 -0.38598192 -0.3773641 0.05249988 -0.22338946 0.2022243 0.055117175 -0.16509333
-0.28281212 0.13432005 0.029148906 -0.034724012 0.049656406 -0.034368232 0.41602945 0.049842153
0.13178892 0.27700344 -0.4475164 -0.027887724 0.34649757 0.16847403 0.08700638 0.10581022
-0.4366522 -0.17598774 0.08826759 0.38949135 0.015955701 -0.020979216 0.50184834 -0.046336893
0.03729224 0.11837656 0.046824582 0.22583127 0.17039895 0.22765021 0.042723164 0.037045635
-0.011855308 -0.03906756 0.022878202 -0.023172183 -0.00096467626 0.01759057 0.031674713 -0.0051704533
-0.0051674983 -0.011047653 0.0045228144 -0.0012339054 0.023449743 -0.00057588227 0.0023369838 0.08060835
-0.0163504 0.019628892 0.003237614 0.011163389 0.0038537378 0.0057974225 -0.013874091 1.0923194
00000000: 5cd7 a23d ef33 88be a9c9 9a3d c773 eebd
00000010: f52b 41be 27dd 14be a908 76be 96b1 c63d
00000020: 1c96 debd f7f1 633e d3b8 403e 590b a3be
00000030: fa09 243d 2c56 2d3b a4bf 8f3e 511c 963d
00000040: 2dd1 153d 4bdd 973e b09a b1ba 0107 113d
00000050: 645b 31bd c35c fe3c e3c3 293f b41a 51bd
00000060: f3aa 90bd 4b9b 803c 351e b23e faef a93c
00000070: e463 93bd 3a9d 553d 935c 4d3d 3964 8f3d
00000080: 3778 1abf 7431 1bbd 11b9 d73d 29c5 a13d
00000090: b4d2 adbb aead ec3e fe14 f1be 9135 c33c
000000a0: 1be8 1cbd 31ee a6bd 5215 963d 1a6f 0cbe
000000b0: 1b6c 543e 3db8 50be 8595 0b3e b730 cd3c
000000c0: 79d6 1b3e b5c5 53be 7e86 22bb 342e 2bbe
000000d0: 61bb 043e a669 453e 51d5 893e 29cc f63d
000000e0: 03dd c33e 4ef6 cc3d 675b c93d 7b8f 4a3d
000000f0: 5bea b43d 575b 143f 9d5c b43e 6540 aa3d
00000100: cda4 653e 969f edbd 3a72 ee3d a521 0bbe
00000110: 711b c53e 2220 6dbe fc81 a9bd 9362 24bc
00000120: d4b3 25be c76f 593d 2ccd a83e 4358 f53d
00000130: 8754 bbbe 2e76 83bd ae37 f8bd ba4a 32be
00000140: af99 bbbe 7217 9cbd 4dca ebbc 32b9 83be
00000150: efa7 10be e23d 093d 8eac f33e 782e 47bd
00000160: a22c 25be b45f 88be f3f5 9abd 1bdd 91be
00000170: f411 7abe fde3 85be 0505 95be a795 073d
00000180: b7ca 8dbe 1500 9e3e 1035 6ebe b281 8d3d
00000190: a454 eabd dd83 743d 0b66 3b3e 26ca f4be
000001a0: 4c6d 3a3e 6c9f c5be de35 c1be 1d0a 573d
000001b0: 35c0 64be e313 4f3e 8cc2 613d 3a0e 29be
000001c0: c0cc 90be 328b 093e b0c9 ee3c c43a 0ebd
000001d0: 8464 4b3d b4c5 0cbd d001 d53e 4927 4c3d
000001e0: adf3 063e 65d3 8d3e df20 e5be cc74 e4bc
000001f0: 2168 b13e 7584 2c3e 6730 b23d 07b3 d83d
00000200: e190 dfbe 2136 34be a3c5 b43d 696b c73e
00000210: 88b5 823c 9bdc abbc 2279 003f c1cb 3dbd
00000220: bfbf 183d 696f f23d 22cb 3f3d 5040 673e
00000230: 107d 2e3e 231d 693e 7cfe 2e3d 2abd 173d
00000240: c43c 42bc 4e05 20bd 116b bb3c 97d3 bdbc
00000250: 54e2 7cba 191a 903c 58bd 013d e86c a9bb
00000260: 1e54 a9bb 3701 35bc 1e34 943b ffba a1ba
00000270: ad19 c03c cef6 16ba 1528 193b fe15 a53d
00000280: 46f1 85bc c5cc a03c 262e 543b a6e6 363c
00000290: fe8e 7c3b 4ef8 bd3b 2850 63bc 1fd1 8b3f

fc1.bias f4 [7]
0.13504888 0.12977545 0.10192533 0.1306525 0.107109115 0.11688082 -1.220901
00000000: 414a 0a3e dbe3 043e 3abe d03d c5c9 053e
00000010: 065c db3d 365f ef3d 7c46 9cbf
