models/fico_latent_xgb_2_0.pt (torch, 1191 bytes, 2 tensors)

fc1.weight f4 [2, 24]
0	0x3f130dda	0.5744301
1	0x3daa215e	0.083071455
2	0xbe643c42	-0.22288612
3	0x3dfc172d	0.12309108
4	0x3e442376	0.19154152
5	0x3f4faa82	0.8111955
6	0x3f172117	0.59034866
7	0x3e2aad37	0.16667639
8	0x3f6e1b7a	0.93010676
9	0xbc25e097	-0.010124347
10	0x3e1b679b	0.15176241
11	0x3e4b0451	0.19825865
12	0x3e59d82d	0.21273871
13	0x3c9700f8	0.01843308
14	0x3e531891	0.2061484
15	0x3e11f95c	0.1425528
16	0x3ead9dac	0.33909357
17	0x3e053bd0	0.13011098
18	0xbd2fb738	-0.04289934
19	0x3e9bd1c9	0.3043349
20	0x3ebf866a	0.37407237
21	0x3eccd7a1	0.40008262
22	0x3da7e5ec	0.08198151
23	0x3df066a6	0.11738329
24	0xbe9bbad4	-0.30415976
25	0xbe405dae	-0.18785736
26	0xbebefd91	-0.3730283
27	0xbe76a8d5	-0.24087842
28	0xbe0bd16a	-0.13654104
29	0xbe0c10c1	-0.13678266
30	0x3e8b9948	0.27265382
31	0xbedccafe	-0.4312362
32	0x3da2cbfd	0.07949064
33	0xbd0c0249	-0.034181867
34	0xbe1e91d8	-0.15485322
35	0xbe2b68f2	-0.16739252
36	0xbe0a16be	-0.13485238
37	0x3ea23c8f	0.31686828
38	0xbe846dd7	-0.2586505
39	0x3c9e197e	0.019299265
40	0x3de9cd83	0.114161514
41	0x3e3a32d5	0.18183453
42	0x3c2545e2	0.010087462
43	0xbe3079b8	-0.17233932
44	0x3e4e104b	0.20123403
45	0xbe5bcdc4	-0.21465212
46	0x3f35e69d	0.7105501
47	0xbd967bbc	-0.07347819

fc1.bias f4 [2]
0	0x3f1308aa	0.57435095
1	0xbe83151c	-0.25602043
