models/fico_latent_svc_7_1.pt (torch, 1703 bytes, 2 tensors)

fc1.weight f4 [7, 24]
0.34891152 0.38597816 -0.0439472 0.29855004 0.21276626 -0.08312417 -0.07635913 0.14425647
0.2050884 0.16885057 0.061135966 0.15987916 -0.05026314 -0.6390017 -0.24805772 -0.20882696
-0.1948084 -0.017823432 -0.12441235 0.17070246 -0.23892435 0.31228554 -0.017918937 -0.5775949
0.3584474 -0.3561654 -0.29056844 -0.14866686 -0.037993144 -0.14978296 -0.19464676 0.31719473
0.146644 0.349781 0.40264738 -0.24843659 0.03243053 -0.04368807 0.27619132 -0.06771387
0.13823865 0.14459153 0.022252135 0.004218662 0.048246033 0.01964394 0.523188 -0.56053334
-0.0072827577 -0.3510062 -0.37039492 -0.23459902 -0.119166024 -0.04496616 -0.07052756 -0.25458163
0.6755692 -0.18252096 -0.24388431 -0.28419086 -0.0075161215 -0.36192665 0.1787608 0.00088806014
0.12718852 0.10459972 -0.07346082 0.054849114 -0.20932396 0.048903167 -0.19855234 0.4380846
-0.094335325 0.20581615 0.27879947 0.28888303 -0.45315322 -0.09481282 -0.031159658 -0.16691919
0.31642732 0.21123554 -0.14397018 -0.2439246 -0.21523733 0.24784958 -0.42859298 -0.12118115
-0.3810958 -0.09553451 -0.064959355 -0.23767447 -0.13693461 -0.2917237 0.37740973 0.03374493
-0.23600489 -0.34918958 -0.08576735 -0.24217574 -0.19101802 -0.22587605 -0.318133 -0.0028445993
-0.4632996 -0.032515097 -0.005424151 -0.21350142 0.05760175 -0.26640958 -0.6291763 0.2722055
0.007541714 0.27410674 -0.0394182 0.1440102 -0.20185973 0.080559485 0.09595547 0.6020524
0.09909039 -0.10687932 -0.20751192 -0.12000114 0.4049969 0.08594697 0.09867483 0.1328502
0.48453367 0.024407284 -0.033967685 0.3374861 0.16912423 0.2583936 -0.4736807 0.18911621
-0.00022927846 0.10215503 0.15628886 0.12969095 0.3941633 0.106615536 0.16217731 0.38946086
-0.21263722 0.30527806 0.104440786 0.0847148 0.0051061693 0.17027208 0.31267825 -0.21200931
-0.035309352 -0.09297791 -0.012925697 0.12375567 0.013607083 -0.0702243 0.34238008 0.11507246
-0.14919652 0.396918 -0.0023693668 0.26047757 -0.024231091 0.22393434 0.6049138 0.9215885
00000000: 88a4 b23e ee9e c53e fb01 34bd 8ddb 983e
00000010: 66df 593e 013d aabd 2d62 9cbd f8b7 133e
00000020: b202 523e 2ae7 2c3e b569 7a3d 5db7 233e
00000030: b9e0 4dbd 9e95 23bf d802 7ebe bcd6 55be
00000040: da7b 47be 7202 92bc e7cb febd a0cc 2e3e
00000050: 96a8 74be e4e3 9f3e bcca 92bc 42dd 13bf
00000060: 6b86 b73e 505b b6be 63c5 94be 203c 18be
00000070: b39e 1bbd b460 19be 7b51 47be 5967 a23e
00000080: d829 163e 7f16 b33e cc27 ce3e 2966 7ebe
00000090: e0d5 043d 43f2 32bd f368 8d3e 92ad 8abd
000000a0: 6f8e 0d3e cd0f 143e 1c4a b63c b43c 8a3b
000000b0: a29d 453d 54ec a03c a6ef 053f 1d7f 0fbf
000000c0: 33a4 eebb 16b7 b3be 67a4 bdbe ba3a 70be
000000d0: 510d f4bd 702e 38bd c170 90bd 8658 82be
000000e0: 1af2 2c3f c6e6 3abe cfbc 79be 7781 91be
000000f0: cc49 f6bb 734e b9be 120d 373e b5cc 683a
00000100: b53d 023e 6138 d63d a072 96bd 77a9 603d
00000110: 0559 56be b04e 483d 4e51 4bbe a04c e03e
00000120: e132 c1bd 78c1 523e cebe 8e3e 7ae8 933e
00000130: b303 e8be 392d c2bd 8a42 ffbc ddec 2abe
00000140: c302 a23e 214e 583e eb6c 13be 5fc7 79be
00000150: 2d67 5cbe 48cc 7d3e 8a70 dbbe d32d f8bd
00000160: fd1e c3be 99a7 c3bd 6909 85bd f060 73be
00000170: 9638 0cbe cf5c 95be d93b c13e 2038 0a3d
00000180: 44ab 71be fac8 b2be cba6 afbd ebfc 77be
00000190: 3a9a 43be 0d4c 67be 54e2 a2be 756c 3abb
000001a0: 9b35 edbe 8d2e 05bd 14bd b1bb 1ea0 5abe
000001b0: d0ef 6b3d d666 88be b311 21bf 855e 8b3e
000001c0: 7b20 f73b b857 8c3e fa74 21bd 6977 133e
000001d0: 51b4 4ebe 5ffc a43d 4d84 c43d 1b20 1a3f
000001e0: e7ef ca3d 8ce3 dabd 017e 54be 28c3 f5bd
000001f0: c15b cf3e f704 b03d 0716 ca3d e209 083e
00000200: cc14 f83e c9f1 c73c b321 0bbd faca ac3e
00000210: e72e 2d3e 2a4c 843e 4786 f2be aea7 413e
00000220: 786a 70b9 a836 d13d 300a 203e b4cd 043e
00000230: c6cf c93e 3f59 da3d cf11 263e 6a67 c73e
00000240: 92bd 59be 684d 9c3e 0de5 d53d f47e ad3d
00000250: a751 a73b ce5b 2e3e 5d17 a03e f818 59be
00000260: 8aa0 10bd 346b bebd 4dc6 53bc 9d73 fd3d
00000270: 3ef0 5e3c c2d1 8fbd 714c af3e 1cab eb3d
00000280: f9c6 18be d638 cb3e 6147 1bbb 515d 853e
00000290: 4880 c6bc 0b4f 653e a1db 1a3f 39ed 6b3f

fc1.bias f4 [7]
0.558105 0.5329393 0.067066714 0.008172831 -0.15627386 0.056738548 0.013668876
00000000: f8df 0e3f b66e 083f 465a 893d 56e7 053c
00000010: 4106 20be ae66 683d 6cf3 5f3c
