models/german_latent_xgb_2_04.pt (torch, 1575 bytes, 2 tensors)

fc1.weight f4 [2, 72]
00000000: eb5d 203c 41fb 34bd fffe f3bc ec1a 903d
00000010: 27a5 983d 6a7b 873d 70f4 763d f92a 423d
00000020: d7f4 bb3c c49c 833c b205 4c3d 4c08 163d
00000030: 6387 93bb 2d83 b1bc cc84 f5bb 350b 82bc
00000040: f412 3dbc 3fa1 e6bc 1f79 f9bc eb20 c6ba
00000050: 52f1 36bc 28b1 013b 325d 55bc ee5f 3e3b
00000060: 627c 4aba 4610 52bc c8b6 c3bc 2d2f 983b
00000070: 17b6 be3c 35f1 893c 318e b13b 9aa4 d33a
00000080: d8d0 673c 1a60 d93a c28e 2c3c bf1e 8abc
00000090: be58 c83c 1065 cc3c 92bc 4c3a e927 42bd
000000a0: 2e91 48bd 8425 4abd 848f 71bd f947 033c
000000b0: 61c5 713c af23 553c e0e2 f3ba 7e74 af3c
000000c0: d125 1d3d 0e55 a13c 017e 203d 4c0b 953c
000000d0: 8b71 5a3d 5a63 1b3d 0684 63ba 4f07 193a
000000e0: 9254 6abc ccde 4fbb f894 79bc 141e a0bc
000000f0: 4ac5 76bc 7cfb 8a3c 254e 073c ebad e73b
00000100: 9a11 0dbc e7df c23c 3be4 c3bb 34d7 3fbc
00000110: c6e1 d53c c8ff c23d 07b5 7b3d 2b48 b63e
00000120: 3e77 873c 3ca1 383d aef2 563c 6880 a7bb
00000130: 6025 17bc 8935 6ebc f2ed aebc 5f66 0dbd
00000140: 2674 46bd a566 29bd 0e2f 53bd 41ca ffbc
00000150: 1eb0 36bd 3f2d 35bd 2400 54bd b951 42bd
00000160: c38a 4dbd f917 2dbd 2b2b 60bc 1b98 5fbd
00000170: b206 5cbd 7c96 96bd 81a3 b2bb 3605 253b
00000180: 6057 04bc bbeb 35bc 017e 4abc 3b74 d0bb
00000190: 64fd 1abc 3b8a 68bc 8564 2dbc 40f8 463c
000001a0: ecd6 b43c d0dc 143d 1427 b43c 1812 193d
000001b0: 0b81 6b3b 0117 a6bc f401 833b f0c4 e53a
000001c0: c0d8 0a3b b0bc 9ebb f047 d33c 7d7a 7c3d
000001d0: 7613 093d ac27 193d bfe1 6abc 99bb 28bd
000001e0: 13d7 23bd cb2f 3a3c c908 d8ba ed30 373a
000001f0: 37c7 60bc fcd5 88bc ae4b 1b3c d181 c3bc
00000200: 5943 833c ab03 4b3c cf4f 8a3c 5432 a93c
00000210: 80fb f73c 3631 223d f5fd 2a3d 6a7e 183d
00000220: b764 5e3d b57f 2bbd 1b69 b9bc a6a4 acbc
00000230: 4701 43bd 8cf5 60bc 2dce ae3b 2d8d fe3e
0.009788017 -0.044184927 -0.029784678 0.07036385 0.07453375 0.06615336 0.060291708 0.047404263
0.022943897 0.016065963 0.04981012 0.036629006 -0.0045022233 -0.021668995 -0.0074926373 -0.015874485
-0.011540163 -0.02815306 -0.030453263 -0.0015116011 -0.011165934 0.0019789431 -0.013022708 0.0029048878
-0.0007724223 -0.012821263 -0.023890868 0.0046442957 0.023280187 0.01683865 0.005418562 0.0016147078
0.014148913 0.0016584427 0.010532083 -0.016860364 0.024456378 0.024950534 0.00078100816 -0.047401343
-0.04896658 -0.049352184 -0.058974758 0.008012765 0.014756531 0.013008996 -0.0018607043 0.021417852
0.038366143 0.019693878 0.039182667 0.018193863 0.05333094 0.037936546 -0.0008679036 0.0005837576
-0.01430239 -0.003171849 -0.015233271 -0.019545592 -0.015061686 0.01696562 0.008258377 0.007070293
-0.008610154 0.023788406 -0.005978135 -0.011709023 0.026108634 0.09521443 0.061451938 0.35601935
0.016536351 0.04507564 0.013119383 -0.0051117428 -0.0092252195 -0.014539131 -0.021353696 -0.034521457
-0.04845061 -0.041357655 -0.051558547 -0.031224372 -0.044601552 -0.044232603 -0.051757947 -0.047441218
-0.05018116 -0.04225919 -0.013682167 -0.05458842 -0.053717323 -0.07352921 -0.00545162 0.0025180108
-0.008077472 -0.011103566 -0.012359143 -0.006361512 -0.009459827 -0.014193113 -0.010583048 0.012144148
0.022075139 0.036343396 0.02199129 0.03737077 0.003593507 -0.020274641 0.0039980356 0.0017530005
0.0021186322 -0.0048442706 0.025791138 0.06164025 0.033465825 0.03739135 -0.014336049 -0.041194532
-0.040000033 0.011363934 -0.001648211 0.00069881865 -0.0137193715 -0.016703598 0.009478493 -0.023865612
0.016023325 0.012391011 0.016883759 0.020653881 0.030271292 0.039597712 0.0417461 0.037229933
0.054295268 -0.041869838 -0.022633126 -0.021074604 -0.04760864 -0.013730418 0.0053346367 0.49717084

fc1.bias f4 [2]
00000000: 62b9 b3bc eb16 a53d
-0.021938983 0.08061012
