models/german_latent_xgb_2_02.pt (torch, 1575 bytes, 2 tensors)

fc1.weight f4 [2, 72]
000000 62 33 b2 3c 19 37 62 bb 12 1c ef 3c 65 1d 34 bc
       0.021753017 -0.0034517704 0.02918819 -0.010993336
000010 cb b7 52 bc 5a 34 50 bc 52 c1 f5 bb c0 c9 3d bd
       -0.0128612025 -0.012707794 -0.007499852 -0.046334982
000020 14 7d dc bc fb f4 90 bc 46 18 56 bd ea 1b 11 bd
       -0.02691511 -0.01769494 -0.052269243 -0.03542701
000030 b3 f5 77 3b 42 db 28 3c 41 33 1c 3b 0e bd 88 3c
       0.0037835657 0.010306181 0.002383426 0.01669171
000040 61 ea dc 3b 9a af 9d 3c b7 58 02 3d 4d d3 dc bb
       0.0067418073 0.019248772 0.031822886 -0.006739056
000050 22 de 80 ba 2e 72 a2 bb 88 61 86 3d 23 c9 5c 3d
       -0.0009831826 -0.004957459 0.06561571 0.053902756
000060 a9 0a 65 3d 83 a1 84 3d 98 f8 9a 3d 0a d3 c3 bc
       0.05591837 0.064761184 0.07566947 -0.023904342
000070 9b 54 21 bd b4 1d 0d bd a9 e7 c4 bc 27 ce 85 bc
       -0.039387327 -0.034452155 -0.024036245 -0.016333653
000080 80 e8 26 3c 95 ca a5 3c 61 67 0f 3c c3 d9 22 3d
       0.010187268 0.0202382 0.008752675 0.039758455
000090 b5 05 79 3c ae 3a d2 3a 60 a4 00 3d 9a 74 4e bd
       0.015199115 0.0016039216 0.03140676 -0.05040417
0000a0 3c 39 51 bd e7 61 57 bd 3b 67 c4 bc 71 73 44 bd
       -0.051079974 -0.0525836 -0.023975005 -0.047961656
0000b0 83 b5 64 bd e7 07 4b bd 3b 13 42 3d de 28 0d 3d
       -0.055837166 -0.049568083 0.04738162 0.034462802
0000c0 aa 02 9d 3c 3b 83 27 3d e4 ea a5 3c 78 6f cc 3c
       0.01916631 0.040896636 0.020253606 0.024955496
0000d0 ff d4 24 ba 04 1f d2 bd 98 e3 74 bd b0 55 14 3d
       -0.00062878424 -0.10259822 -0.059787363 0.03621453
0000e0 bc f2 7d 3d 39 60 3e 3c 94 da bf 3c a8 f3 c0 3c
       0.061999068 0.011619621 0.023419656 0.023553684
0000f0 00 2d 8a 3c bb be 36 bc 5a bf b0 ba 85 6f 3c bb
       0.01686716 -0.011153872 -0.0013484762 -0.0028752994
000100 2b ac 8d 3c 32 60 ed bc d7 07 fa 3a 22 67 85 3c
       0.01729401 -0.028976534 0.0019075823 0.01628453
000110 83 89 52 3b e7 96 80 bd 2a 71 fe bc e8 9b 1e be
       0.003212542 -0.06278782 -0.03105982 -0.15489161
000120 5b 5c 92 3c ad fc a5 3c 31 e8 a0 3b 31 93 eb bc
       0.017866304 0.020262087 0.004910492 -0.02875671
000130 cd a1 14 bd 65 be 2a bd 3c bc 30 bd 89 96 ef 3a
       -0.036287118 -0.04168548 -0.043148264 0.0018279116
000140 f7 f1 88 bc 53 4c 6f bc 9c a4 6e bc 1a ba ea ba
       -0.01671694 -0.014605599 -0.014565613 -0.0017908246
000150 d8 53 ba bb 96 e4 c9 bb 9f a5 23 bc 14 0e 42 ba
       -0.0056862645 -0.006161283 -0.009988218 -0.00074026105
000160 99 b9 ce bb d0 c3 f0 bb a6 23 09 3d b9 0d 25 bc
       -0.006308746 -0.0073475614 0.033481263 -0.0100740725
000170 89 ae 46 bc 93 1a d2 bc 04 e3 af bc 49 7e 65 bc
       -0.012126573 -0.025647437 -0.021470554 -0.0140071595
000180 13 14 bf bc 14 97 de bc e7 3b 02 bd bc 2a 5e bd
       -0.023325002 -0.027171649 -0.03179541 -0.054239973
000190 03 6c 5d bd ca 28 6d bd 0a 7b 62 bd 2f 28 13 bd
       -0.054058086 -0.057900228 -0.05529312 -0.035926994
0001a0 67 96 57 bd c5 60 3c bd a4 40 64 bd d2 72 39 bd
       -0.05263367 -0.045990724 -0.05572571 -0.045275517
0001b0 4d be 56 bc 75 91 0f bd 27 7a b0 bc 8f ef ad bd
       -0.013106895 -0.035050828 -0.021542622 -0.08492958
0001c0 d6 2d b0 bd 3d ff bc bd 0c e3 7b bd af d1 22 3d
       -0.086024925 -0.0922837 -0.061495826 0.03975075
0001d0 9e 47 97 3c ef 58 a5 3c 4c 83 c3 b9 e9 c7 97 bc
       0.018466767 0.020184008 -0.00037291122 -0.018527942
0001e0 e0 ec 50 bc 0a e6 f5 ba f7 72 31 bc 51 cb b6 bc
       -0.012751788 -0.0018760574 -0.010830632 -0.022313746
0001f0 f4 56 af bc fe 5e bb 3c 85 8d 2d 3d bb bc 25 3c
       -0.021403767 0.022872444 0.04237129 0.010115798
000200 b5 c3 3c 3d 00 44 9c bc d0 7e 90 bc 76 67 8f bc
       0.04608508 -0.019075394 -0.017638594 -0.017505389
000210 ab 6a 0b bc 0c 8c 9d ba 46 fc 48 ba 0b 5f e1 bb
       -0.008509318 -0.0012019887 -0.0007666986 -0.006877785
000220 56 21 1f 3c 5b 44 ae bd b9 41 9e bd 03 ac 97 bd
       0.009712538 -0.085091315 -0.07727379 -0.074058555
000230 59 49 8d bd 1f 76 d5 bc a6 8c a0 bc 83 0e bb 3e
       -0.068987556 -0.026057301 -0.019598316 0.3653451

fc1.bias f4 [2]
000000 36 2f c9 3d ab 80 c8 bd
       0.09823458 -0.097901665
