models/german_latent_nn_10_05.pt (torch, 3879 bytes, 2 tensors)

fc1.weight f4 [10, 72]
-0.013109008 -0.020808913 -0.00434703 0.009908807 -0.0025279426 0.035872888 0.041099403 0.019509641
0.03223625 0.030871125 0.014153026 0.031397633 -0.02561644 -0.043702327 -0.033634316 -0.017794702
-0.019799309 -0.046182662 -0.056358974 -0.027194092 -0.022873934 -0.03718903 -0.0047337958 -0.040527772
-0.0051957876 -0.006199892 -0.0077729863 0.005891198 -0.007786714 -0.0006242693 0.0045276894 -0.015905883
-0.0065588932 -0.03704551 -0.021916278 -0.020717302 0.029193902 0.045326494 0.03031827 0.01919863
0.023795707 0.027410073 0.045437947 0.0044814413 0.023073662 -0.0022728588 0.01865282 -0.0025200944
0.051792543 -0.040332947 0.01399757 -0.0134401135 -0.022692382 -0.0247093 -0.059134386 -0.05322505
-0.07305727 -0.009984925 -0.007546945 -0.005234245 0.0065639857 -0.010292071 -0.014771573 -0.009059686
0.020000646 0.027574914 0.03915683 0.031624284 0.047182318 -0.0987745 -0.11688537 -0.28539342
0.006840487 0.0066617713 0.007100473 -0.017154744 0.00564788 -0.0045826025 0.0052427193 0.00450411
-0.00038758497 -0.010589334 0.03558958 -0.0005837713 -0.007551173 -0.0037278275 -0.011965788 0.0009572807
0.0067802863 -0.006455207 0.01736077 0.0052055586 -0.00092803163 0.0011087058 -0.060261123 -0.04297694
-0.068949886 -0.047261644 -0.047979478 0.0135154715 0.03032436 0.026583908 0.03236428 0.029920982
0.004308574 -0.0042759487 -0.0027346825 0.0133300545 0.07184658 0.042543285 0.039972957 0.028420849
0.015176951 0.035325687 0.03496876 -0.10625863 -0.028914135 -0.08879184 -0.012046847 -0.035222575
-0.034987047 0.07238059 0.058644455 0.06845877 0.07940322 -0.057203915 -0.052300077 0.056099005
0.05532227 0.007722696 0.0034230342 -0.017397415 -0.02018242 0.0031253742 -0.02456743 -0.022472985
0.0051606307 0.042560454 -0.024789112 -0.004669836 0.021323422 -0.011991514 -0.024654666 -0.14943898
0.056457 0.012281904 -0.009040987 -0.013184597 -0.050728153 -0.040553603 -0.025468087 -0.02044602
-0.02487099 -0.0041954154 -0.014324705 0.006968401 0.06765541 0.059237406 0.046015084 0.058560595
0.06076588 0.03756633 0.054815646 0.049993623 0.07298831 0.033389013 0.0022908323 -0.026911743
0.011346896 -0.0061173933 -0.00022341676 -0.03537454 -0.03032282 -0.023989493 -0.012902264 -0.028177682
0.01877756 0.02965931 0.024310282 0.07321711 0.0009633904 -0.033054795 -0.007028355 0.0040134913
0.016559575 -0.005212211 0.039007604 -0.022911366 -0.00658296 -0.013985978 0.035508033 0.030925239
0.020785663 -0.0011034325 0.016169928 -0.026752701 -0.022241421 0.06395302 0.06793114 0.025987454
0.051892426 -0.05759034 -0.057710834 -0.05767521 -0.054742586 -0.09125607 -0.077844076 -0.092954606
-0.08641728 0.037468545 0.021068713 0.022857858 0.029486937 0.059539728 0.074686356 0.22994322
-0.005033738 0.011074727 0.012997696 0.045072652 -0.0054706214 0.031346623 0.029098388 -0.03229411
-0.01660081 -0.0074960478 -0.014497452 -0.032335795 -0.015429875 0.002356039 -0.008840002 -0.012706174
-0.008317005 -0.0136549 0.007721672 -0.016801253 -0.015155638 -0.0062439474 0.025281385 0.0003934586
0.032474745 0.025076235 0.026269093 0.06959569 0.06357229 0.06683418 0.07061855 0.0666846
0.04912097 0.046331976 0.049480766 0.030845579 -0.025867166 -0.010401092 0.025025211 0.019632705
00000000: 2ac7 56bc 7477 aabc 8871 8ebb 8d58 223c
00000010: d7ab 25bb 73ef 123d d957 283d afd2 9f3c
00000020: 280a 043d 71e5 fc3c 18e2 673c ce9a 003d
00000030: 92d9 d1bc 3601 33bd 23c4 09bd 32c6 91bc
00000040: 2932 a2bc 082a 3dbd abd8 66bd 25c6 debc
00000050: 1e62 bbbc 8653 18bd f51d 9bbb 7300 26bd
00000060: 6d41 aabb 7728 cbbb 89b4 febb f30a c13b
00000070: b127 ffbb 01a6 23ba 035d 943b 0e4d 82bc
00000080: fceb d6bb 08bd 17bd c489 b3bc 55b7 a9bc
00000090: 0d28 ef3c 46a8 393d 055e f83c 7246 9d3c
000000a0: 37ef c23c 178b e03c 241d 3a3d 0ed9 923b
000000b0: fa04 bd3c 3ef4 14bb cccd 983c 2b28 25bb
000000c0: 6b24 543d 2934 25bd 1056 653c ec33 5cbc
000000d0: 60e5 b9bc 286b cabc e636 72bd 8302 5abd
000000e0: 0d9f 95bd d097 23bc 5d4c f7bb 0884 abbb
000000f0: b416 d73b 13a0 28bc 7804 72bc 146f 14bc
00000100: 65d8 a33c c9e4 e13c ea62 203d 7788 013d
00000110: 3f42 413d 494a cabd 9961 efbd 161f 92be
00000120: 2a26 e03b fd4a da3b 16ab e83b 1b88 8cbc
00000130: da11 b93b a829 96bb 1ecb ab3b 3797 933b
00000140: c634 cbb9 e37e 2dbc 61c6 113d 3b08 19ba
00000150: d56f f7bb 914e 74bb 270c 44bc 05f2 7a3a
00000160: 2a2d de3b 3386 d3bb 2c38 8e3c 6493 aa3b
00000170: 2647 73ba fe51 913a 5ed4 76bd 9608 30bd
00000180: 9935 8dbd 6d95 41bd 2186 44bd ff6f 5d3c
00000190: cb6a f83c 7fc6 d93c 6890 043d d91c f53c
000001a0: f02e 8d3b 421d 8cbb 5c38 33bb 4d66 5a3c
000001b0: 4d24 933d de41 2e3d afba 233d d7d2 e83c
000001c0: bfa8 783c abb1 103d 673b 0f3d 209e d9bd
000001d0: 56dd ecbc 7fd8 b5bd 2360 45bc 8c45 10bd
000001e0: 944e 0fbd 463c 943d 2b35 703d 1d34 8c3d
000001f0: 289e a23d a74e 6abd 9b38 56bd 12c8 653d
00000200: 9b99 623d ab0e fd3b fc54 603b 0685 8ebc
00000210: 9a55 a5bc 14d3 4c3b a341 c9bc 4419 b8bc
00000220: 821a a93b df53 2e3d 8912 cbbc 6c05 99bb
00000230: 75ae ae3c 0e78 44bc 95f8 c9bc 8806 19be
00000240: 753f 673d 0a3a 493c a620 14bc 3504 58bc
00000250: 53c8 4fbd 891b 26bd 73a2 d0bc 697e a7bc
00000260: 3fbe cbbc b279 89bb 2bb2 6abc 2f57 e43b
00000270: eb8e 8a3d eca2 723d 507a 3c3d 3cdd 6f3d
00000280: a5e5 783d 27df 193d 5f86 603d 1dc6 4c3d
00000290: e57a 953d ebc2 083d ca21 163b 0476 dcbc
000002a0: 55e8 393c 6a74 c8bb fb44 6ab9 e5e4 10bd
000002b0: 9067 f8bc 9d85 c4bc 0464 53bc e2d4 e6bc
000002c0: 66d3 993c 15f8 f23c 5b26 c73c daf2 953d
000002d0: 098c 7c3a 7764 07bd 1d4e e6bb 9b83 833b
000002e0: f2a7 873c 32cb aabb 70c6 1f3d 9eb0 bbbc
000002f0: dfb5 d7bb 7225 65bc df70 113d ed56 fd3c
00000300: b246 aa3c 0da1 90ba cc76 843c 7b28 dbbc
00000310: a433 b6bc cdf9 823d 7b1f 8b3d a4e3 d43c
00000320: 278d 543d d9e3 6bbd 3262 6cbd d73c 6cbd
00000330: c339 60bd 76e4 babd b76c 9fbd fc5e bebd
00000340: 8bfb b0bd 9e78 193d 4b98 ac3c 6740 bb3c
00000350: 978e f13c eedf 733d 29f5 983d 3c76 6b3e
00000360: 0ef2 a4bb c672 353c 4af4 543c 1a9e 383d
00000370: e642 b3bb 5165 003d be5f ee3c d446 04bd
00000380: 6cfe 87bc 68a1 f5bb b986 6dbc 8a72 04bd
00000390: 96cd 7cbc c667 1a3b a8d5 10bc 8e2d 50bc
000003a0: 0c44 08bc cdb8 5fbc 1406 fd3b c8a2 89bc
000003b0: 5a4f 78bc 079a ccbb e81a cf3c 1f49 ce39
000003c0: 3d04 053d ad6c cd3c 4832 d73c 2f88 8e3d
000003d0: 3032 823d 5ce0 883d 75a0 903d f091 883d
000003e0: 1233 493d 99c6 3d3d 58ac 4a3d deaf fc3c
000003f0: 61e7 d3bc 5769 2abc ac01 cd3c c4d4 a03c

fc1.bias f4 [10]
0.03376936 -0.04279434 0.07772552 0.10450824 0.114852734 -0.10462412 0.0068312953 0.09609935
0.10048862 -0.03006852
00000000: be51 0a3d 1e49 2fbd 8f2e 9f3d 6b08 d63d
00000010: e937 eb3d 2c45 d6bd 0fd9 df3b bccf c43d
00000020: facc cd3d 4252 f6bc
