models/german_latent_xgb_10_05.pt (torch, 3879 bytes, 2 tensors)

fc1.weight f4 [10, 72]
-0.007166965 0.008026744 -0.005462083 0.014261775 0.035923272 0.026823593 0.047000583 0.050078243
0.044487428 0.041318633 0.05883567 0.05756851 0.034198813 0.042360872 0.037068367 0.026178312
0.03006814 0.017829893 0.051762063 0.026790842 0.03057873 0.01662404 0.010143056 -0.0011083445
0.005132173 0.0019770265 0.003917889 -0.007284021 -0.011236444 -0.0204506 0.0076341224 -0.01074518
-0.007852967 0.025057705 0.014487465 0.05418337 0.038341444 0.056957744 0.047611892 0.012896134
-0.0017899044 0.002906993 -0.0014174854 0.044173356 0.035401758 0.027642205 0.032433774 0.068136305
-0.001685338 -0.10365321 -0.082578 -0.12858622 -0.100879386 0.062495727 0.06815056 0.046232115
0.03985532 0.039891355 0.027705073 0.028056055 0.03743672 0.006039561 0.010258572 0.0029020905
-0.014056017 0.024425855 0.0398316 0.050683234 0.017812803 -0.018257871 0.053967834 0.24895313
0.0341719 -0.03578286 -0.033789765 0.008802636 -0.036020543 -0.013794543 -0.019415606 -0.02563738
-0.023067085 0.0065249423 -0.021349069 -0.0086886445 0.007058114 0.011982791 0.0044271518 -0.0015933552
0.00038039943 -0.0005057597 -0.01517076 -0.001988135 0.001803542 -0.0041367467 0.012986417 -0.005156507
0.026830584 0.013050275 0.011407313 -0.062335458 -0.04689941 -0.03524857 -0.045648776 -0.06003517
-0.05042388 -0.043753292 -0.041310605 -0.03912181 -0.007673 0.009682317 0.028373888 -0.043569986
-0.023002924 -0.03998815 -0.054458454 -0.048019312 -0.04496426 -0.032229003 -0.031971652 -0.01364004
-0.03774871 -0.043721788 -0.03877952 -0.035321034 -0.04248522 -0.036114853 -0.07297983 -0.0029451002
0.008742103 -0.00095085293 0.0086503755 -0.0021370777 -0.037451867 -0.014463143 0.0037661837 0.0012927845
-0.03929313 -0.041068714 -0.030398352 -0.043666635 -0.028379492 -0.006972529 -0.0022474607 -0.33575892
0.0065861763 -0.025849102 -0.022165094 0.047680385 0.057009045 0.04841396 0.043895494 0.0010463349
0.035176955 0.038188215 0.032704487 0.029277833 0.012135405 0.0125694815 0.006518567 0.002646217
0.022113701 0.012202294 0.038826104 0.020312097 0.009908126 0.0231009 0.01321335 0.039527845
0.003994879 0.020063665 0.005327155 -0.012579619 -0.0018851511 0.009744023 -0.002212698 -0.008077572
-0.036163922 -0.03256044 -0.014856586 -0.046281572 0.051994916 0.039750133 0.037227523 0.01173726
0.021884054 0.014786206 0.003926093 -0.041131422 0.022850106 0.0018883356 -0.017288992 0.02664227
-0.0030131158 0.03391753 0.030661933 0.021301484 0.010811507 0.00026448237 0.021031596 -0.035319984
-0.03869325 0.040782113 0.039959606 0.038479183 0.04521795 -0.05063198 -0.0448509 -0.051326532
-0.07754059 0.044318933 0.06327242 0.05692826 0.07184558 -0.01795372 -0.0715164 0.29871008
0.027250968 -0.02248053 0.02643434 -0.01429106 -0.05096803 -0.02924755 -0.057243768 -0.009530768
-0.040299248 -0.017525027 0.014697283 -0.011258965 -0.0051107607 -0.00700113 -0.0127812475 -0.0011554732
-0.012901494 -0.012879101 0.011624127 -0.01708794 -0.016565302 -0.019220699 -0.04687235 -0.052814066
-0.028890537 -0.047316696 -0.04699552 -0.029702794 -0.033916436 -0.04247702 -0.031815514 -0.02204974
-0.035567448 -0.02262731 -0.045856047 -0.0457314 -0.058563203 -0.07090173 -0.015053927 -0.025506608
00000000: dcd8 eabb 9b82 033c 46fb b2bb 38aa 693c
00000010: 4824 133d 27bd db3c af83 403d d81e 4d3d
00000020: 7338 363d ba3d 293d acfd 703d f5cc 6b3d
00000030: 0e14 0c3d 9882 2d3d 00d5 173d e673 d63c
00000040: 7651 f63c ff0f 923c 7504 543d 7878 db3c
00000050: 3f80 fa3c 242f 883c 0f2f 263c df45 91ba
00000060: ca2b a83b 0091 013b a361 803b ccae eebb
00000070: 1019 38bc 0488 a7bc a927 fa3b 8d0c 30bc
00000080: bba9 00bc d145 cd3c d55c 6d3c 62ef 5d3d
00000090: eb0b 1d3d 864c 693d b004 433d 4e4a 533c
000000a0: 3a9b eaba 4083 3e3b ebca b9ba 1fef 343d
000000b0: 6f01 113d e871 e23c 47d9 043d 0c8b 8b3d
000000c0: 8fe6 dcba 2248 d4bd a81e a9bd 1bac 03be
000000d0: da99 cebd 85fb 7f3d 8592 8b3d e35d 3d3d
000000e0: 553f 233d 1e65 233d c0f5 e23c d0d5 e53c
000000f0: 3f57 193d 82e7 c53b 9213 283c 0031 3e3b
00000100: 354b 66bc bb18 c83c 7626 233d 3999 4f3d
00000110: 28ec 913c 8891 95bc 600d 5d3d 92ed 7e3e
00000120: d6f7 0b3d 0c91 12bd 2367 0abd ee38 103c
00000130: 478a 13bd 8202 62bc 7a0d 9fbc 7c05 d2bc
00000140: 2ff7 bcbc 2fcf d53b 3ee4 aebc d15a 0ebc
00000150: c047 e73b 7853 443c a411 913b 21d8 d0ba
00000160: 5970 c739 f594 04ba c88e 78bc 5f4b 02bb
00000170: d464 ec3a 8c8d 87bb fbc4 543c eaf7 a8bb
00000180: d0cb db3c d2d0 553c bde5 3a3c 7753 7fbd
00000190: 9919 40bd ce60 10bd 36fa 3abd 70e7 75bd
000001a0: 4589 4ebd a736 33bd 4f35 29bd 313e 20bd
000001b0: ca6d fbbb 95a2 1e3c 5b70 e83c 7176 32bd
000001c0: a170 bcbc 9dca 23bd d40f 5fbd e6af 44bd
000001d0: 722c 38bd 8f02 04bd b5f4 02bd 797a 5fbc
000001e0: 649e 1abd 9e15 33bd 46d7 1ebd caac 10bd
000001f0: fb04 2ebd 2bed 13bd 7376 95bd 9502 41bb
00000200: 0a3b 0f3c a942 79ba 4eba 0d3c 370e 0cbb
00000210: 2167 19bd d2f6 6cbc 14d2 763b a672 a93a
00000220: d5f1 20bd ab37 28bd f705 f9bc c9db 32bd
00000230: 1c7c e8bc d079 e4bb 224a 13bb 98e8 abbe
00000240: dad0 d73b 7fc1 d3bc 9293 b5bc 824c 433d
00000250: 5182 693d b74d 463d c3cb 333d 2c25 893a
00000260: b615 103d 3f6b 1c3d 24f5 053d 11d8 ef3c
00000270: 94d3 463c 3af0 4d3c b499 d53b 276c 2d3b
00000280: cb27 b53c 21ec 473c 1f08 1f3d 8e65 a63c
00000290: b155 223c 193e bd3c cf7c 583c f3e7 213d
000002a0: 79e7 823b 8e5c a43c 6a8f ae3b bf1a 4ebc
000002b0: 2d17 f7ba 65a5 1f3c ea02 11bb cb57 04bc
000002c0: 9f20 14bd 195e 05bd 0a69 73bc bf91 3dbd
000002d0: 9ff8 543d 09d1 223d e37b 183d a34d 403c
000002e0: 3046 b33c d841 723c 75a6 803b 6c79 28bd
000002f0: 2530 bb3c 0782 f73a a5a1 8dbc e440 da3c
00000300: b277 45bb 1ced 0a3d bc2e fb3c 7380 ae3c
00000310: bf22 313c 39aa 8a39 744a ac3c b0ab 10bd
00000320: d07c 1ebd 250b 273d afac 233d 599c 1d3d
00000330: 7536 393d 7b63 4fbd 94b5 37bd c53b 52bd
00000340: 9acd 9ebd c587 353d f894 813d 9b2d 693d
00000350: c723 933d ae13 93bc 3177 92bd 87f0 983e
00000360: 6c3d df3c 1729 b8bc d48c d83c 0d25 6abc
00000370: dac3 50bd 8f98 efbc 7178 6abd f026 1cbc
00000380: d310 25bd a590 8fbc dfcc 703c 8677 38bc
00000390: 2b78 a7bb bc69 e5bb 7068 51bc 3f73 97ba
000003a0: ca60 53bc dd02 53bc 1f73 3e3c 02fc 8bbc
000003b0: f5b3 87bc ba74 9dbc 39fd 3fbd 9053 58bd
000003c0: d9ab ecbc 27cf 41bd 607e 40bd 4653 f3bc
000003d0: f6eb 0abd 62fc 2dbd fc50 02bd a8a1 b4bc
000003e0: 2caf 11bd e95c b9bc 8dd3 3bbd d950 3bbd
000003f0: f8df 6fbd ed34 91bd bfa4 76bc 3cf3 d0bc

fc1.bias f4 [10]
-0.029886097 0.06676032 0.042986657 0.093483545 -0.044188783 0.0396531 0.042198434 -0.09815433
-0.11422687 -0.061309643
00000000: b0d3 f4bc a2b9 883d c712 303d 4d74 bf3d
00000010: 4cff 34bd 4a6b 223d 44d8 2c3d 2305 c9bd
00000020: c7ef e9bd d21f 7bbd
